<?xml version="1.0" ?>
<net name="litehrnet_18_coco_384x288" version="10">
	<layers>
		<layer id="0" name="input.1" type="Parameter" version="opset1">
			<data shape="1, 3, 384, 288" element_type="f16"/>
			<output>
				<port id="0" precision="FP16" names="input.1">
					<dim>1</dim>
					<dim>3</dim>
					<dim>384</dim>
					<dim>288</dim>
				</port>
			</output>
		</layer>
		<layer id="1" name="5924" type="Const" version="opset1">
			<data element_type="f16" shape="32, 3, 3, 3" offset="0" size="1728"/>
			<output>
				<port id="0" precision="FP16" names="5924">
					<dim>32</dim>
					<dim>3</dim>
					<dim>3</dim>
					<dim>3</dim>
				</port>
			</output>
		</layer>
		<layer id="2" name="Conv_0/WithoutBiases" type="Convolution" version="opset1">
			<data strides="2, 2" dilations="1, 1" pads_begin="1, 1" pads_end="1, 1" auto_pad="explicit"/>
			<input>
				<port id="0" precision="FP16">
					<dim>1</dim>
					<dim>3</dim>
					<dim>384</dim>
					<dim>288</dim>
				</port>
				<port id="1" precision="FP16">
					<dim>32</dim>
					<dim>3</dim>
					<dim>3</dim>
					<dim>3</dim>
				</port>
			</input>
			<output>
				<port id="2" precision="FP16">
					<dim>1</dim>
					<dim>32</dim>
					<dim>192</dim>
					<dim>144</dim>
				</port>
			</output>
		</layer>
		<layer id="3" name="Conv_0/Dims30844" type="Const" version="opset1">
			<data element_type="f16" shape="1, 32, 1, 1" offset="1728" size="64"/>
			<output>
				<port id="0" precision="FP16">
					<dim>1</dim>
					<dim>32</dim>
					<dim>1</dim>
					<dim>1</dim>
				</port>
			</output>
		</layer>
		<layer id="4" name="Conv_0" type="Add" version="opset1">
			<data auto_broadcast="numpy"/>
			<input>
				<port id="0" precision="FP16">
					<dim>1</dim>
					<dim>32</dim>
					<dim>192</dim>
					<dim>144</dim>
				</port>
				<port id="1" precision="FP16">
					<dim>1</dim>
					<dim>32</dim>
					<dim>1</dim>
					<dim>1</dim>
				</port>
			</input>
			<output>
				<port id="2" precision="FP16" names="5923">
					<dim>1</dim>
					<dim>32</dim>
					<dim>192</dim>
					<dim>144</dim>
				</port>
			</output>
		</layer>
		<layer id="5" name="Relu_1" type="ReLU" version="opset1">
			<input>
				<port id="0" precision="FP16">
					<dim>1</dim>
					<dim>32</dim>
					<dim>192</dim>
					<dim>144</dim>
				</port>
			</input>
			<output>
				<port id="1" precision="FP16" names="1421">
					<dim>1</dim>
					<dim>32</dim>
					<dim>192</dim>
					<dim>144</dim>
				</port>
			</output>
		</layer>
		<layer id="6" name="40252129883" type="Const" version="opset1">
			<data element_type="i64" shape="" offset="1792" size="8"/>
			<output>
				<port id="0" precision="I64"/>
			</output>
		</layer>
		<layer id="7" name="40254127876" type="Const" version="opset1">
			<data element_type="i64" shape="2" offset="1800" size="16"/>
			<output>
				<port id="0" precision="I64">
					<dim>2</dim>
				</port>
			</output>
		</layer>
		<layer id="8" name="Slice_12/Split" type="VariadicSplit" version="opset1">
			<input>
				<port id="0" precision="FP16">
					<dim>1</dim>
					<dim>32</dim>
					<dim>192</dim>
					<dim>144</dim>
				</port>
				<port id="1" precision="I64"/>
				<port id="2" precision="I64">
					<dim>2</dim>
				</port>
			</input>
			<output>
				<port id="3" precision="FP16" names="1432">
					<dim>1</dim>
					<dim>16</dim>
					<dim>192</dim>
					<dim>144</dim>
				</port>
				<port id="4" precision="FP16" names="1435">
					<dim>1</dim>
					<dim>16</dim>
					<dim>192</dim>
					<dim>144</dim>
				</port>
			</output>
		</layer>
		<layer id="9" name="5936" type="Const" version="opset1">
			<data element_type="f16" shape="16, 1, 1, 3, 3" offset="1816" size="288"/>
			<output>
				<port id="0" precision="FP16" names="5936">
					<dim>16</dim>
					<dim>1</dim>
					<dim>1</dim>
					<dim>3</dim>
					<dim>3</dim>
				</port>
			</output>
		</layer>
		<layer id="10" name="Conv_21/WithoutBiases" type="GroupConvolution" version="opset1">
			<data strides="2, 2" pads_begin="1, 1" pads_end="1, 1" dilations="1, 1" auto_pad="explicit"/>
			<input>
				<port id="0" precision="FP16">
					<dim>1</dim>
					<dim>16</dim>
					<dim>192</dim>
					<dim>144</dim>
				</port>
				<port id="1" precision="FP16">
					<dim>16</dim>
					<dim>1</dim>
					<dim>1</dim>
					<dim>3</dim>
					<dim>3</dim>
				</port>
			</input>
			<output>
				<port id="2" precision="FP16">
					<dim>1</dim>
					<dim>16</dim>
					<dim>96</dim>
					<dim>72</dim>
				</port>
			</output>
		</layer>
		<layer id="11" name="Conv_21/Dims29860" type="Const" version="opset1">
			<data element_type="f16" shape="1, 16, 1, 1" offset="2104" size="32"/>
			<output>
				<port id="0" precision="FP16">
					<dim>1</dim>
					<dim>16</dim>
					<dim>1</dim>
					<dim>1</dim>
				</port>
			</output>
		</layer>
		<layer id="12" name="Conv_21" type="Add" version="opset1">
			<data auto_broadcast="numpy"/>
			<input>
				<port id="0" precision="FP16">
					<dim>1</dim>
					<dim>16</dim>
					<dim>96</dim>
					<dim>72</dim>
				</port>
				<port id="1" precision="FP16">
					<dim>1</dim>
					<dim>16</dim>
					<dim>1</dim>
					<dim>1</dim>
				</port>
			</input>
			<output>
				<port id="2" precision="FP16" names="5935">
					<dim>1</dim>
					<dim>16</dim>
					<dim>96</dim>
					<dim>72</dim>
				</port>
			</output>
		</layer>
		<layer id="13" name="5939" type="Const" version="opset1">
			<data element_type="f16" shape="16, 16, 1, 1" offset="2136" size="512"/>
			<output>
				<port id="0" precision="FP16" names="5939">
					<dim>16</dim>
					<dim>16</dim>
					<dim>1</dim>
					<dim>1</dim>
				</port>
			</output>
		</layer>
		<layer id="14" name="Conv_22/WithoutBiases" type="Convolution" version="opset1">
			<data strides="1, 1" dilations="1, 1" pads_begin="0, 0" pads_end="0, 0" auto_pad="explicit"/>
			<input>
				<port id="0" precision="FP16">
					<dim>1</dim>
					<dim>16</dim>
					<dim>96</dim>
					<dim>72</dim>
				</port>
				<port id="1" precision="FP16">
					<dim>16</dim>
					<dim>16</dim>
					<dim>1</dim>
					<dim>1</dim>
				</port>
			</input>
			<output>
				<port id="2" precision="FP16">
					<dim>1</dim>
					<dim>16</dim>
					<dim>96</dim>
					<dim>72</dim>
				</port>
			</output>
		</layer>
		<layer id="15" name="Conv_22/Dims31216" type="Const" version="opset1">
			<data element_type="f16" shape="1, 16, 1, 1" offset="2648" size="32"/>
			<output>
				<port id="0" precision="FP16">
					<dim>1</dim>
					<dim>16</dim>
					<dim>1</dim>
					<dim>1</dim>
				</port>
			</output>
		</layer>
		<layer id="16" name="Conv_22" type="Add" version="opset1">
			<data auto_broadcast="numpy"/>
			<input>
				<port id="0" precision="FP16">
					<dim>1</dim>
					<dim>16</dim>
					<dim>96</dim>
					<dim>72</dim>
				</port>
				<port id="1" precision="FP16">
					<dim>1</dim>
					<dim>16</dim>
					<dim>1</dim>
					<dim>1</dim>
				</port>
			</input>
			<output>
				<port id="2" precision="FP16" names="5938">
					<dim>1</dim>
					<dim>16</dim>
					<dim>96</dim>
					<dim>72</dim>
				</port>
			</output>
		</layer>
		<layer id="17" name="Relu_23" type="ReLU" version="opset1">
			<input>
				<port id="0" precision="FP16">
					<dim>1</dim>
					<dim>16</dim>
					<dim>96</dim>
					<dim>72</dim>
				</port>
			</input>
			<output>
				<port id="1" precision="FP16" names="1448">
					<dim>1</dim>
					<dim>16</dim>
					<dim>96</dim>
					<dim>72</dim>
				</port>
			</output>
		</layer>
		<layer id="18" name="5927" type="Const" version="opset1">
			<data element_type="f16" shape="32, 16, 1, 1" offset="2680" size="1024"/>
			<output>
				<port id="0" precision="FP16" names="5927">
					<dim>32</dim>
					<dim>16</dim>
					<dim>1</dim>
					<dim>1</dim>
				</port>
			</output>
		</layer>
		<layer id="19" name="Conv_16/WithoutBiases" type="Convolution" version="opset1">
			<data strides="1, 1" dilations="1, 1" pads_begin="0, 0" pads_end="0, 0" auto_pad="explicit"/>
			<input>
				<port id="0" precision="FP16">
					<dim>1</dim>
					<dim>16</dim>
					<dim>192</dim>
					<dim>144</dim>
				</port>
				<port id="1" precision="FP16">
					<dim>32</dim>
					<dim>16</dim>
					<dim>1</dim>
					<dim>1</dim>
				</port>
			</input>
			<output>
				<port id="2" precision="FP16">
					<dim>1</dim>
					<dim>32</dim>
					<dim>192</dim>
					<dim>144</dim>
				</port>
			</output>
		</layer>
		<layer id="20" name="Conv_16/Dims30334" type="Const" version="opset1">
			<data element_type="f16" shape="1, 32, 1, 1" offset="3704" size="64"/>
			<output>
				<port id="0" precision="FP16">
					<dim>1</dim>
					<dim>32</dim>
					<dim>1</dim>
					<dim>1</dim>
				</port>
			</output>
		</layer>
		<layer id="21" name="Conv_16" type="Add" version="opset1">
			<data auto_broadcast="numpy"/>
			<input>
				<port id="0" precision="FP16">
					<dim>1</dim>
					<dim>32</dim>
					<dim>192</dim>
					<dim>144</dim>
				</port>
				<port id="1" precision="FP16">
					<dim>1</dim>
					<dim>32</dim>
					<dim>1</dim>
					<dim>1</dim>
				</port>
			</input>
			<output>
				<port id="2" precision="FP16" names="5926">
					<dim>1</dim>
					<dim>32</dim>
					<dim>192</dim>
					<dim>144</dim>
				</port>
			</output>
		</layer>
		<layer id="22" name="Relu_17" type="ReLU" version="opset1">
			<input>
				<port id="0" precision="FP16">
					<dim>1</dim>
					<dim>32</dim>
					<dim>192</dim>
					<dim>144</dim>
				</port>
			</input>
			<output>
				<port id="1" precision="FP16" names="1438">
					<dim>1</dim>
					<dim>32</dim>
					<dim>192</dim>
					<dim>144</dim>
				</port>
			</output>
		</layer>
		<layer id="23" name="5930" type="Const" version="opset1">
			<data element_type="f16" shape="32, 1, 1, 3, 3" offset="3768" size="576"/>
			<output>
				<port id="0" precision="FP16" names="5930">
					<dim>32</dim>
					<dim>1</dim>
					<dim>1</dim>
					<dim>3</dim>
					<dim>3</dim>
				</port>
			</output>
		</layer>
		<layer id="24" name="Conv_18/WithoutBiases" type="GroupConvolution" version="opset1">
			<data strides="2, 2" pads_begin="1, 1" pads_end="1, 1" dilations="1, 1" auto_pad="explicit"/>
			<input>
				<port id="0" precision="FP16">
					<dim>1</dim>
					<dim>32</dim>
					<dim>192</dim>
					<dim>144</dim>
				</port>
				<port id="1" precision="FP16">
					<dim>32</dim>
					<dim>1</dim>
					<dim>1</dim>
					<dim>3</dim>
					<dim>3</dim>
				</port>
			</input>
			<output>
				<port id="2" precision="FP16">
					<dim>1</dim>
					<dim>32</dim>
					<dim>96</dim>
					<dim>72</dim>
				</port>
			</output>
		</layer>
		<layer id="25" name="Conv_18/Dims30802" type="Const" version="opset1">
			<data element_type="f16" shape="1, 32, 1, 1" offset="4344" size="64"/>
			<output>
				<port id="0" precision="FP16">
					<dim>1</dim>
					<dim>32</dim>
					<dim>1</dim>
					<dim>1</dim>
				</port>
			</output>
		</layer>
		<layer id="26" name="Conv_18" type="Add" version="opset1">
			<data auto_broadcast="numpy"/>
			<input>
				<port id="0" precision="FP16">
					<dim>1</dim>
					<dim>32</dim>
					<dim>96</dim>
					<dim>72</dim>
				</port>
				<port id="1" precision="FP16">
					<dim>1</dim>
					<dim>32</dim>
					<dim>1</dim>
					<dim>1</dim>
				</port>
			</input>
			<output>
				<port id="2" precision="FP16" names="5929">
					<dim>1</dim>
					<dim>32</dim>
					<dim>96</dim>
					<dim>72</dim>
				</port>
			</output>
		</layer>
		<layer id="27" name="5933" type="Const" version="opset1">
			<data element_type="f16" shape="16, 32, 1, 1" offset="4408" size="1024"/>
			<output>
				<port id="0" precision="FP16" names="5933">
					<dim>16</dim>
					<dim>32</dim>
					<dim>1</dim>
					<dim>1</dim>
				</port>
			</output>
		</layer>
		<layer id="28" name="Conv_19/WithoutBiases" type="Convolution" version="opset1">
			<data strides="1, 1" dilations="1, 1" pads_begin="0, 0" pads_end="0, 0" auto_pad="explicit"/>
			<input>
				<port id="0" precision="FP16">
					<dim>1</dim>
					<dim>32</dim>
					<dim>96</dim>
					<dim>72</dim>
				</port>
				<port id="1" precision="FP16">
					<dim>16</dim>
					<dim>32</dim>
					<dim>1</dim>
					<dim>1</dim>
				</port>
			</input>
			<output>
				<port id="2" precision="FP16">
					<dim>1</dim>
					<dim>16</dim>
					<dim>96</dim>
					<dim>72</dim>
				</port>
			</output>
		</layer>
		<layer id="29" name="Conv_19/Dims30640" type="Const" version="opset1">
			<data element_type="f16" shape="1, 16, 1, 1" offset="5432" size="32"/>
			<output>
				<port id="0" precision="FP16">
					<dim>1</dim>
					<dim>16</dim>
					<dim>1</dim>
					<dim>1</dim>
				</port>
			</output>
		</layer>
		<layer id="30" name="Conv_19" type="Add" version="opset1">
			<data auto_broadcast="numpy"/>
			<input>
				<port id="0" precision="FP16">
					<dim>1</dim>
					<dim>16</dim>
					<dim>96</dim>
					<dim>72</dim>
				</port>
				<port id="1" precision="FP16">
					<dim>1</dim>
					<dim>16</dim>
					<dim>1</dim>
					<dim>1</dim>
				</port>
			</input>
			<output>
				<port id="2" precision="FP16" names="5932">
					<dim>1</dim>
					<dim>16</dim>
					<dim>96</dim>
					<dim>72</dim>
				</port>
			</output>
		</layer>
		<layer id="31" name="Relu_20" type="ReLU" version="opset1">
			<input>
				<port id="0" precision="FP16">
					<dim>1</dim>
					<dim>16</dim>
					<dim>96</dim>
					<dim>72</dim>
				</port>
			</input>
			<output>
				<port id="1" precision="FP16" names="1443">
					<dim>1</dim>
					<dim>16</dim>
					<dim>96</dim>
					<dim>72</dim>
				</port>
			</output>
		</layer>
		<layer id="32" name="Concat_24" type="Concat" version="opset1">
			<data axis="1"/>
			<input>
				<port id="0" precision="FP16">
					<dim>1</dim>
					<dim>16</dim>
					<dim>96</dim>
					<dim>72</dim>
				</port>
				<port id="1" precision="FP16">
					<dim>1</dim>
					<dim>16</dim>
					<dim>96</dim>
					<dim>72</dim>
				</port>
			</input>
			<output>
				<port id="2" precision="FP16" names="1449">
					<dim>1</dim>
					<dim>32</dim>
					<dim>96</dim>
					<dim>72</dim>
				</port>
			</output>
		</layer>
		<layer id="33" name="6696" type="Const" version="opset1">
			<data element_type="i64" shape="5" offset="5464" size="40"/>
			<output>
				<port id="0" precision="I64" names="6696">
					<dim>5</dim>
				</port>
			</output>
		</layer>
		<layer id="34" name="Reshape_25" type="Reshape" version="opset1">
			<data special_zero="true"/>
			<input>
				<port id="0" precision="FP16">
					<dim>1</dim>
					<dim>32</dim>
					<dim>96</dim>
					<dim>72</dim>
				</port>
				<port id="1" precision="I64">
					<dim>5</dim>
				</port>
			</input>
			<output>
				<port id="2" precision="FP16" names="1461">
					<dim>1</dim>
					<dim>2</dim>
					<dim>16</dim>
					<dim>96</dim>
					<dim>72</dim>
				</port>
			</output>
		</layer>
		<layer id="35" name="2099" type="Const" version="opset1">
			<data element_type="i64" shape="5" offset="5504" size="40"/>
			<output>
				<port id="0" precision="I64">
					<dim>5</dim>
				</port>
			</output>
		</layer>
		<layer id="36" name="Transpose_26" type="Transpose" version="opset1">
			<input>
				<port id="0" precision="FP16">
					<dim>1</dim>
					<dim>2</dim>
					<dim>16</dim>
					<dim>96</dim>
					<dim>72</dim>
				</port>
				<port id="1" precision="I64">
					<dim>5</dim>
				</port>
			</input>
			<output>
				<port id="2" precision="FP16" names="1462">
					<dim>1</dim>
					<dim>16</dim>
					<dim>2</dim>
					<dim>96</dim>
					<dim>72</dim>
				</port>
			</output>
		</layer>
		<layer id="37" name="6701130525" type="Const" version="opset1">
			<data element_type="i64" shape="4" offset="5544" size="32"/>
			<output>
				<port id="0" precision="I64" names="6701">
					<dim>4</dim>
				</port>
			</output>
		</layer>
		<layer id="38" name="Reshape_27" type="Reshape" version="opset1">
			<data special_zero="true"/>
			<input>
				<port id="0" precision="FP16">
					<dim>1</dim>
					<dim>16</dim>
					<dim>2</dim>
					<dim>96</dim>
					<dim>72</dim>
				</port>
				<port id="1" precision="I64">
					<dim>4</dim>
				</port>
			</input>
			<output>
				<port id="2" precision="FP16" names="1469">
					<dim>1</dim>
					<dim>32</dim>
					<dim>96</dim>
					<dim>72</dim>
				</port>
			</output>
		</layer>
		<layer id="39" name="5942" type="Const" version="opset1">
			<data element_type="f16" shape="32, 1, 1, 3, 3" offset="5576" size="576"/>
			<output>
				<port id="0" precision="FP16" names="5942">
					<dim>32</dim>
					<dim>1</dim>
					<dim>1</dim>
					<dim>3</dim>
					<dim>3</dim>
				</port>
			</output>
		</layer>
		<layer id="40" name="Conv_28/WithoutBiases" type="GroupConvolution" version="opset1">
			<data strides="1, 1" pads_begin="1, 1" pads_end="1, 1" dilations="1, 1" auto_pad="explicit"/>
			<input>
				<port id="0" precision="FP16">
					<dim>1</dim>
					<dim>32</dim>
					<dim>96</dim>
					<dim>72</dim>
				</port>
				<port id="1" precision="FP16">
					<dim>32</dim>
					<dim>1</dim>
					<dim>1</dim>
					<dim>3</dim>
					<dim>3</dim>
				</port>
			</input>
			<output>
				<port id="2" precision="FP16">
					<dim>1</dim>
					<dim>32</dim>
					<dim>96</dim>
					<dim>72</dim>
				</port>
			</output>
		</layer>
		<layer id="41" name="Conv_28/Dims30358" type="Const" version="opset1">
			<data element_type="f16" shape="1, 32, 1, 1" offset="6152" size="64"/>
			<output>
				<port id="0" precision="FP16">
					<dim>1</dim>
					<dim>32</dim>
					<dim>1</dim>
					<dim>1</dim>
				</port>
			</output>
		</layer>
		<layer id="42" name="Conv_28" type="Add" version="opset1">
			<data auto_broadcast="numpy"/>
			<input>
				<port id="0" precision="FP16">
					<dim>1</dim>
					<dim>32</dim>
					<dim>96</dim>
					<dim>72</dim>
				</port>
				<port id="1" precision="FP16">
					<dim>1</dim>
					<dim>32</dim>
					<dim>1</dim>
					<dim>1</dim>
				</port>
			</input>
			<output>
				<port id="2" precision="FP16" names="5941">
					<dim>1</dim>
					<dim>32</dim>
					<dim>96</dim>
					<dim>72</dim>
				</port>
			</output>
		</layer>
		<layer id="43" name="5945" type="Const" version="opset1">
			<data element_type="f16" shape="40, 32, 1, 1" offset="6216" size="2560"/>
			<output>
				<port id="0" precision="FP16" names="5945">
					<dim>40</dim>
					<dim>32</dim>
					<dim>1</dim>
					<dim>1</dim>
				</port>
			</output>
		</layer>
		<layer id="44" name="Conv_29/WithoutBiases" type="Convolution" version="opset1">
			<data strides="1, 1" dilations="1, 1" pads_begin="0, 0" pads_end="0, 0" auto_pad="explicit"/>
			<input>
				<port id="0" precision="FP16">
					<dim>1</dim>
					<dim>32</dim>
					<dim>96</dim>
					<dim>72</dim>
				</port>
				<port id="1" precision="FP16">
					<dim>40</dim>
					<dim>32</dim>
					<dim>1</dim>
					<dim>1</dim>
				</port>
			</input>
			<output>
				<port id="2" precision="FP16">
					<dim>1</dim>
					<dim>40</dim>
					<dim>96</dim>
					<dim>72</dim>
				</port>
			</output>
		</layer>
		<layer id="45" name="Conv_29/Dims31666" type="Const" version="opset1">
			<data element_type="f16" shape="1, 40, 1, 1" offset="8776" size="80"/>
			<output>
				<port id="0" precision="FP16">
					<dim>1</dim>
					<dim>40</dim>
					<dim>1</dim>
					<dim>1</dim>
				</port>
			</output>
		</layer>
		<layer id="46" name="Conv_29" type="Add" version="opset1">
			<data auto_broadcast="numpy"/>
			<input>
				<port id="0" precision="FP16">
					<dim>1</dim>
					<dim>40</dim>
					<dim>96</dim>
					<dim>72</dim>
				</port>
				<port id="1" precision="FP16">
					<dim>1</dim>
					<dim>40</dim>
					<dim>1</dim>
					<dim>1</dim>
				</port>
			</input>
			<output>
				<port id="2" precision="FP16" names="5944">
					<dim>1</dim>
					<dim>40</dim>
					<dim>96</dim>
					<dim>72</dim>
				</port>
			</output>
		</layer>
		<layer id="47" name="Relu_30" type="ReLU" version="opset1">
			<input>
				<port id="0" precision="FP16">
					<dim>1</dim>
					<dim>40</dim>
					<dim>96</dim>
					<dim>72</dim>
				</port>
			</input>
			<output>
				<port id="1" precision="FP16" names="1474">
					<dim>1</dim>
					<dim>40</dim>
					<dim>96</dim>
					<dim>72</dim>
				</port>
			</output>
		</layer>
		<layer id="48" name="40257131008" type="Const" version="opset1">
			<data element_type="i64" shape="" offset="1792" size="8"/>
			<output>
				<port id="0" precision="I64"/>
			</output>
		</layer>
		<layer id="49" name="40259131335" type="Const" version="opset1">
			<data element_type="i64" shape="2" offset="8856" size="16"/>
			<output>
				<port id="0" precision="I64">
					<dim>2</dim>
				</port>
			</output>
		</layer>
		<layer id="50" name="Slice_44/Split" type="VariadicSplit" version="opset1">
			<input>
				<port id="0" precision="FP16">
					<dim>1</dim>
					<dim>40</dim>
					<dim>96</dim>
					<dim>72</dim>
				</port>
				<port id="1" precision="I64"/>
				<port id="2" precision="I64">
					<dim>2</dim>
				</port>
			</input>
			<output>
				<port id="3" precision="FP16" names="1490">
					<dim>1</dim>
					<dim>20</dim>
					<dim>96</dim>
					<dim>72</dim>
				</port>
				<port id="4" precision="FP16" names="1493">
					<dim>1</dim>
					<dim>20</dim>
					<dim>96</dim>
					<dim>72</dim>
				</port>
			</output>
		</layer>
		<layer id="51" name="AveragePool_64" type="AvgPool" version="opset1">
			<data kernel="2, 2" strides="2, 2" pads_begin="0, 0" pads_end="0, 0" exclude-pad="true" auto_pad="explicit" rounding_type="floor"/>
			<input>
				<port id="0" precision="FP16">
					<dim>1</dim>
					<dim>20</dim>
					<dim>96</dim>
					<dim>72</dim>
				</port>
			</input>
			<output>
				<port id="1" precision="FP16" names="1510">
					<dim>1</dim>
					<dim>20</dim>
					<dim>48</dim>
					<dim>36</dim>
				</port>
			</output>
		</layer>
		<layer id="52" name="5948" type="Const" version="opset1">
			<data element_type="f16" shape="32, 1, 1, 3, 3" offset="8872" size="576"/>
			<output>
				<port id="0" precision="FP16" names="5948">
					<dim>32</dim>
					<dim>1</dim>
					<dim>1</dim>
					<dim>3</dim>
					<dim>3</dim>
				</port>
			</output>
		</layer>
		<layer id="53" name="Conv_31/WithoutBiases" type="GroupConvolution" version="opset1">
			<data strides="2, 2" pads_begin="1, 1" pads_end="1, 1" dilations="1, 1" auto_pad="explicit"/>
			<input>
				<port id="0" precision="FP16">
					<dim>1</dim>
					<dim>32</dim>
					<dim>96</dim>
					<dim>72</dim>
				</port>
				<port id="1" precision="FP16">
					<dim>32</dim>
					<dim>1</dim>
					<dim>1</dim>
					<dim>3</dim>
					<dim>3</dim>
				</port>
			</input>
			<output>
				<port id="2" precision="FP16">
					<dim>1</dim>
					<dim>32</dim>
					<dim>48</dim>
					<dim>36</dim>
				</port>
			</output>
		</layer>
		<layer id="54" name="Conv_31/Dims30934" type="Const" version="opset1">
			<data element_type="f16" shape="1, 32, 1, 1" offset="9448" size="64"/>
			<output>
				<port id="0" precision="FP16">
					<dim>1</dim>
					<dim>32</dim>
					<dim>1</dim>
					<dim>1</dim>
				</port>
			</output>
		</layer>
		<layer id="55" name="Conv_31" type="Add" version="opset1">
			<data auto_broadcast="numpy"/>
			<input>
				<port id="0" precision="FP16">
					<dim>1</dim>
					<dim>32</dim>
					<dim>48</dim>
					<dim>36</dim>
				</port>
				<port id="1" precision="FP16">
					<dim>1</dim>
					<dim>32</dim>
					<dim>1</dim>
					<dim>1</dim>
				</port>
			</input>
			<output>
				<port id="2" precision="FP16" names="5947">
					<dim>1</dim>
					<dim>32</dim>
					<dim>48</dim>
					<dim>36</dim>
				</port>
			</output>
		</layer>
		<layer id="56" name="5951" type="Const" version="opset1">
			<data element_type="f16" shape="80, 32, 1, 1" offset="9512" size="5120"/>
			<output>
				<port id="0" precision="FP16" names="5951">
					<dim>80</dim>
					<dim>32</dim>
					<dim>1</dim>
					<dim>1</dim>
				</port>
			</output>
		</layer>
		<layer id="57" name="Conv_32/WithoutBiases" type="Convolution" version="opset1">
			<data strides="1, 1" dilations="1, 1" pads_begin="0, 0" pads_end="0, 0" auto_pad="explicit"/>
			<input>
				<port id="0" precision="FP16">
					<dim>1</dim>
					<dim>32</dim>
					<dim>48</dim>
					<dim>36</dim>
				</port>
				<port id="1" precision="FP16">
					<dim>80</dim>
					<dim>32</dim>
					<dim>1</dim>
					<dim>1</dim>
				</port>
			</input>
			<output>
				<port id="2" precision="FP16">
					<dim>1</dim>
					<dim>80</dim>
					<dim>48</dim>
					<dim>36</dim>
				</port>
			</output>
		</layer>
		<layer id="58" name="Conv_32/Dims30052" type="Const" version="opset1">
			<data element_type="f16" shape="1, 80, 1, 1" offset="14632" size="160"/>
			<output>
				<port id="0" precision="FP16">
					<dim>1</dim>
					<dim>80</dim>
					<dim>1</dim>
					<dim>1</dim>
				</port>
			</output>
		</layer>
		<layer id="59" name="Conv_32" type="Add" version="opset1">
			<data auto_broadcast="numpy"/>
			<input>
				<port id="0" precision="FP16">
					<dim>1</dim>
					<dim>80</dim>
					<dim>48</dim>
					<dim>36</dim>
				</port>
				<port id="1" precision="FP16">
					<dim>1</dim>
					<dim>80</dim>
					<dim>1</dim>
					<dim>1</dim>
				</port>
			</input>
			<output>
				<port id="2" precision="FP16" names="5950">
					<dim>1</dim>
					<dim>80</dim>
					<dim>48</dim>
					<dim>36</dim>
				</port>
			</output>
		</layer>
		<layer id="60" name="Relu_33" type="ReLU" version="opset1">
			<input>
				<port id="0" precision="FP16">
					<dim>1</dim>
					<dim>80</dim>
					<dim>48</dim>
					<dim>36</dim>
				</port>
			</input>
			<output>
				<port id="1" precision="FP16" names="1479">
					<dim>1</dim>
					<dim>80</dim>
					<dim>48</dim>
					<dim>36</dim>
				</port>
			</output>
		</layer>
		<layer id="61" name="40262128932" type="Const" version="opset1">
			<data element_type="i64" shape="" offset="1792" size="8"/>
			<output>
				<port id="0" precision="I64"/>
			</output>
		</layer>
		<layer id="62" name="40264127114" type="Const" version="opset1">
			<data element_type="i64" shape="2" offset="14792" size="16"/>
			<output>
				<port id="0" precision="I64">
					<dim>2</dim>
				</port>
			</output>
		</layer>
		<layer id="63" name="Slice_58/Split" type="VariadicSplit" version="opset1">
			<input>
				<port id="0" precision="FP16">
					<dim>1</dim>
					<dim>80</dim>
					<dim>48</dim>
					<dim>36</dim>
				</port>
				<port id="1" precision="I64"/>
				<port id="2" precision="I64">
					<dim>2</dim>
				</port>
			</input>
			<output>
				<port id="3" precision="FP16" names="1504">
					<dim>1</dim>
					<dim>40</dim>
					<dim>48</dim>
					<dim>36</dim>
				</port>
				<port id="4" precision="FP16" names="1507">
					<dim>1</dim>
					<dim>40</dim>
					<dim>48</dim>
					<dim>36</dim>
				</port>
			</output>
		</layer>
		<layer id="64" name="Concat_65" type="Concat" version="opset1">
			<data axis="1"/>
			<input>
				<port id="0" precision="FP16">
					<dim>1</dim>
					<dim>20</dim>
					<dim>48</dim>
					<dim>36</dim>
				</port>
				<port id="1" precision="FP16">
					<dim>1</dim>
					<dim>40</dim>
					<dim>48</dim>
					<dim>36</dim>
				</port>
			</input>
			<output>
				<port id="2" precision="FP16" names="1511">
					<dim>1</dim>
					<dim>60</dim>
					<dim>48</dim>
					<dim>36</dim>
				</port>
			</output>
		</layer>
		<layer id="65" name="5954" type="Const" version="opset1">
			<data element_type="f16" shape="7, 60, 1, 1" offset="14808" size="840"/>
			<output>
				<port id="0" precision="FP16" names="5954">
					<dim>7</dim>
					<dim>60</dim>
					<dim>1</dim>
					<dim>1</dim>
				</port>
			</output>
		</layer>
		<layer id="66" name="Conv_66/WithoutBiases" type="Convolution" version="opset1">
			<data strides="1, 1" dilations="1, 1" pads_begin="0, 0" pads_end="0, 0" auto_pad="explicit"/>
			<input>
				<port id="0" precision="FP16">
					<dim>1</dim>
					<dim>60</dim>
					<dim>48</dim>
					<dim>36</dim>
				</port>
				<port id="1" precision="FP16">
					<dim>7</dim>
					<dim>60</dim>
					<dim>1</dim>
					<dim>1</dim>
				</port>
			</input>
			<output>
				<port id="2" precision="FP16">
					<dim>1</dim>
					<dim>7</dim>
					<dim>48</dim>
					<dim>36</dim>
				</port>
			</output>
		</layer>
		<layer id="67" name="Conv_66/Dims30622" type="Const" version="opset1">
			<data element_type="f16" shape="1, 7, 1, 1" offset="15648" size="14"/>
			<output>
				<port id="0" precision="FP16">
					<dim>1</dim>
					<dim>7</dim>
					<dim>1</dim>
					<dim>1</dim>
				</port>
			</output>
		</layer>
		<layer id="68" name="Conv_66" type="Add" version="opset1">
			<data auto_broadcast="numpy"/>
			<input>
				<port id="0" precision="FP16">
					<dim>1</dim>
					<dim>7</dim>
					<dim>48</dim>
					<dim>36</dim>
				</port>
				<port id="1" precision="FP16">
					<dim>1</dim>
					<dim>7</dim>
					<dim>1</dim>
					<dim>1</dim>
				</port>
			</input>
			<output>
				<port id="2" precision="FP16" names="5953">
					<dim>1</dim>
					<dim>7</dim>
					<dim>48</dim>
					<dim>36</dim>
				</port>
			</output>
		</layer>
		<layer id="69" name="Relu_67" type="ReLU" version="opset1">
			<input>
				<port id="0" precision="FP16">
					<dim>1</dim>
					<dim>7</dim>
					<dim>48</dim>
					<dim>36</dim>
				</port>
			</input>
			<output>
				<port id="1" precision="FP16" names="1514">
					<dim>1</dim>
					<dim>7</dim>
					<dim>48</dim>
					<dim>36</dim>
				</port>
			</output>
		</layer>
		<layer id="70" name="5957" type="Const" version="opset1">
			<data element_type="f16" shape="60, 7, 1, 1" offset="15662" size="840"/>
			<output>
				<port id="0" precision="FP16" names="5957">
					<dim>60</dim>
					<dim>7</dim>
					<dim>1</dim>
					<dim>1</dim>
				</port>
			</output>
		</layer>
		<layer id="71" name="Conv_68/WithoutBiases" type="Convolution" version="opset1">
			<data strides="1, 1" dilations="1, 1" pads_begin="0, 0" pads_end="0, 0" auto_pad="explicit"/>
			<input>
				<port id="0" precision="FP16">
					<dim>1</dim>
					<dim>7</dim>
					<dim>48</dim>
					<dim>36</dim>
				</port>
				<port id="1" precision="FP16">
					<dim>60</dim>
					<dim>7</dim>
					<dim>1</dim>
					<dim>1</dim>
				</port>
			</input>
			<output>
				<port id="2" precision="FP16">
					<dim>1</dim>
					<dim>60</dim>
					<dim>48</dim>
					<dim>36</dim>
				</port>
			</output>
		</layer>
		<layer id="72" name="Conv_68/Dims31330" type="Const" version="opset1">
			<data element_type="f16" shape="1, 60, 1, 1" offset="16502" size="120"/>
			<output>
				<port id="0" precision="FP16">
					<dim>1</dim>
					<dim>60</dim>
					<dim>1</dim>
					<dim>1</dim>
				</port>
			</output>
		</layer>
		<layer id="73" name="Conv_68" type="Add" version="opset1">
			<data auto_broadcast="numpy"/>
			<input>
				<port id="0" precision="FP16">
					<dim>1</dim>
					<dim>60</dim>
					<dim>48</dim>
					<dim>36</dim>
				</port>
				<port id="1" precision="FP16">
					<dim>1</dim>
					<dim>60</dim>
					<dim>1</dim>
					<dim>1</dim>
				</port>
			</input>
			<output>
				<port id="2" precision="FP16" names="5956">
					<dim>1</dim>
					<dim>60</dim>
					<dim>48</dim>
					<dim>36</dim>
				</port>
			</output>
		</layer>
		<layer id="74" name="Sigmoid_69" type="Sigmoid" version="opset1">
			<input>
				<port id="0" precision="FP16">
					<dim>1</dim>
					<dim>60</dim>
					<dim>48</dim>
					<dim>36</dim>
				</port>
			</input>
			<output>
				<port id="1" precision="FP16" names="1517">
					<dim>1</dim>
					<dim>60</dim>
					<dim>48</dim>
					<dim>36</dim>
				</port>
			</output>
		</layer>
		<layer id="75" name="Split_70/VariadicSplit_input_port_1/value" type="Const" version="opset1">
			<data element_type="i64" shape="" offset="1792" size="8"/>
			<output>
				<port id="0" precision="I64"/>
			</output>
		</layer>
		<layer id="76" name="Split_70/VariadicSplit_input_port_2/value" type="Const" version="opset1">
			<data element_type="i64" shape="2" offset="16622" size="16"/>
			<output>
				<port id="0" precision="I64">
					<dim>2</dim>
				</port>
			</output>
		</layer>
		<layer id="77" name="Split_70/VariadicSplit" type="VariadicSplit" version="opset1">
			<input>
				<port id="0" precision="FP16">
					<dim>1</dim>
					<dim>60</dim>
					<dim>48</dim>
					<dim>36</dim>
				</port>
				<port id="1" precision="I64"/>
				<port id="2" precision="I64">
					<dim>2</dim>
				</port>
			</input>
			<output>
				<port id="3" precision="FP16" names="1518">
					<dim>1</dim>
					<dim>20</dim>
					<dim>48</dim>
					<dim>36</dim>
				</port>
				<port id="4" precision="FP16" names="1519">
					<dim>1</dim>
					<dim>40</dim>
					<dim>48</dim>
					<dim>36</dim>
				</port>
			</output>
		</layer>
		<layer id="78" name="Resize_79/StridedSlice_sizes21633128539" type="Const" version="opset1">
			<data element_type="i64" shape="2" offset="16638" size="16"/>
			<output>
				<port id="0" precision="I64">
					<dim>2</dim>
				</port>
			</output>
		</layer>
		<layer id="79" name="2162521627129463" type="Const" version="opset1">
			<data element_type="f32" shape="4" offset="16654" size="16"/>
			<output>
				<port id="0" precision="FP32">
					<dim>4</dim>
				</port>
			</output>
		</layer>
		<layer id="80" name="Resize_79/ShapeOf" type="ShapeOf" version="opset3">
			<data output_type="i64"/>
			<input>
				<port id="0" precision="FP16">
					<dim>1</dim>
					<dim>20</dim>
					<dim>48</dim>
					<dim>36</dim>
				</port>
			</input>
			<output>
				<port id="1" precision="I64">
					<dim>4</dim>
				</port>
			</output>
		</layer>
		<layer id="81" name="21624" type="Convert" version="opset1">
			<data destination_type="f32"/>
			<input>
				<port id="0" precision="I64">
					<dim>4</dim>
				</port>
			</input>
			<output>
				<port id="1" precision="FP32">
					<dim>4</dim>
				</port>
			</output>
		</layer>
		<layer id="82" name="Resize_79/Div" type="Divide" version="opset1">
			<data auto_broadcast="numpy" m_pythondiv="true"/>
			<input>
				<port id="0" precision="FP32">
					<dim>4</dim>
				</port>
				<port id="1" precision="FP32">
					<dim>4</dim>
				</port>
			</input>
			<output>
				<port id="2" precision="FP32">
					<dim>4</dim>
				</port>
			</output>
		</layer>
		<layer id="83" name="Resize_79/Add_input_port_1/value21623130690" type="Const" version="opset1">
			<data element_type="f32" shape="1" offset="16670" size="4"/>
			<output>
				<port id="0" precision="FP32">
					<dim>1</dim>
				</port>
			</output>
		</layer>
		<layer id="84" name="Resize_79/Add" type="Add" version="opset1">
			<data auto_broadcast="numpy"/>
			<input>
				<port id="0" precision="FP32">
					<dim>4</dim>
				</port>
				<port id="1" precision="FP32">
					<dim>1</dim>
				</port>
			</input>
			<output>
				<port id="2" precision="FP32">
					<dim>4</dim>
				</port>
			</output>
		</layer>
		<layer id="85" name="Resize_79/StridedSlice_scales_input_port_1/value21612129949" type="Const" version="opset1">
			<data element_type="i64" shape="1" offset="16674" size="8"/>
			<output>
				<port id="0" precision="I64">
					<dim>1</dim>
				</port>
			</output>
		</layer>
		<layer id="86" name="Resize_79/StridedSlice_scales_input_port_2/value21614131638" type="Const" version="opset1">
			<data element_type="i64" shape="1" offset="16682" size="8"/>
			<output>
				<port id="0" precision="I64">
					<dim>1</dim>
				</port>
			</output>
		</layer>
		<layer id="87" name="Resize_79/StridedSlice_scales_input_port_3/value21616131620" type="Const" version="opset1">
			<data element_type="i64" shape="1" offset="1792" size="8"/>
			<output>
				<port id="0" precision="I64">
					<dim>1</dim>
				</port>
			</output>
		</layer>
		<layer id="88" name="Resize_79/StridedSlice_scales" type="StridedSlice" version="opset1">
			<data begin_mask="0" end_mask="0" new_axis_mask="0" shrink_axis_mask="0" ellipsis_mask="0"/>
			<input>
				<port id="0" precision="FP32">
					<dim>4</dim>
				</port>
				<port id="1" precision="I64">
					<dim>1</dim>
				</port>
				<port id="2" precision="I64">
					<dim>1</dim>
				</port>
				<port id="3" precision="I64">
					<dim>1</dim>
				</port>
			</input>
			<output>
				<port id="4" precision="FP32">
					<dim>2</dim>
				</port>
			</output>
		</layer>
		<layer id="89" name="Resize_79/axis21619130630" type="Const" version="opset1">
			<data element_type="i64" shape="2" offset="16690" size="16"/>
			<output>
				<port id="0" precision="I64">
					<dim>2</dim>
				</port>
			</output>
		</layer>
		<layer id="90" name="Resize_79" type="Interpolate" version="opset4">
			<data mode="nearest" shape_calculation_mode="sizes" coordinate_transformation_mode="asymmetric" nearest_mode="floor" antialias="false" pads_begin="0, 0, 0, 0" pads_end="0, 0, 0, 0" cube_coeff="-0.75"/>
			<input>
				<port id="0" precision="FP16">
					<dim>1</dim>
					<dim>20</dim>
					<dim>48</dim>
					<dim>36</dim>
				</port>
				<port id="1" precision="I64">
					<dim>2</dim>
				</port>
				<port id="2" precision="FP32">
					<dim>2</dim>
				</port>
				<port id="3" precision="I64">
					<dim>2</dim>
				</port>
			</input>
			<output>
				<port id="4" precision="FP16" names="1534">
					<dim>1</dim>
					<dim>20</dim>
					<dim>96</dim>
					<dim>72</dim>
				</port>
			</output>
		</layer>
		<layer id="91" name="Mul_80" type="Multiply" version="opset1">
			<data auto_broadcast="numpy"/>
			<input>
				<port id="0" precision="FP16">
					<dim>1</dim>
					<dim>20</dim>
					<dim>96</dim>
					<dim>72</dim>
				</port>
				<port id="1" precision="FP16">
					<dim>1</dim>
					<dim>20</dim>
					<dim>96</dim>
					<dim>72</dim>
				</port>
			</input>
			<output>
				<port id="2" precision="FP16" names="1535">
					<dim>1</dim>
					<dim>20</dim>
					<dim>96</dim>
					<dim>72</dim>
				</port>
			</output>
		</layer>
		<layer id="92" name="5960" type="Const" version="opset1">
			<data element_type="f16" shape="20, 1, 1, 3, 3" offset="16706" size="360"/>
			<output>
				<port id="0" precision="FP16" names="5960">
					<dim>20</dim>
					<dim>1</dim>
					<dim>1</dim>
					<dim>3</dim>
					<dim>3</dim>
				</port>
			</output>
		</layer>
		<layer id="93" name="Conv_91/WithoutBiases" type="GroupConvolution" version="opset1">
			<data strides="1, 1" pads_begin="1, 1" pads_end="1, 1" dilations="1, 1" auto_pad="explicit"/>
			<input>
				<port id="0" precision="FP16">
					<dim>1</dim>
					<dim>20</dim>
					<dim>96</dim>
					<dim>72</dim>
				</port>
				<port id="1" precision="FP16">
					<dim>20</dim>
					<dim>1</dim>
					<dim>1</dim>
					<dim>3</dim>
					<dim>3</dim>
				</port>
			</input>
			<output>
				<port id="2" precision="FP16">
					<dim>1</dim>
					<dim>20</dim>
					<dim>96</dim>
					<dim>72</dim>
				</port>
			</output>
		</layer>
		<layer id="94" name="Conv_91/Dims31468" type="Const" version="opset1">
			<data element_type="f16" shape="1, 20, 1, 1" offset="17066" size="40"/>
			<output>
				<port id="0" precision="FP16">
					<dim>1</dim>
					<dim>20</dim>
					<dim>1</dim>
					<dim>1</dim>
				</port>
			</output>
		</layer>
		<layer id="95" name="Conv_91" type="Add" version="opset1">
			<data auto_broadcast="numpy"/>
			<input>
				<port id="0" precision="FP16">
					<dim>1</dim>
					<dim>20</dim>
					<dim>96</dim>
					<dim>72</dim>
				</port>
				<port id="1" precision="FP16">
					<dim>1</dim>
					<dim>20</dim>
					<dim>1</dim>
					<dim>1</dim>
				</port>
			</input>
			<output>
				<port id="2" precision="FP16" names="5959">
					<dim>1</dim>
					<dim>20</dim>
					<dim>96</dim>
					<dim>72</dim>
				</port>
			</output>
		</layer>
		<layer id="96" name="2104" type="Const" version="opset1">
			<data element_type="i64" shape="" offset="16674" size="8"/>
			<output>
				<port id="0" precision="I64"/>
			</output>
		</layer>
		<layer id="97" name="GlobalAveragePool_93/input_rank/shape_of" type="ShapeOf" version="opset3">
			<data output_type="i64"/>
			<input>
				<port id="0" precision="FP16">
					<dim>1</dim>
					<dim>20</dim>
					<dim>96</dim>
					<dim>72</dim>
				</port>
			</input>
			<output>
				<port id="1" precision="I64">
					<dim>4</dim>
				</port>
			</output>
		</layer>
		<layer id="98" name="GlobalAveragePool_93/input_rank/rank_of" type="ShapeOf" version="opset3">
			<data output_type="i64"/>
			<input>
				<port id="0" precision="I64">
					<dim>4</dim>
				</port>
			</input>
			<output>
				<port id="1" precision="I64">
					<dim>1</dim>
				</port>
			</output>
		</layer>
		<layer id="99" name="GlobalAveragePool_93/input_rank/0d_rank_of/value" type="Const" version="opset1">
			<data element_type="i64" shape="1" offset="17106" size="8"/>
			<output>
				<port id="0" precision="I64">
					<dim>1</dim>
				</port>
			</output>
		</layer>
		<layer id="100" name="GlobalAveragePool_93/input_rank" type="Squeeze" version="opset1">
			<input>
				<port id="0" precision="I64">
					<dim>1</dim>
				</port>
				<port id="1" precision="I64">
					<dim>1</dim>
				</port>
			</input>
			<output>
				<port id="2" precision="I64"/>
			</output>
		</layer>
		<layer id="101" name="2106" type="Const" version="opset1">
			<data element_type="i64" shape="" offset="1792" size="8"/>
			<output>
				<port id="0" precision="I64"/>
			</output>
		</layer>
		<layer id="102" name="GlobalAveragePool_93/global_pooling_reduce_axis" type="Range" version="opset4">
			<data output_type="i64"/>
			<input>
				<port id="0" precision="I64"/>
				<port id="1" precision="I64"/>
				<port id="2" precision="I64"/>
			</input>
			<output>
				<port id="3" precision="I64">
					<dim>2</dim>
				</port>
			</output>
		</layer>
		<layer id="103" name="GlobalAveragePool_93/reduce" type="ReduceMean" version="opset1">
			<data keep_dims="true"/>
			<input>
				<port id="0" precision="FP16">
					<dim>1</dim>
					<dim>20</dim>
					<dim>96</dim>
					<dim>72</dim>
				</port>
				<port id="1" precision="I64">
					<dim>2</dim>
				</port>
			</input>
			<output>
				<port id="2" precision="FP16" names="1556">
					<dim>1</dim>
					<dim>20</dim>
					<dim>1</dim>
					<dim>1</dim>
				</port>
			</output>
		</layer>
		<layer id="104" name="backbone.stage0.0.layers.0.spatial_weighting.0.conv1.conv.weight" type="Const" version="opset1">
			<data element_type="f16" shape="5, 20, 1, 1" offset="17114" size="200"/>
			<output>
				<port id="0" precision="FP16" names="backbone.stage0.0.layers.0.spatial_weighting.0.conv1.conv.weight">
					<dim>5</dim>
					<dim>20</dim>
					<dim>1</dim>
					<dim>1</dim>
				</port>
			</output>
		</layer>
		<layer id="105" name="Conv_94/WithoutBiases" type="Convolution" version="opset1">
			<data strides="1, 1" dilations="1, 1" pads_begin="0, 0" pads_end="0, 0" auto_pad="explicit"/>
			<input>
				<port id="0" precision="FP16">
					<dim>1</dim>
					<dim>20</dim>
					<dim>1</dim>
					<dim>1</dim>
				</port>
				<port id="1" precision="FP16">
					<dim>5</dim>
					<dim>20</dim>
					<dim>1</dim>
					<dim>1</dim>
				</port>
			</input>
			<output>
				<port id="2" precision="FP16">
					<dim>1</dim>
					<dim>5</dim>
					<dim>1</dim>
					<dim>1</dim>
				</port>
			</output>
		</layer>
		<layer id="106" name="Conv_94/Dims29968" type="Const" version="opset1">
			<data element_type="f16" shape="1, 5, 1, 1" offset="17314" size="10"/>
			<output>
				<port id="0" precision="FP16">
					<dim>1</dim>
					<dim>5</dim>
					<dim>1</dim>
					<dim>1</dim>
				</port>
			</output>
		</layer>
		<layer id="107" name="Conv_94" type="Add" version="opset1">
			<data auto_broadcast="numpy"/>
			<input>
				<port id="0" precision="FP16">
					<dim>1</dim>
					<dim>5</dim>
					<dim>1</dim>
					<dim>1</dim>
				</port>
				<port id="1" precision="FP16">
					<dim>1</dim>
					<dim>5</dim>
					<dim>1</dim>
					<dim>1</dim>
				</port>
			</input>
			<output>
				<port id="2" precision="FP16" names="1557">
					<dim>1</dim>
					<dim>5</dim>
					<dim>1</dim>
					<dim>1</dim>
				</port>
			</output>
		</layer>
		<layer id="108" name="Relu_95" type="ReLU" version="opset1">
			<input>
				<port id="0" precision="FP16">
					<dim>1</dim>
					<dim>5</dim>
					<dim>1</dim>
					<dim>1</dim>
				</port>
			</input>
			<output>
				<port id="1" precision="FP16" names="1558">
					<dim>1</dim>
					<dim>5</dim>
					<dim>1</dim>
					<dim>1</dim>
				</port>
			</output>
		</layer>
		<layer id="109" name="backbone.stage0.0.layers.0.spatial_weighting.0.conv2.conv.weight" type="Const" version="opset1">
			<data element_type="f16" shape="20, 5, 1, 1" offset="17324" size="200"/>
			<output>
				<port id="0" precision="FP16" names="backbone.stage0.0.layers.0.spatial_weighting.0.conv2.conv.weight">
					<dim>20</dim>
					<dim>5</dim>
					<dim>1</dim>
					<dim>1</dim>
				</port>
			</output>
		</layer>
		<layer id="110" name="Conv_96/WithoutBiases" type="Convolution" version="opset1">
			<data strides="1, 1" dilations="1, 1" pads_begin="0, 0" pads_end="0, 0" auto_pad="explicit"/>
			<input>
				<port id="0" precision="FP16">
					<dim>1</dim>
					<dim>5</dim>
					<dim>1</dim>
					<dim>1</dim>
				</port>
				<port id="1" precision="FP16">
					<dim>20</dim>
					<dim>5</dim>
					<dim>1</dim>
					<dim>1</dim>
				</port>
			</input>
			<output>
				<port id="2" precision="FP16">
					<dim>1</dim>
					<dim>20</dim>
					<dim>1</dim>
					<dim>1</dim>
				</port>
			</output>
		</layer>
		<layer id="111" name="Conv_96/Dims31486" type="Const" version="opset1">
			<data element_type="f16" shape="1, 20, 1, 1" offset="17524" size="40"/>
			<output>
				<port id="0" precision="FP16">
					<dim>1</dim>
					<dim>20</dim>
					<dim>1</dim>
					<dim>1</dim>
				</port>
			</output>
		</layer>
		<layer id="112" name="Conv_96" type="Add" version="opset1">
			<data auto_broadcast="numpy"/>
			<input>
				<port id="0" precision="FP16">
					<dim>1</dim>
					<dim>20</dim>
					<dim>1</dim>
					<dim>1</dim>
				</port>
				<port id="1" precision="FP16">
					<dim>1</dim>
					<dim>20</dim>
					<dim>1</dim>
					<dim>1</dim>
				</port>
			</input>
			<output>
				<port id="2" precision="FP16" names="1559">
					<dim>1</dim>
					<dim>20</dim>
					<dim>1</dim>
					<dim>1</dim>
				</port>
			</output>
		</layer>
		<layer id="113" name="Sigmoid_97" type="Sigmoid" version="opset1">
			<input>
				<port id="0" precision="FP16">
					<dim>1</dim>
					<dim>20</dim>
					<dim>1</dim>
					<dim>1</dim>
				</port>
			</input>
			<output>
				<port id="1" precision="FP16" names="1560">
					<dim>1</dim>
					<dim>20</dim>
					<dim>1</dim>
					<dim>1</dim>
				</port>
			</output>
		</layer>
		<layer id="114" name="Mul_98" type="Multiply" version="opset1">
			<data auto_broadcast="numpy"/>
			<input>
				<port id="0" precision="FP16">
					<dim>1</dim>
					<dim>20</dim>
					<dim>96</dim>
					<dim>72</dim>
				</port>
				<port id="1" precision="FP16">
					<dim>1</dim>
					<dim>20</dim>
					<dim>1</dim>
					<dim>1</dim>
				</port>
			</input>
			<output>
				<port id="2" precision="FP16" names="1561">
					<dim>1</dim>
					<dim>20</dim>
					<dim>96</dim>
					<dim>72</dim>
				</port>
			</output>
		</layer>
		<layer id="115" name="Concat_105" type="Concat" version="opset1">
			<data axis="1"/>
			<input>
				<port id="0" precision="FP16">
					<dim>1</dim>
					<dim>20</dim>
					<dim>96</dim>
					<dim>72</dim>
				</port>
				<port id="1" precision="FP16">
					<dim>1</dim>
					<dim>20</dim>
					<dim>96</dim>
					<dim>72</dim>
				</port>
			</input>
			<output>
				<port id="2" precision="FP16" names="1568">
					<dim>1</dim>
					<dim>40</dim>
					<dim>96</dim>
					<dim>72</dim>
				</port>
			</output>
		</layer>
		<layer id="116" name="6715" type="Const" version="opset1">
			<data element_type="i64" shape="5" offset="17564" size="40"/>
			<output>
				<port id="0" precision="I64" names="6715">
					<dim>5</dim>
				</port>
			</output>
		</layer>
		<layer id="117" name="Reshape_107" type="Reshape" version="opset1">
			<data special_zero="true"/>
			<input>
				<port id="0" precision="FP16">
					<dim>1</dim>
					<dim>40</dim>
					<dim>96</dim>
					<dim>72</dim>
				</port>
				<port id="1" precision="I64">
					<dim>5</dim>
				</port>
			</input>
			<output>
				<port id="2" precision="FP16" names="1581">
					<dim>1</dim>
					<dim>2</dim>
					<dim>20</dim>
					<dim>96</dim>
					<dim>72</dim>
				</port>
			</output>
		</layer>
		<layer id="118" name="2095" type="Const" version="opset1">
			<data element_type="i64" shape="5" offset="5504" size="40"/>
			<output>
				<port id="0" precision="I64">
					<dim>5</dim>
				</port>
			</output>
		</layer>
		<layer id="119" name="Transpose_108" type="Transpose" version="opset1">
			<input>
				<port id="0" precision="FP16">
					<dim>1</dim>
					<dim>2</dim>
					<dim>20</dim>
					<dim>96</dim>
					<dim>72</dim>
				</port>
				<port id="1" precision="I64">
					<dim>5</dim>
				</port>
			</input>
			<output>
				<port id="2" precision="FP16" names="1582">
					<dim>1</dim>
					<dim>20</dim>
					<dim>2</dim>
					<dim>96</dim>
					<dim>72</dim>
				</port>
			</output>
		</layer>
		<layer id="120" name="6701" type="Const" version="opset1">
			<data element_type="i64" shape="4" offset="5544" size="32"/>
			<output>
				<port id="0" precision="I64" names="6701">
					<dim>4</dim>
				</port>
			</output>
		</layer>
		<layer id="121" name="Reshape_109" type="Reshape" version="opset1">
			<data special_zero="true"/>
			<input>
				<port id="0" precision="FP16">
					<dim>1</dim>
					<dim>20</dim>
					<dim>2</dim>
					<dim>96</dim>
					<dim>72</dim>
				</port>
				<port id="1" precision="I64">
					<dim>4</dim>
				</port>
			</input>
			<output>
				<port id="2" precision="FP16" names="1589">
					<dim>1</dim>
					<dim>40</dim>
					<dim>96</dim>
					<dim>72</dim>
				</port>
			</output>
		</layer>
		<layer id="122" name="40267127189" type="Const" version="opset1">
			<data element_type="i64" shape="" offset="1792" size="8"/>
			<output>
				<port id="0" precision="I64"/>
			</output>
		</layer>
		<layer id="123" name="40269129496" type="Const" version="opset1">
			<data element_type="i64" shape="2" offset="8856" size="16"/>
			<output>
				<port id="0" precision="I64">
					<dim>2</dim>
				</port>
			</output>
		</layer>
		<layer id="124" name="Slice_123/Split" type="VariadicSplit" version="opset1">
			<input>
				<port id="0" precision="FP16">
					<dim>1</dim>
					<dim>40</dim>
					<dim>96</dim>
					<dim>72</dim>
				</port>
				<port id="1" precision="I64"/>
				<port id="2" precision="I64">
					<dim>2</dim>
				</port>
			</input>
			<output>
				<port id="3" precision="FP16" names="1620">
					<dim>1</dim>
					<dim>20</dim>
					<dim>96</dim>
					<dim>72</dim>
				</port>
				<port id="4" precision="FP16" names="1623">
					<dim>1</dim>
					<dim>20</dim>
					<dim>96</dim>
					<dim>72</dim>
				</port>
			</output>
		</layer>
		<layer id="125" name="AveragePool_143" type="AvgPool" version="opset1">
			<data kernel="2, 2" strides="2, 2" pads_begin="0, 0" pads_end="0, 0" exclude-pad="true" auto_pad="explicit" rounding_type="floor"/>
			<input>
				<port id="0" precision="FP16">
					<dim>1</dim>
					<dim>20</dim>
					<dim>96</dim>
					<dim>72</dim>
				</port>
			</input>
			<output>
				<port id="1" precision="FP16" names="1640">
					<dim>1</dim>
					<dim>20</dim>
					<dim>48</dim>
					<dim>36</dim>
				</port>
			</output>
		</layer>
		<layer id="126" name="Resize_89/StridedSlice_sizes21665127534" type="Const" version="opset1">
			<data element_type="i64" shape="2" offset="17604" size="16"/>
			<output>
				<port id="0" precision="I64">
					<dim>2</dim>
				</port>
			</output>
		</layer>
		<layer id="127" name="2165721659127339" type="Const" version="opset1">
			<data element_type="f32" shape="4" offset="17620" size="16"/>
			<output>
				<port id="0" precision="FP32">
					<dim>4</dim>
				</port>
			</output>
		</layer>
		<layer id="128" name="Resize_89/ShapeOf" type="ShapeOf" version="opset3">
			<data output_type="i64"/>
			<input>
				<port id="0" precision="FP16">
					<dim>1</dim>
					<dim>40</dim>
					<dim>48</dim>
					<dim>36</dim>
				</port>
			</input>
			<output>
				<port id="1" precision="I64">
					<dim>4</dim>
				</port>
			</output>
		</layer>
		<layer id="129" name="21656" type="Convert" version="opset1">
			<data destination_type="f32"/>
			<input>
				<port id="0" precision="I64">
					<dim>4</dim>
				</port>
			</input>
			<output>
				<port id="1" precision="FP32">
					<dim>4</dim>
				</port>
			</output>
		</layer>
		<layer id="130" name="Resize_89/Div" type="Divide" version="opset1">
			<data auto_broadcast="numpy" m_pythondiv="true"/>
			<input>
				<port id="0" precision="FP32">
					<dim>4</dim>
				</port>
				<port id="1" precision="FP32">
					<dim>4</dim>
				</port>
			</input>
			<output>
				<port id="2" precision="FP32">
					<dim>4</dim>
				</port>
			</output>
		</layer>
		<layer id="131" name="Resize_89/Add_input_port_1/value21655127813" type="Const" version="opset1">
			<data element_type="f32" shape="1" offset="16670" size="4"/>
			<output>
				<port id="0" precision="FP32">
					<dim>1</dim>
				</port>
			</output>
		</layer>
		<layer id="132" name="Resize_89/Add" type="Add" version="opset1">
			<data auto_broadcast="numpy"/>
			<input>
				<port id="0" precision="FP32">
					<dim>4</dim>
				</port>
				<port id="1" precision="FP32">
					<dim>1</dim>
				</port>
			</input>
			<output>
				<port id="2" precision="FP32">
					<dim>4</dim>
				</port>
			</output>
		</layer>
		<layer id="133" name="Resize_89/StridedSlice_scales_input_port_1/value21644130867" type="Const" version="opset1">
			<data element_type="i64" shape="1" offset="16674" size="8"/>
			<output>
				<port id="0" precision="I64">
					<dim>1</dim>
				</port>
			</output>
		</layer>
		<layer id="134" name="Resize_89/StridedSlice_scales_input_port_2/value21646126979" type="Const" version="opset1">
			<data element_type="i64" shape="1" offset="16682" size="8"/>
			<output>
				<port id="0" precision="I64">
					<dim>1</dim>
				</port>
			</output>
		</layer>
		<layer id="135" name="Resize_89/StridedSlice_scales_input_port_3/value21648129385" type="Const" version="opset1">
			<data element_type="i64" shape="1" offset="1792" size="8"/>
			<output>
				<port id="0" precision="I64">
					<dim>1</dim>
				</port>
			</output>
		</layer>
		<layer id="136" name="Resize_89/StridedSlice_scales" type="StridedSlice" version="opset1">
			<data begin_mask="0" end_mask="0" new_axis_mask="0" shrink_axis_mask="0" ellipsis_mask="0"/>
			<input>
				<port id="0" precision="FP32">
					<dim>4</dim>
				</port>
				<port id="1" precision="I64">
					<dim>1</dim>
				</port>
				<port id="2" precision="I64">
					<dim>1</dim>
				</port>
				<port id="3" precision="I64">
					<dim>1</dim>
				</port>
			</input>
			<output>
				<port id="4" precision="FP32">
					<dim>2</dim>
				</port>
			</output>
		</layer>
		<layer id="137" name="Resize_89/axis21651131359" type="Const" version="opset1">
			<data element_type="i64" shape="2" offset="16690" size="16"/>
			<output>
				<port id="0" precision="I64">
					<dim>2</dim>
				</port>
			</output>
		</layer>
		<layer id="138" name="Resize_89" type="Interpolate" version="opset4">
			<data mode="nearest" shape_calculation_mode="sizes" coordinate_transformation_mode="asymmetric" nearest_mode="floor" antialias="false" pads_begin="0, 0, 0, 0" pads_end="0, 0, 0, 0" cube_coeff="-0.75"/>
			<input>
				<port id="0" precision="FP16">
					<dim>1</dim>
					<dim>40</dim>
					<dim>48</dim>
					<dim>36</dim>
				</port>
				<port id="1" precision="I64">
					<dim>2</dim>
				</port>
				<port id="2" precision="FP32">
					<dim>2</dim>
				</port>
				<port id="3" precision="I64">
					<dim>2</dim>
				</port>
			</input>
			<output>
				<port id="4" precision="FP16" names="1550">
					<dim>1</dim>
					<dim>40</dim>
					<dim>48</dim>
					<dim>36</dim>
				</port>
			</output>
		</layer>
		<layer id="139" name="Mul_90" type="Multiply" version="opset1">
			<data auto_broadcast="numpy"/>
			<input>
				<port id="0" precision="FP16">
					<dim>1</dim>
					<dim>40</dim>
					<dim>48</dim>
					<dim>36</dim>
				</port>
				<port id="1" precision="FP16">
					<dim>1</dim>
					<dim>40</dim>
					<dim>48</dim>
					<dim>36</dim>
				</port>
			</input>
			<output>
				<port id="2" precision="FP16" names="1551">
					<dim>1</dim>
					<dim>40</dim>
					<dim>48</dim>
					<dim>36</dim>
				</port>
			</output>
		</layer>
		<layer id="140" name="5963" type="Const" version="opset1">
			<data element_type="f16" shape="40, 1, 1, 3, 3" offset="17636" size="720"/>
			<output>
				<port id="0" precision="FP16" names="5963">
					<dim>40</dim>
					<dim>1</dim>
					<dim>1</dim>
					<dim>3</dim>
					<dim>3</dim>
				</port>
			</output>
		</layer>
		<layer id="141" name="Conv_92/WithoutBiases" type="GroupConvolution" version="opset1">
			<data strides="1, 1" pads_begin="1, 1" pads_end="1, 1" dilations="1, 1" auto_pad="explicit"/>
			<input>
				<port id="0" precision="FP16">
					<dim>1</dim>
					<dim>40</dim>
					<dim>48</dim>
					<dim>36</dim>
				</port>
				<port id="1" precision="FP16">
					<dim>40</dim>
					<dim>1</dim>
					<dim>1</dim>
					<dim>3</dim>
					<dim>3</dim>
				</port>
			</input>
			<output>
				<port id="2" precision="FP16">
					<dim>1</dim>
					<dim>40</dim>
					<dim>48</dim>
					<dim>36</dim>
				</port>
			</output>
		</layer>
		<layer id="142" name="Conv_92/Dims31558" type="Const" version="opset1">
			<data element_type="f16" shape="1, 40, 1, 1" offset="18356" size="80"/>
			<output>
				<port id="0" precision="FP16">
					<dim>1</dim>
					<dim>40</dim>
					<dim>1</dim>
					<dim>1</dim>
				</port>
			</output>
		</layer>
		<layer id="143" name="Conv_92" type="Add" version="opset1">
			<data auto_broadcast="numpy"/>
			<input>
				<port id="0" precision="FP16">
					<dim>1</dim>
					<dim>40</dim>
					<dim>48</dim>
					<dim>36</dim>
				</port>
				<port id="1" precision="FP16">
					<dim>1</dim>
					<dim>40</dim>
					<dim>1</dim>
					<dim>1</dim>
				</port>
			</input>
			<output>
				<port id="2" precision="FP16" names="5962">
					<dim>1</dim>
					<dim>40</dim>
					<dim>48</dim>
					<dim>36</dim>
				</port>
			</output>
		</layer>
		<layer id="144" name="2109" type="Const" version="opset1">
			<data element_type="i64" shape="" offset="16674" size="8"/>
			<output>
				<port id="0" precision="I64"/>
			</output>
		</layer>
		<layer id="145" name="GlobalAveragePool_99/input_rank/shape_of" type="ShapeOf" version="opset3">
			<data output_type="i64"/>
			<input>
				<port id="0" precision="FP16">
					<dim>1</dim>
					<dim>40</dim>
					<dim>48</dim>
					<dim>36</dim>
				</port>
			</input>
			<output>
				<port id="1" precision="I64">
					<dim>4</dim>
				</port>
			</output>
		</layer>
		<layer id="146" name="GlobalAveragePool_99/input_rank/rank_of" type="ShapeOf" version="opset3">
			<data output_type="i64"/>
			<input>
				<port id="0" precision="I64">
					<dim>4</dim>
				</port>
			</input>
			<output>
				<port id="1" precision="I64">
					<dim>1</dim>
				</port>
			</output>
		</layer>
		<layer id="147" name="GlobalAveragePool_99/input_rank/0d_rank_of/value" type="Const" version="opset1">
			<data element_type="i64" shape="1" offset="17106" size="8"/>
			<output>
				<port id="0" precision="I64">
					<dim>1</dim>
				</port>
			</output>
		</layer>
		<layer id="148" name="GlobalAveragePool_99/input_rank" type="Squeeze" version="opset1">
			<input>
				<port id="0" precision="I64">
					<dim>1</dim>
				</port>
				<port id="1" precision="I64">
					<dim>1</dim>
				</port>
			</input>
			<output>
				<port id="2" precision="I64"/>
			</output>
		</layer>
		<layer id="149" name="2111" type="Const" version="opset1">
			<data element_type="i64" shape="" offset="1792" size="8"/>
			<output>
				<port id="0" precision="I64"/>
			</output>
		</layer>
		<layer id="150" name="GlobalAveragePool_99/global_pooling_reduce_axis" type="Range" version="opset4">
			<data output_type="i64"/>
			<input>
				<port id="0" precision="I64"/>
				<port id="1" precision="I64"/>
				<port id="2" precision="I64"/>
			</input>
			<output>
				<port id="3" precision="I64">
					<dim>2</dim>
				</port>
			</output>
		</layer>
		<layer id="151" name="GlobalAveragePool_99/reduce" type="ReduceMean" version="opset1">
			<data keep_dims="true"/>
			<input>
				<port id="0" precision="FP16">
					<dim>1</dim>
					<dim>40</dim>
					<dim>48</dim>
					<dim>36</dim>
				</port>
				<port id="1" precision="I64">
					<dim>2</dim>
				</port>
			</input>
			<output>
				<port id="2" precision="FP16" names="1562">
					<dim>1</dim>
					<dim>40</dim>
					<dim>1</dim>
					<dim>1</dim>
				</port>
			</output>
		</layer>
		<layer id="152" name="backbone.stage0.0.layers.0.spatial_weighting.1.conv1.conv.weight" type="Const" version="opset1">
			<data element_type="f16" shape="10, 40, 1, 1" offset="18436" size="800"/>
			<output>
				<port id="0" precision="FP16" names="backbone.stage0.0.layers.0.spatial_weighting.1.conv1.conv.weight">
					<dim>10</dim>
					<dim>40</dim>
					<dim>1</dim>
					<dim>1</dim>
				</port>
			</output>
		</layer>
		<layer id="153" name="Conv_100/WithoutBiases" type="Convolution" version="opset1">
			<data strides="1, 1" dilations="1, 1" pads_begin="0, 0" pads_end="0, 0" auto_pad="explicit"/>
			<input>
				<port id="0" precision="FP16">
					<dim>1</dim>
					<dim>40</dim>
					<dim>1</dim>
					<dim>1</dim>
				</port>
				<port id="1" precision="FP16">
					<dim>10</dim>
					<dim>40</dim>
					<dim>1</dim>
					<dim>1</dim>
				</port>
			</input>
			<output>
				<port id="2" precision="FP16">
					<dim>1</dim>
					<dim>10</dim>
					<dim>1</dim>
					<dim>1</dim>
				</port>
			</output>
		</layer>
		<layer id="154" name="Conv_100/Dims31024" type="Const" version="opset1">
			<data element_type="f16" shape="1, 10, 1, 1" offset="19236" size="20"/>
			<output>
				<port id="0" precision="FP16">
					<dim>1</dim>
					<dim>10</dim>
					<dim>1</dim>
					<dim>1</dim>
				</port>
			</output>
		</layer>
		<layer id="155" name="Conv_100" type="Add" version="opset1">
			<data auto_broadcast="numpy"/>
			<input>
				<port id="0" precision="FP16">
					<dim>1</dim>
					<dim>10</dim>
					<dim>1</dim>
					<dim>1</dim>
				</port>
				<port id="1" precision="FP16">
					<dim>1</dim>
					<dim>10</dim>
					<dim>1</dim>
					<dim>1</dim>
				</port>
			</input>
			<output>
				<port id="2" precision="FP16" names="1563">
					<dim>1</dim>
					<dim>10</dim>
					<dim>1</dim>
					<dim>1</dim>
				</port>
			</output>
		</layer>
		<layer id="156" name="Relu_101" type="ReLU" version="opset1">
			<input>
				<port id="0" precision="FP16">
					<dim>1</dim>
					<dim>10</dim>
					<dim>1</dim>
					<dim>1</dim>
				</port>
			</input>
			<output>
				<port id="1" precision="FP16" names="1564">
					<dim>1</dim>
					<dim>10</dim>
					<dim>1</dim>
					<dim>1</dim>
				</port>
			</output>
		</layer>
		<layer id="157" name="backbone.stage0.0.layers.0.spatial_weighting.1.conv2.conv.weight" type="Const" version="opset1">
			<data element_type="f16" shape="40, 10, 1, 1" offset="19256" size="800"/>
			<output>
				<port id="0" precision="FP16" names="backbone.stage0.0.layers.0.spatial_weighting.1.conv2.conv.weight">
					<dim>40</dim>
					<dim>10</dim>
					<dim>1</dim>
					<dim>1</dim>
				</port>
			</output>
		</layer>
		<layer id="158" name="Conv_102/WithoutBiases" type="Convolution" version="opset1">
			<data strides="1, 1" dilations="1, 1" pads_begin="0, 0" pads_end="0, 0" auto_pad="explicit"/>
			<input>
				<port id="0" precision="FP16">
					<dim>1</dim>
					<dim>10</dim>
					<dim>1</dim>
					<dim>1</dim>
				</port>
				<port id="1" precision="FP16">
					<dim>40</dim>
					<dim>10</dim>
					<dim>1</dim>
					<dim>1</dim>
				</port>
			</input>
			<output>
				<port id="2" precision="FP16">
					<dim>1</dim>
					<dim>40</dim>
					<dim>1</dim>
					<dim>1</dim>
				</port>
			</output>
		</layer>
		<layer id="159" name="Conv_102/Dims31060" type="Const" version="opset1">
			<data element_type="f16" shape="1, 40, 1, 1" offset="20056" size="80"/>
			<output>
				<port id="0" precision="FP16">
					<dim>1</dim>
					<dim>40</dim>
					<dim>1</dim>
					<dim>1</dim>
				</port>
			</output>
		</layer>
		<layer id="160" name="Conv_102" type="Add" version="opset1">
			<data auto_broadcast="numpy"/>
			<input>
				<port id="0" precision="FP16">
					<dim>1</dim>
					<dim>40</dim>
					<dim>1</dim>
					<dim>1</dim>
				</port>
				<port id="1" precision="FP16">
					<dim>1</dim>
					<dim>40</dim>
					<dim>1</dim>
					<dim>1</dim>
				</port>
			</input>
			<output>
				<port id="2" precision="FP16" names="1565">
					<dim>1</dim>
					<dim>40</dim>
					<dim>1</dim>
					<dim>1</dim>
				</port>
			</output>
		</layer>
		<layer id="161" name="Sigmoid_103" type="Sigmoid" version="opset1">
			<input>
				<port id="0" precision="FP16">
					<dim>1</dim>
					<dim>40</dim>
					<dim>1</dim>
					<dim>1</dim>
				</port>
			</input>
			<output>
				<port id="1" precision="FP16" names="1566">
					<dim>1</dim>
					<dim>40</dim>
					<dim>1</dim>
					<dim>1</dim>
				</port>
			</output>
		</layer>
		<layer id="162" name="Mul_104" type="Multiply" version="opset1">
			<data auto_broadcast="numpy"/>
			<input>
				<port id="0" precision="FP16">
					<dim>1</dim>
					<dim>40</dim>
					<dim>48</dim>
					<dim>36</dim>
				</port>
				<port id="1" precision="FP16">
					<dim>1</dim>
					<dim>40</dim>
					<dim>1</dim>
					<dim>1</dim>
				</port>
			</input>
			<output>
				<port id="2" precision="FP16" names="1567">
					<dim>1</dim>
					<dim>40</dim>
					<dim>48</dim>
					<dim>36</dim>
				</port>
			</output>
		</layer>
		<layer id="163" name="Concat_106" type="Concat" version="opset1">
			<data axis="1"/>
			<input>
				<port id="0" precision="FP16">
					<dim>1</dim>
					<dim>40</dim>
					<dim>48</dim>
					<dim>36</dim>
				</port>
				<port id="1" precision="FP16">
					<dim>1</dim>
					<dim>40</dim>
					<dim>48</dim>
					<dim>36</dim>
				</port>
			</input>
			<output>
				<port id="2" precision="FP16" names="1569">
					<dim>1</dim>
					<dim>80</dim>
					<dim>48</dim>
					<dim>36</dim>
				</port>
			</output>
		</layer>
		<layer id="164" name="6726131077" type="Const" version="opset1">
			<data element_type="i64" shape="5" offset="20136" size="40"/>
			<output>
				<port id="0" precision="I64" names="6726">
					<dim>5</dim>
				</port>
			</output>
		</layer>
		<layer id="165" name="Reshape_110" type="Reshape" version="opset1">
			<data special_zero="true"/>
			<input>
				<port id="0" precision="FP16">
					<dim>1</dim>
					<dim>80</dim>
					<dim>48</dim>
					<dim>36</dim>
				</port>
				<port id="1" precision="I64">
					<dim>5</dim>
				</port>
			</input>
			<output>
				<port id="2" precision="FP16" names="1601">
					<dim>1</dim>
					<dim>2</dim>
					<dim>40</dim>
					<dim>48</dim>
					<dim>36</dim>
				</port>
			</output>
		</layer>
		<layer id="166" name="2068" type="Const" version="opset1">
			<data element_type="i64" shape="5" offset="5504" size="40"/>
			<output>
				<port id="0" precision="I64">
					<dim>5</dim>
				</port>
			</output>
		</layer>
		<layer id="167" name="Transpose_111" type="Transpose" version="opset1">
			<input>
				<port id="0" precision="FP16">
					<dim>1</dim>
					<dim>2</dim>
					<dim>40</dim>
					<dim>48</dim>
					<dim>36</dim>
				</port>
				<port id="1" precision="I64">
					<dim>5</dim>
				</port>
			</input>
			<output>
				<port id="2" precision="FP16" names="1602">
					<dim>1</dim>
					<dim>40</dim>
					<dim>2</dim>
					<dim>48</dim>
					<dim>36</dim>
				</port>
			</output>
		</layer>
		<layer id="168" name="6731" type="Const" version="opset1">
			<data element_type="i64" shape="4" offset="20176" size="32"/>
			<output>
				<port id="0" precision="I64" names="6731">
					<dim>4</dim>
				</port>
			</output>
		</layer>
		<layer id="169" name="Reshape_112" type="Reshape" version="opset1">
			<data special_zero="true"/>
			<input>
				<port id="0" precision="FP16">
					<dim>1</dim>
					<dim>40</dim>
					<dim>2</dim>
					<dim>48</dim>
					<dim>36</dim>
				</port>
				<port id="1" precision="I64">
					<dim>4</dim>
				</port>
			</input>
			<output>
				<port id="2" precision="FP16" names="1609">
					<dim>1</dim>
					<dim>80</dim>
					<dim>48</dim>
					<dim>36</dim>
				</port>
			</output>
		</layer>
		<layer id="170" name="40272130444" type="Const" version="opset1">
			<data element_type="i64" shape="" offset="1792" size="8"/>
			<output>
				<port id="0" precision="I64"/>
			</output>
		</layer>
		<layer id="171" name="40274127255" type="Const" version="opset1">
			<data element_type="i64" shape="2" offset="14792" size="16"/>
			<output>
				<port id="0" precision="I64">
					<dim>2</dim>
				</port>
			</output>
		</layer>
		<layer id="172" name="Slice_137/Split" type="VariadicSplit" version="opset1">
			<input>
				<port id="0" precision="FP16">
					<dim>1</dim>
					<dim>80</dim>
					<dim>48</dim>
					<dim>36</dim>
				</port>
				<port id="1" precision="I64"/>
				<port id="2" precision="I64">
					<dim>2</dim>
				</port>
			</input>
			<output>
				<port id="3" precision="FP16" names="1634">
					<dim>1</dim>
					<dim>40</dim>
					<dim>48</dim>
					<dim>36</dim>
				</port>
				<port id="4" precision="FP16" names="1637">
					<dim>1</dim>
					<dim>40</dim>
					<dim>48</dim>
					<dim>36</dim>
				</port>
			</output>
		</layer>
		<layer id="173" name="Concat_144" type="Concat" version="opset1">
			<data axis="1"/>
			<input>
				<port id="0" precision="FP16">
					<dim>1</dim>
					<dim>20</dim>
					<dim>48</dim>
					<dim>36</dim>
				</port>
				<port id="1" precision="FP16">
					<dim>1</dim>
					<dim>40</dim>
					<dim>48</dim>
					<dim>36</dim>
				</port>
			</input>
			<output>
				<port id="2" precision="FP16" names="1641">
					<dim>1</dim>
					<dim>60</dim>
					<dim>48</dim>
					<dim>36</dim>
				</port>
			</output>
		</layer>
		<layer id="174" name="5966" type="Const" version="opset1">
			<data element_type="f16" shape="7, 60, 1, 1" offset="20208" size="840"/>
			<output>
				<port id="0" precision="FP16" names="5966">
					<dim>7</dim>
					<dim>60</dim>
					<dim>1</dim>
					<dim>1</dim>
				</port>
			</output>
		</layer>
		<layer id="175" name="Conv_145/WithoutBiases" type="Convolution" version="opset1">
			<data strides="1, 1" dilations="1, 1" pads_begin="0, 0" pads_end="0, 0" auto_pad="explicit"/>
			<input>
				<port id="0" precision="FP16">
					<dim>1</dim>
					<dim>60</dim>
					<dim>48</dim>
					<dim>36</dim>
				</port>
				<port id="1" precision="FP16">
					<dim>7</dim>
					<dim>60</dim>
					<dim>1</dim>
					<dim>1</dim>
				</port>
			</input>
			<output>
				<port id="2" precision="FP16">
					<dim>1</dim>
					<dim>7</dim>
					<dim>48</dim>
					<dim>36</dim>
				</port>
			</output>
		</layer>
		<layer id="176" name="Conv_145/Dims31768" type="Const" version="opset1">
			<data element_type="f16" shape="1, 7, 1, 1" offset="21048" size="14"/>
			<output>
				<port id="0" precision="FP16">
					<dim>1</dim>
					<dim>7</dim>
					<dim>1</dim>
					<dim>1</dim>
				</port>
			</output>
		</layer>
		<layer id="177" name="Conv_145" type="Add" version="opset1">
			<data auto_broadcast="numpy"/>
			<input>
				<port id="0" precision="FP16">
					<dim>1</dim>
					<dim>7</dim>
					<dim>48</dim>
					<dim>36</dim>
				</port>
				<port id="1" precision="FP16">
					<dim>1</dim>
					<dim>7</dim>
					<dim>1</dim>
					<dim>1</dim>
				</port>
			</input>
			<output>
				<port id="2" precision="FP16" names="5965">
					<dim>1</dim>
					<dim>7</dim>
					<dim>48</dim>
					<dim>36</dim>
				</port>
			</output>
		</layer>
		<layer id="178" name="Relu_146" type="ReLU" version="opset1">
			<input>
				<port id="0" precision="FP16">
					<dim>1</dim>
					<dim>7</dim>
					<dim>48</dim>
					<dim>36</dim>
				</port>
			</input>
			<output>
				<port id="1" precision="FP16" names="1644">
					<dim>1</dim>
					<dim>7</dim>
					<dim>48</dim>
					<dim>36</dim>
				</port>
			</output>
		</layer>
		<layer id="179" name="5969" type="Const" version="opset1">
			<data element_type="f16" shape="60, 7, 1, 1" offset="21062" size="840"/>
			<output>
				<port id="0" precision="FP16" names="5969">
					<dim>60</dim>
					<dim>7</dim>
					<dim>1</dim>
					<dim>1</dim>
				</port>
			</output>
		</layer>
		<layer id="180" name="Conv_147/WithoutBiases" type="Convolution" version="opset1">
			<data strides="1, 1" dilations="1, 1" pads_begin="0, 0" pads_end="0, 0" auto_pad="explicit"/>
			<input>
				<port id="0" precision="FP16">
					<dim>1</dim>
					<dim>7</dim>
					<dim>48</dim>
					<dim>36</dim>
				</port>
				<port id="1" precision="FP16">
					<dim>60</dim>
					<dim>7</dim>
					<dim>1</dim>
					<dim>1</dim>
				</port>
			</input>
			<output>
				<port id="2" precision="FP16">
					<dim>1</dim>
					<dim>60</dim>
					<dim>48</dim>
					<dim>36</dim>
				</port>
			</output>
		</layer>
		<layer id="181" name="Conv_147/Dims31624" type="Const" version="opset1">
			<data element_type="f16" shape="1, 60, 1, 1" offset="21902" size="120"/>
			<output>
				<port id="0" precision="FP16">
					<dim>1</dim>
					<dim>60</dim>
					<dim>1</dim>
					<dim>1</dim>
				</port>
			</output>
		</layer>
		<layer id="182" name="Conv_147" type="Add" version="opset1">
			<data auto_broadcast="numpy"/>
			<input>
				<port id="0" precision="FP16">
					<dim>1</dim>
					<dim>60</dim>
					<dim>48</dim>
					<dim>36</dim>
				</port>
				<port id="1" precision="FP16">
					<dim>1</dim>
					<dim>60</dim>
					<dim>1</dim>
					<dim>1</dim>
				</port>
			</input>
			<output>
				<port id="2" precision="FP16" names="5968">
					<dim>1</dim>
					<dim>60</dim>
					<dim>48</dim>
					<dim>36</dim>
				</port>
			</output>
		</layer>
		<layer id="183" name="Sigmoid_148" type="Sigmoid" version="opset1">
			<input>
				<port id="0" precision="FP16">
					<dim>1</dim>
					<dim>60</dim>
					<dim>48</dim>
					<dim>36</dim>
				</port>
			</input>
			<output>
				<port id="1" precision="FP16" names="1647">
					<dim>1</dim>
					<dim>60</dim>
					<dim>48</dim>
					<dim>36</dim>
				</port>
			</output>
		</layer>
		<layer id="184" name="Split_149/VariadicSplit_input_port_1/value" type="Const" version="opset1">
			<data element_type="i64" shape="" offset="1792" size="8"/>
			<output>
				<port id="0" precision="I64"/>
			</output>
		</layer>
		<layer id="185" name="Split_149/VariadicSplit_input_port_2/value" type="Const" version="opset1">
			<data element_type="i64" shape="2" offset="16622" size="16"/>
			<output>
				<port id="0" precision="I64">
					<dim>2</dim>
				</port>
			</output>
		</layer>
		<layer id="186" name="Split_149/VariadicSplit" type="VariadicSplit" version="opset1">
			<input>
				<port id="0" precision="FP16">
					<dim>1</dim>
					<dim>60</dim>
					<dim>48</dim>
					<dim>36</dim>
				</port>
				<port id="1" precision="I64"/>
				<port id="2" precision="I64">
					<dim>2</dim>
				</port>
			</input>
			<output>
				<port id="3" precision="FP16" names="1648">
					<dim>1</dim>
					<dim>20</dim>
					<dim>48</dim>
					<dim>36</dim>
				</port>
				<port id="4" precision="FP16" names="1649">
					<dim>1</dim>
					<dim>40</dim>
					<dim>48</dim>
					<dim>36</dim>
				</port>
			</output>
		</layer>
		<layer id="187" name="Resize_158/StridedSlice_sizes21697130780" type="Const" version="opset1">
			<data element_type="i64" shape="2" offset="16638" size="16"/>
			<output>
				<port id="0" precision="I64">
					<dim>2</dim>
				</port>
			</output>
		</layer>
		<layer id="188" name="2168921691129094" type="Const" version="opset1">
			<data element_type="f32" shape="4" offset="16654" size="16"/>
			<output>
				<port id="0" precision="FP32">
					<dim>4</dim>
				</port>
			</output>
		</layer>
		<layer id="189" name="Resize_158/ShapeOf" type="ShapeOf" version="opset3">
			<data output_type="i64"/>
			<input>
				<port id="0" precision="FP16">
					<dim>1</dim>
					<dim>20</dim>
					<dim>48</dim>
					<dim>36</dim>
				</port>
			</input>
			<output>
				<port id="1" precision="I64">
					<dim>4</dim>
				</port>
			</output>
		</layer>
		<layer id="190" name="21688" type="Convert" version="opset1">
			<data destination_type="f32"/>
			<input>
				<port id="0" precision="I64">
					<dim>4</dim>
				</port>
			</input>
			<output>
				<port id="1" precision="FP32">
					<dim>4</dim>
				</port>
			</output>
		</layer>
		<layer id="191" name="Resize_158/Div" type="Divide" version="opset1">
			<data auto_broadcast="numpy" m_pythondiv="true"/>
			<input>
				<port id="0" precision="FP32">
					<dim>4</dim>
				</port>
				<port id="1" precision="FP32">
					<dim>4</dim>
				</port>
			</input>
			<output>
				<port id="2" precision="FP32">
					<dim>4</dim>
				</port>
			</output>
		</layer>
		<layer id="192" name="Resize_158/Add_input_port_1/value21687129910" type="Const" version="opset1">
			<data element_type="f32" shape="1" offset="16670" size="4"/>
			<output>
				<port id="0" precision="FP32">
					<dim>1</dim>
				</port>
			</output>
		</layer>
		<layer id="193" name="Resize_158/Add" type="Add" version="opset1">
			<data auto_broadcast="numpy"/>
			<input>
				<port id="0" precision="FP32">
					<dim>4</dim>
				</port>
				<port id="1" precision="FP32">
					<dim>1</dim>
				</port>
			</input>
			<output>
				<port id="2" precision="FP32">
					<dim>4</dim>
				</port>
			</output>
		</layer>
		<layer id="194" name="Resize_158/StridedSlice_scales_input_port_1/value21676127573" type="Const" version="opset1">
			<data element_type="i64" shape="1" offset="16674" size="8"/>
			<output>
				<port id="0" precision="I64">
					<dim>1</dim>
				</port>
			</output>
		</layer>
		<layer id="195" name="Resize_158/StridedSlice_scales_input_port_2/value21678128008" type="Const" version="opset1">
			<data element_type="i64" shape="1" offset="16682" size="8"/>
			<output>
				<port id="0" precision="I64">
					<dim>1</dim>
				</port>
			</output>
		</layer>
		<layer id="196" name="Resize_158/StridedSlice_scales_input_port_3/value21680128044" type="Const" version="opset1">
			<data element_type="i64" shape="1" offset="1792" size="8"/>
			<output>
				<port id="0" precision="I64">
					<dim>1</dim>
				</port>
			</output>
		</layer>
		<layer id="197" name="Resize_158/StridedSlice_scales" type="StridedSlice" version="opset1">
			<data begin_mask="0" end_mask="0" new_axis_mask="0" shrink_axis_mask="0" ellipsis_mask="0"/>
			<input>
				<port id="0" precision="FP32">
					<dim>4</dim>
				</port>
				<port id="1" precision="I64">
					<dim>1</dim>
				</port>
				<port id="2" precision="I64">
					<dim>1</dim>
				</port>
				<port id="3" precision="I64">
					<dim>1</dim>
				</port>
			</input>
			<output>
				<port id="4" precision="FP32">
					<dim>2</dim>
				</port>
			</output>
		</layer>
		<layer id="198" name="Resize_158/axis21683129844" type="Const" version="opset1">
			<data element_type="i64" shape="2" offset="16690" size="16"/>
			<output>
				<port id="0" precision="I64">
					<dim>2</dim>
				</port>
			</output>
		</layer>
		<layer id="199" name="Resize_158" type="Interpolate" version="opset4">
			<data mode="nearest" shape_calculation_mode="sizes" coordinate_transformation_mode="asymmetric" nearest_mode="floor" antialias="false" pads_begin="0, 0, 0, 0" pads_end="0, 0, 0, 0" cube_coeff="-0.75"/>
			<input>
				<port id="0" precision="FP16">
					<dim>1</dim>
					<dim>20</dim>
					<dim>48</dim>
					<dim>36</dim>
				</port>
				<port id="1" precision="I64">
					<dim>2</dim>
				</port>
				<port id="2" precision="FP32">
					<dim>2</dim>
				</port>
				<port id="3" precision="I64">
					<dim>2</dim>
				</port>
			</input>
			<output>
				<port id="4" precision="FP16" names="1664">
					<dim>1</dim>
					<dim>20</dim>
					<dim>96</dim>
					<dim>72</dim>
				</port>
			</output>
		</layer>
		<layer id="200" name="Mul_159" type="Multiply" version="opset1">
			<data auto_broadcast="numpy"/>
			<input>
				<port id="0" precision="FP16">
					<dim>1</dim>
					<dim>20</dim>
					<dim>96</dim>
					<dim>72</dim>
				</port>
				<port id="1" precision="FP16">
					<dim>1</dim>
					<dim>20</dim>
					<dim>96</dim>
					<dim>72</dim>
				</port>
			</input>
			<output>
				<port id="2" precision="FP16" names="1665">
					<dim>1</dim>
					<dim>20</dim>
					<dim>96</dim>
					<dim>72</dim>
				</port>
			</output>
		</layer>
		<layer id="201" name="5972" type="Const" version="opset1">
			<data element_type="f16" shape="20, 1, 1, 3, 3" offset="22022" size="360"/>
			<output>
				<port id="0" precision="FP16" names="5972">
					<dim>20</dim>
					<dim>1</dim>
					<dim>1</dim>
					<dim>3</dim>
					<dim>3</dim>
				</port>
			</output>
		</layer>
		<layer id="202" name="Conv_170/WithoutBiases" type="GroupConvolution" version="opset1">
			<data strides="1, 1" pads_begin="1, 1" pads_end="1, 1" dilations="1, 1" auto_pad="explicit"/>
			<input>
				<port id="0" precision="FP16">
					<dim>1</dim>
					<dim>20</dim>
					<dim>96</dim>
					<dim>72</dim>
				</port>
				<port id="1" precision="FP16">
					<dim>20</dim>
					<dim>1</dim>
					<dim>1</dim>
					<dim>3</dim>
					<dim>3</dim>
				</port>
			</input>
			<output>
				<port id="2" precision="FP16">
					<dim>1</dim>
					<dim>20</dim>
					<dim>96</dim>
					<dim>72</dim>
				</port>
			</output>
		</layer>
		<layer id="203" name="Conv_170/Dims31156" type="Const" version="opset1">
			<data element_type="f16" shape="1, 20, 1, 1" offset="22382" size="40"/>
			<output>
				<port id="0" precision="FP16">
					<dim>1</dim>
					<dim>20</dim>
					<dim>1</dim>
					<dim>1</dim>
				</port>
			</output>
		</layer>
		<layer id="204" name="Conv_170" type="Add" version="opset1">
			<data auto_broadcast="numpy"/>
			<input>
				<port id="0" precision="FP16">
					<dim>1</dim>
					<dim>20</dim>
					<dim>96</dim>
					<dim>72</dim>
				</port>
				<port id="1" precision="FP16">
					<dim>1</dim>
					<dim>20</dim>
					<dim>1</dim>
					<dim>1</dim>
				</port>
			</input>
			<output>
				<port id="2" precision="FP16" names="5971">
					<dim>1</dim>
					<dim>20</dim>
					<dim>96</dim>
					<dim>72</dim>
				</port>
			</output>
		</layer>
		<layer id="205" name="2114" type="Const" version="opset1">
			<data element_type="i64" shape="" offset="16674" size="8"/>
			<output>
				<port id="0" precision="I64"/>
			</output>
		</layer>
		<layer id="206" name="GlobalAveragePool_172/input_rank/shape_of" type="ShapeOf" version="opset3">
			<data output_type="i64"/>
			<input>
				<port id="0" precision="FP16">
					<dim>1</dim>
					<dim>20</dim>
					<dim>96</dim>
					<dim>72</dim>
				</port>
			</input>
			<output>
				<port id="1" precision="I64">
					<dim>4</dim>
				</port>
			</output>
		</layer>
		<layer id="207" name="GlobalAveragePool_172/input_rank/rank_of" type="ShapeOf" version="opset3">
			<data output_type="i64"/>
			<input>
				<port id="0" precision="I64">
					<dim>4</dim>
				</port>
			</input>
			<output>
				<port id="1" precision="I64">
					<dim>1</dim>
				</port>
			</output>
		</layer>
		<layer id="208" name="GlobalAveragePool_172/input_rank/0d_rank_of/value" type="Const" version="opset1">
			<data element_type="i64" shape="1" offset="17106" size="8"/>
			<output>
				<port id="0" precision="I64">
					<dim>1</dim>
				</port>
			</output>
		</layer>
		<layer id="209" name="GlobalAveragePool_172/input_rank" type="Squeeze" version="opset1">
			<input>
				<port id="0" precision="I64">
					<dim>1</dim>
				</port>
				<port id="1" precision="I64">
					<dim>1</dim>
				</port>
			</input>
			<output>
				<port id="2" precision="I64"/>
			</output>
		</layer>
		<layer id="210" name="2116" type="Const" version="opset1">
			<data element_type="i64" shape="" offset="1792" size="8"/>
			<output>
				<port id="0" precision="I64"/>
			</output>
		</layer>
		<layer id="211" name="GlobalAveragePool_172/global_pooling_reduce_axis" type="Range" version="opset4">
			<data output_type="i64"/>
			<input>
				<port id="0" precision="I64"/>
				<port id="1" precision="I64"/>
				<port id="2" precision="I64"/>
			</input>
			<output>
				<port id="3" precision="I64">
					<dim>2</dim>
				</port>
			</output>
		</layer>
		<layer id="212" name="GlobalAveragePool_172/reduce" type="ReduceMean" version="opset1">
			<data keep_dims="true"/>
			<input>
				<port id="0" precision="FP16">
					<dim>1</dim>
					<dim>20</dim>
					<dim>96</dim>
					<dim>72</dim>
				</port>
				<port id="1" precision="I64">
					<dim>2</dim>
				</port>
			</input>
			<output>
				<port id="2" precision="FP16" names="1686">
					<dim>1</dim>
					<dim>20</dim>
					<dim>1</dim>
					<dim>1</dim>
				</port>
			</output>
		</layer>
		<layer id="213" name="backbone.stage0.0.layers.1.spatial_weighting.0.conv1.conv.weight" type="Const" version="opset1">
			<data element_type="f16" shape="5, 20, 1, 1" offset="22422" size="200"/>
			<output>
				<port id="0" precision="FP16" names="backbone.stage0.0.layers.1.spatial_weighting.0.conv1.conv.weight">
					<dim>5</dim>
					<dim>20</dim>
					<dim>1</dim>
					<dim>1</dim>
				</port>
			</output>
		</layer>
		<layer id="214" name="Conv_173/WithoutBiases" type="Convolution" version="opset1">
			<data strides="1, 1" dilations="1, 1" pads_begin="0, 0" pads_end="0, 0" auto_pad="explicit"/>
			<input>
				<port id="0" precision="FP16">
					<dim>1</dim>
					<dim>20</dim>
					<dim>1</dim>
					<dim>1</dim>
				</port>
				<port id="1" precision="FP16">
					<dim>5</dim>
					<dim>20</dim>
					<dim>1</dim>
					<dim>1</dim>
				</port>
			</input>
			<output>
				<port id="2" precision="FP16">
					<dim>1</dim>
					<dim>5</dim>
					<dim>1</dim>
					<dim>1</dim>
				</port>
			</output>
		</layer>
		<layer id="215" name="Conv_173/Dims31378" type="Const" version="opset1">
			<data element_type="f16" shape="1, 5, 1, 1" offset="22622" size="10"/>
			<output>
				<port id="0" precision="FP16">
					<dim>1</dim>
					<dim>5</dim>
					<dim>1</dim>
					<dim>1</dim>
				</port>
			</output>
		</layer>
		<layer id="216" name="Conv_173" type="Add" version="opset1">
			<data auto_broadcast="numpy"/>
			<input>
				<port id="0" precision="FP16">
					<dim>1</dim>
					<dim>5</dim>
					<dim>1</dim>
					<dim>1</dim>
				</port>
				<port id="1" precision="FP16">
					<dim>1</dim>
					<dim>5</dim>
					<dim>1</dim>
					<dim>1</dim>
				</port>
			</input>
			<output>
				<port id="2" precision="FP16" names="1687">
					<dim>1</dim>
					<dim>5</dim>
					<dim>1</dim>
					<dim>1</dim>
				</port>
			</output>
		</layer>
		<layer id="217" name="Relu_174" type="ReLU" version="opset1">
			<input>
				<port id="0" precision="FP16">
					<dim>1</dim>
					<dim>5</dim>
					<dim>1</dim>
					<dim>1</dim>
				</port>
			</input>
			<output>
				<port id="1" precision="FP16" names="1688">
					<dim>1</dim>
					<dim>5</dim>
					<dim>1</dim>
					<dim>1</dim>
				</port>
			</output>
		</layer>
		<layer id="218" name="backbone.stage0.0.layers.1.spatial_weighting.0.conv2.conv.weight" type="Const" version="opset1">
			<data element_type="f16" shape="20, 5, 1, 1" offset="22632" size="200"/>
			<output>
				<port id="0" precision="FP16" names="backbone.stage0.0.layers.1.spatial_weighting.0.conv2.conv.weight">
					<dim>20</dim>
					<dim>5</dim>
					<dim>1</dim>
					<dim>1</dim>
				</port>
			</output>
		</layer>
		<layer id="219" name="Conv_175/WithoutBiases" type="Convolution" version="opset1">
			<data strides="1, 1" dilations="1, 1" pads_begin="0, 0" pads_end="0, 0" auto_pad="explicit"/>
			<input>
				<port id="0" precision="FP16">
					<dim>1</dim>
					<dim>5</dim>
					<dim>1</dim>
					<dim>1</dim>
				</port>
				<port id="1" precision="FP16">
					<dim>20</dim>
					<dim>5</dim>
					<dim>1</dim>
					<dim>1</dim>
				</port>
			</input>
			<output>
				<port id="2" precision="FP16">
					<dim>1</dim>
					<dim>20</dim>
					<dim>1</dim>
					<dim>1</dim>
				</port>
			</output>
		</layer>
		<layer id="220" name="Conv_175/Dims30862" type="Const" version="opset1">
			<data element_type="f16" shape="1, 20, 1, 1" offset="22832" size="40"/>
			<output>
				<port id="0" precision="FP16">
					<dim>1</dim>
					<dim>20</dim>
					<dim>1</dim>
					<dim>1</dim>
				</port>
			</output>
		</layer>
		<layer id="221" name="Conv_175" type="Add" version="opset1">
			<data auto_broadcast="numpy"/>
			<input>
				<port id="0" precision="FP16">
					<dim>1</dim>
					<dim>20</dim>
					<dim>1</dim>
					<dim>1</dim>
				</port>
				<port id="1" precision="FP16">
					<dim>1</dim>
					<dim>20</dim>
					<dim>1</dim>
					<dim>1</dim>
				</port>
			</input>
			<output>
				<port id="2" precision="FP16" names="1689">
					<dim>1</dim>
					<dim>20</dim>
					<dim>1</dim>
					<dim>1</dim>
				</port>
			</output>
		</layer>
		<layer id="222" name="Sigmoid_176" type="Sigmoid" version="opset1">
			<input>
				<port id="0" precision="FP16">
					<dim>1</dim>
					<dim>20</dim>
					<dim>1</dim>
					<dim>1</dim>
				</port>
			</input>
			<output>
				<port id="1" precision="FP16" names="1690">
					<dim>1</dim>
					<dim>20</dim>
					<dim>1</dim>
					<dim>1</dim>
				</port>
			</output>
		</layer>
		<layer id="223" name="Mul_177" type="Multiply" version="opset1">
			<data auto_broadcast="numpy"/>
			<input>
				<port id="0" precision="FP16">
					<dim>1</dim>
					<dim>20</dim>
					<dim>96</dim>
					<dim>72</dim>
				</port>
				<port id="1" precision="FP16">
					<dim>1</dim>
					<dim>20</dim>
					<dim>1</dim>
					<dim>1</dim>
				</port>
			</input>
			<output>
				<port id="2" precision="FP16" names="1691">
					<dim>1</dim>
					<dim>20</dim>
					<dim>96</dim>
					<dim>72</dim>
				</port>
			</output>
		</layer>
		<layer id="224" name="Concat_184" type="Concat" version="opset1">
			<data axis="1"/>
			<input>
				<port id="0" precision="FP16">
					<dim>1</dim>
					<dim>20</dim>
					<dim>96</dim>
					<dim>72</dim>
				</port>
				<port id="1" precision="FP16">
					<dim>1</dim>
					<dim>20</dim>
					<dim>96</dim>
					<dim>72</dim>
				</port>
			</input>
			<output>
				<port id="2" precision="FP16" names="1698">
					<dim>1</dim>
					<dim>40</dim>
					<dim>96</dim>
					<dim>72</dim>
				</port>
			</output>
		</layer>
		<layer id="225" name="6715128878" type="Const" version="opset1">
			<data element_type="i64" shape="5" offset="17564" size="40"/>
			<output>
				<port id="0" precision="I64" names="6715">
					<dim>5</dim>
				</port>
			</output>
		</layer>
		<layer id="226" name="Reshape_186" type="Reshape" version="opset1">
			<data special_zero="true"/>
			<input>
				<port id="0" precision="FP16">
					<dim>1</dim>
					<dim>40</dim>
					<dim>96</dim>
					<dim>72</dim>
				</port>
				<port id="1" precision="I64">
					<dim>5</dim>
				</port>
			</input>
			<output>
				<port id="2" precision="FP16" names="1711">
					<dim>1</dim>
					<dim>2</dim>
					<dim>20</dim>
					<dim>96</dim>
					<dim>72</dim>
				</port>
			</output>
		</layer>
		<layer id="227" name="2059" type="Const" version="opset1">
			<data element_type="i64" shape="5" offset="5504" size="40"/>
			<output>
				<port id="0" precision="I64">
					<dim>5</dim>
				</port>
			</output>
		</layer>
		<layer id="228" name="Transpose_187" type="Transpose" version="opset1">
			<input>
				<port id="0" precision="FP16">
					<dim>1</dim>
					<dim>2</dim>
					<dim>20</dim>
					<dim>96</dim>
					<dim>72</dim>
				</port>
				<port id="1" precision="I64">
					<dim>5</dim>
				</port>
			</input>
			<output>
				<port id="2" precision="FP16" names="1712">
					<dim>1</dim>
					<dim>20</dim>
					<dim>2</dim>
					<dim>96</dim>
					<dim>72</dim>
				</port>
			</output>
		</layer>
		<layer id="229" name="6701127888" type="Const" version="opset1">
			<data element_type="i64" shape="4" offset="5544" size="32"/>
			<output>
				<port id="0" precision="I64" names="6701">
					<dim>4</dim>
				</port>
			</output>
		</layer>
		<layer id="230" name="Reshape_188" type="Reshape" version="opset1">
			<data special_zero="true"/>
			<input>
				<port id="0" precision="FP16">
					<dim>1</dim>
					<dim>20</dim>
					<dim>2</dim>
					<dim>96</dim>
					<dim>72</dim>
				</port>
				<port id="1" precision="I64">
					<dim>4</dim>
				</port>
			</input>
			<output>
				<port id="2" precision="FP16" names="1719">
					<dim>1</dim>
					<dim>40</dim>
					<dim>96</dim>
					<dim>72</dim>
				</port>
			</output>
		</layer>
		<layer id="231" name="Add_192" type="Add" version="opset1">
			<data auto_broadcast="numpy"/>
			<input>
				<port id="0" precision="FP16">
					<dim>1</dim>
					<dim>40</dim>
					<dim>96</dim>
					<dim>72</dim>
				</port>
				<port id="1" precision="FP16">
					<dim>1</dim>
					<dim>40</dim>
					<dim>96</dim>
					<dim>72</dim>
				</port>
			</input>
			<output>
				<port id="2" precision="FP16" names="1740">
					<dim>1</dim>
					<dim>40</dim>
					<dim>96</dim>
					<dim>72</dim>
				</port>
			</output>
		</layer>
		<layer id="232" name="Resize_168/StridedSlice_sizes21729127594" type="Const" version="opset1">
			<data element_type="i64" shape="2" offset="17604" size="16"/>
			<output>
				<port id="0" precision="I64">
					<dim>2</dim>
				</port>
			</output>
		</layer>
		<layer id="233" name="2172121723130918" type="Const" version="opset1">
			<data element_type="f32" shape="4" offset="17620" size="16"/>
			<output>
				<port id="0" precision="FP32">
					<dim>4</dim>
				</port>
			</output>
		</layer>
		<layer id="234" name="Resize_168/ShapeOf" type="ShapeOf" version="opset3">
			<data output_type="i64"/>
			<input>
				<port id="0" precision="FP16">
					<dim>1</dim>
					<dim>40</dim>
					<dim>48</dim>
					<dim>36</dim>
				</port>
			</input>
			<output>
				<port id="1" precision="I64">
					<dim>4</dim>
				</port>
			</output>
		</layer>
		<layer id="235" name="21720" type="Convert" version="opset1">
			<data destination_type="f32"/>
			<input>
				<port id="0" precision="I64">
					<dim>4</dim>
				</port>
			</input>
			<output>
				<port id="1" precision="FP32">
					<dim>4</dim>
				</port>
			</output>
		</layer>
		<layer id="236" name="Resize_168/Div" type="Divide" version="opset1">
			<data auto_broadcast="numpy" m_pythondiv="true"/>
			<input>
				<port id="0" precision="FP32">
					<dim>4</dim>
				</port>
				<port id="1" precision="FP32">
					<dim>4</dim>
				</port>
			</input>
			<output>
				<port id="2" precision="FP32">
					<dim>4</dim>
				</port>
			</output>
		</layer>
		<layer id="237" name="Resize_168/Add_input_port_1/value21719131014" type="Const" version="opset1">
			<data element_type="f32" shape="1" offset="16670" size="4"/>
			<output>
				<port id="0" precision="FP32">
					<dim>1</dim>
				</port>
			</output>
		</layer>
		<layer id="238" name="Resize_168/Add" type="Add" version="opset1">
			<data auto_broadcast="numpy"/>
			<input>
				<port id="0" precision="FP32">
					<dim>4</dim>
				</port>
				<port id="1" precision="FP32">
					<dim>1</dim>
				</port>
			</input>
			<output>
				<port id="2" precision="FP32">
					<dim>4</dim>
				</port>
			</output>
		</layer>
		<layer id="239" name="Resize_168/StridedSlice_scales_input_port_1/value21708131722" type="Const" version="opset1">
			<data element_type="i64" shape="1" offset="16674" size="8"/>
			<output>
				<port id="0" precision="I64">
					<dim>1</dim>
				</port>
			</output>
		</layer>
		<layer id="240" name="Resize_168/StridedSlice_scales_input_port_2/value21710131248" type="Const" version="opset1">
			<data element_type="i64" shape="1" offset="16682" size="8"/>
			<output>
				<port id="0" precision="I64">
					<dim>1</dim>
				</port>
			</output>
		</layer>
		<layer id="241" name="Resize_168/StridedSlice_scales_input_port_3/value21712130981" type="Const" version="opset1">
			<data element_type="i64" shape="1" offset="1792" size="8"/>
			<output>
				<port id="0" precision="I64">
					<dim>1</dim>
				</port>
			</output>
		</layer>
		<layer id="242" name="Resize_168/StridedSlice_scales" type="StridedSlice" version="opset1">
			<data begin_mask="0" end_mask="0" new_axis_mask="0" shrink_axis_mask="0" ellipsis_mask="0"/>
			<input>
				<port id="0" precision="FP32">
					<dim>4</dim>
				</port>
				<port id="1" precision="I64">
					<dim>1</dim>
				</port>
				<port id="2" precision="I64">
					<dim>1</dim>
				</port>
				<port id="3" precision="I64">
					<dim>1</dim>
				</port>
			</input>
			<output>
				<port id="4" precision="FP32">
					<dim>2</dim>
				</port>
			</output>
		</layer>
		<layer id="243" name="Resize_168/axis21715127717" type="Const" version="opset1">
			<data element_type="i64" shape="2" offset="16690" size="16"/>
			<output>
				<port id="0" precision="I64">
					<dim>2</dim>
				</port>
			</output>
		</layer>
		<layer id="244" name="Resize_168" type="Interpolate" version="opset4">
			<data mode="nearest" shape_calculation_mode="sizes" coordinate_transformation_mode="asymmetric" nearest_mode="floor" antialias="false" pads_begin="0, 0, 0, 0" pads_end="0, 0, 0, 0" cube_coeff="-0.75"/>
			<input>
				<port id="0" precision="FP16">
					<dim>1</dim>
					<dim>40</dim>
					<dim>48</dim>
					<dim>36</dim>
				</port>
				<port id="1" precision="I64">
					<dim>2</dim>
				</port>
				<port id="2" precision="FP32">
					<dim>2</dim>
				</port>
				<port id="3" precision="I64">
					<dim>2</dim>
				</port>
			</input>
			<output>
				<port id="4" precision="FP16" names="1680">
					<dim>1</dim>
					<dim>40</dim>
					<dim>48</dim>
					<dim>36</dim>
				</port>
			</output>
		</layer>
		<layer id="245" name="Mul_169" type="Multiply" version="opset1">
			<data auto_broadcast="numpy"/>
			<input>
				<port id="0" precision="FP16">
					<dim>1</dim>
					<dim>40</dim>
					<dim>48</dim>
					<dim>36</dim>
				</port>
				<port id="1" precision="FP16">
					<dim>1</dim>
					<dim>40</dim>
					<dim>48</dim>
					<dim>36</dim>
				</port>
			</input>
			<output>
				<port id="2" precision="FP16" names="1681">
					<dim>1</dim>
					<dim>40</dim>
					<dim>48</dim>
					<dim>36</dim>
				</port>
			</output>
		</layer>
		<layer id="246" name="5975" type="Const" version="opset1">
			<data element_type="f16" shape="40, 1, 1, 3, 3" offset="22872" size="720"/>
			<output>
				<port id="0" precision="FP16" names="5975">
					<dim>40</dim>
					<dim>1</dim>
					<dim>1</dim>
					<dim>3</dim>
					<dim>3</dim>
				</port>
			</output>
		</layer>
		<layer id="247" name="Conv_171/WithoutBiases" type="GroupConvolution" version="opset1">
			<data strides="1, 1" pads_begin="1, 1" pads_end="1, 1" dilations="1, 1" auto_pad="explicit"/>
			<input>
				<port id="0" precision="FP16">
					<dim>1</dim>
					<dim>40</dim>
					<dim>48</dim>
					<dim>36</dim>
				</port>
				<port id="1" precision="FP16">
					<dim>40</dim>
					<dim>1</dim>
					<dim>1</dim>
					<dim>3</dim>
					<dim>3</dim>
				</port>
			</input>
			<output>
				<port id="2" precision="FP16">
					<dim>1</dim>
					<dim>40</dim>
					<dim>48</dim>
					<dim>36</dim>
				</port>
			</output>
		</layer>
		<layer id="248" name="Conv_171/Dims30928" type="Const" version="opset1">
			<data element_type="f16" shape="1, 40, 1, 1" offset="23592" size="80"/>
			<output>
				<port id="0" precision="FP16">
					<dim>1</dim>
					<dim>40</dim>
					<dim>1</dim>
					<dim>1</dim>
				</port>
			</output>
		</layer>
		<layer id="249" name="Conv_171" type="Add" version="opset1">
			<data auto_broadcast="numpy"/>
			<input>
				<port id="0" precision="FP16">
					<dim>1</dim>
					<dim>40</dim>
					<dim>48</dim>
					<dim>36</dim>
				</port>
				<port id="1" precision="FP16">
					<dim>1</dim>
					<dim>40</dim>
					<dim>1</dim>
					<dim>1</dim>
				</port>
			</input>
			<output>
				<port id="2" precision="FP16" names="5974">
					<dim>1</dim>
					<dim>40</dim>
					<dim>48</dim>
					<dim>36</dim>
				</port>
			</output>
		</layer>
		<layer id="250" name="2119" type="Const" version="opset1">
			<data element_type="i64" shape="" offset="16674" size="8"/>
			<output>
				<port id="0" precision="I64"/>
			</output>
		</layer>
		<layer id="251" name="GlobalAveragePool_178/input_rank/shape_of" type="ShapeOf" version="opset3">
			<data output_type="i64"/>
			<input>
				<port id="0" precision="FP16">
					<dim>1</dim>
					<dim>40</dim>
					<dim>48</dim>
					<dim>36</dim>
				</port>
			</input>
			<output>
				<port id="1" precision="I64">
					<dim>4</dim>
				</port>
			</output>
		</layer>
		<layer id="252" name="GlobalAveragePool_178/input_rank/rank_of" type="ShapeOf" version="opset3">
			<data output_type="i64"/>
			<input>
				<port id="0" precision="I64">
					<dim>4</dim>
				</port>
			</input>
			<output>
				<port id="1" precision="I64">
					<dim>1</dim>
				</port>
			</output>
		</layer>
		<layer id="253" name="GlobalAveragePool_178/input_rank/0d_rank_of/value" type="Const" version="opset1">
			<data element_type="i64" shape="1" offset="17106" size="8"/>
			<output>
				<port id="0" precision="I64">
					<dim>1</dim>
				</port>
			</output>
		</layer>
		<layer id="254" name="GlobalAveragePool_178/input_rank" type="Squeeze" version="opset1">
			<input>
				<port id="0" precision="I64">
					<dim>1</dim>
				</port>
				<port id="1" precision="I64">
					<dim>1</dim>
				</port>
			</input>
			<output>
				<port id="2" precision="I64"/>
			</output>
		</layer>
		<layer id="255" name="2121" type="Const" version="opset1">
			<data element_type="i64" shape="" offset="1792" size="8"/>
			<output>
				<port id="0" precision="I64"/>
			</output>
		</layer>
		<layer id="256" name="GlobalAveragePool_178/global_pooling_reduce_axis" type="Range" version="opset4">
			<data output_type="i64"/>
			<input>
				<port id="0" precision="I64"/>
				<port id="1" precision="I64"/>
				<port id="2" precision="I64"/>
			</input>
			<output>
				<port id="3" precision="I64">
					<dim>2</dim>
				</port>
			</output>
		</layer>
		<layer id="257" name="GlobalAveragePool_178/reduce" type="ReduceMean" version="opset1">
			<data keep_dims="true"/>
			<input>
				<port id="0" precision="FP16">
					<dim>1</dim>
					<dim>40</dim>
					<dim>48</dim>
					<dim>36</dim>
				</port>
				<port id="1" precision="I64">
					<dim>2</dim>
				</port>
			</input>
			<output>
				<port id="2" precision="FP16" names="1692">
					<dim>1</dim>
					<dim>40</dim>
					<dim>1</dim>
					<dim>1</dim>
				</port>
			</output>
		</layer>
		<layer id="258" name="backbone.stage0.0.layers.1.spatial_weighting.1.conv1.conv.weight" type="Const" version="opset1">
			<data element_type="f16" shape="10, 40, 1, 1" offset="23672" size="800"/>
			<output>
				<port id="0" precision="FP16" names="backbone.stage0.0.layers.1.spatial_weighting.1.conv1.conv.weight">
					<dim>10</dim>
					<dim>40</dim>
					<dim>1</dim>
					<dim>1</dim>
				</port>
			</output>
		</layer>
		<layer id="259" name="Conv_179/WithoutBiases" type="Convolution" version="opset1">
			<data strides="1, 1" dilations="1, 1" pads_begin="0, 0" pads_end="0, 0" auto_pad="explicit"/>
			<input>
				<port id="0" precision="FP16">
					<dim>1</dim>
					<dim>40</dim>
					<dim>1</dim>
					<dim>1</dim>
				</port>
				<port id="1" precision="FP16">
					<dim>10</dim>
					<dim>40</dim>
					<dim>1</dim>
					<dim>1</dim>
				</port>
			</input>
			<output>
				<port id="2" precision="FP16">
					<dim>1</dim>
					<dim>10</dim>
					<dim>1</dim>
					<dim>1</dim>
				</port>
			</output>
		</layer>
		<layer id="260" name="Conv_179/Dims30250" type="Const" version="opset1">
			<data element_type="f16" shape="1, 10, 1, 1" offset="24472" size="20"/>
			<output>
				<port id="0" precision="FP16">
					<dim>1</dim>
					<dim>10</dim>
					<dim>1</dim>
					<dim>1</dim>
				</port>
			</output>
		</layer>
		<layer id="261" name="Conv_179" type="Add" version="opset1">
			<data auto_broadcast="numpy"/>
			<input>
				<port id="0" precision="FP16">
					<dim>1</dim>
					<dim>10</dim>
					<dim>1</dim>
					<dim>1</dim>
				</port>
				<port id="1" precision="FP16">
					<dim>1</dim>
					<dim>10</dim>
					<dim>1</dim>
					<dim>1</dim>
				</port>
			</input>
			<output>
				<port id="2" precision="FP16" names="1693">
					<dim>1</dim>
					<dim>10</dim>
					<dim>1</dim>
					<dim>1</dim>
				</port>
			</output>
		</layer>
		<layer id="262" name="Relu_180" type="ReLU" version="opset1">
			<input>
				<port id="0" precision="FP16">
					<dim>1</dim>
					<dim>10</dim>
					<dim>1</dim>
					<dim>1</dim>
				</port>
			</input>
			<output>
				<port id="1" precision="FP16" names="1694">
					<dim>1</dim>
					<dim>10</dim>
					<dim>1</dim>
					<dim>1</dim>
				</port>
			</output>
		</layer>
		<layer id="263" name="backbone.stage0.0.layers.1.spatial_weighting.1.conv2.conv.weight" type="Const" version="opset1">
			<data element_type="f16" shape="40, 10, 1, 1" offset="24492" size="800"/>
			<output>
				<port id="0" precision="FP16" names="backbone.stage0.0.layers.1.spatial_weighting.1.conv2.conv.weight">
					<dim>40</dim>
					<dim>10</dim>
					<dim>1</dim>
					<dim>1</dim>
				</port>
			</output>
		</layer>
		<layer id="264" name="Conv_181/WithoutBiases" type="Convolution" version="opset1">
			<data strides="1, 1" dilations="1, 1" pads_begin="0, 0" pads_end="0, 0" auto_pad="explicit"/>
			<input>
				<port id="0" precision="FP16">
					<dim>1</dim>
					<dim>10</dim>
					<dim>1</dim>
					<dim>1</dim>
				</port>
				<port id="1" precision="FP16">
					<dim>40</dim>
					<dim>10</dim>
					<dim>1</dim>
					<dim>1</dim>
				</port>
			</input>
			<output>
				<port id="2" precision="FP16">
					<dim>1</dim>
					<dim>40</dim>
					<dim>1</dim>
					<dim>1</dim>
				</port>
			</output>
		</layer>
		<layer id="265" name="Conv_181/Dims31690" type="Const" version="opset1">
			<data element_type="f16" shape="1, 40, 1, 1" offset="25292" size="80"/>
			<output>
				<port id="0" precision="FP16">
					<dim>1</dim>
					<dim>40</dim>
					<dim>1</dim>
					<dim>1</dim>
				</port>
			</output>
		</layer>
		<layer id="266" name="Conv_181" type="Add" version="opset1">
			<data auto_broadcast="numpy"/>
			<input>
				<port id="0" precision="FP16">
					<dim>1</dim>
					<dim>40</dim>
					<dim>1</dim>
					<dim>1</dim>
				</port>
				<port id="1" precision="FP16">
					<dim>1</dim>
					<dim>40</dim>
					<dim>1</dim>
					<dim>1</dim>
				</port>
			</input>
			<output>
				<port id="2" precision="FP16" names="1695">
					<dim>1</dim>
					<dim>40</dim>
					<dim>1</dim>
					<dim>1</dim>
				</port>
			</output>
		</layer>
		<layer id="267" name="Sigmoid_182" type="Sigmoid" version="opset1">
			<input>
				<port id="0" precision="FP16">
					<dim>1</dim>
					<dim>40</dim>
					<dim>1</dim>
					<dim>1</dim>
				</port>
			</input>
			<output>
				<port id="1" precision="FP16" names="1696">
					<dim>1</dim>
					<dim>40</dim>
					<dim>1</dim>
					<dim>1</dim>
				</port>
			</output>
		</layer>
		<layer id="268" name="Mul_183" type="Multiply" version="opset1">
			<data auto_broadcast="numpy"/>
			<input>
				<port id="0" precision="FP16">
					<dim>1</dim>
					<dim>40</dim>
					<dim>48</dim>
					<dim>36</dim>
				</port>
				<port id="1" precision="FP16">
					<dim>1</dim>
					<dim>40</dim>
					<dim>1</dim>
					<dim>1</dim>
				</port>
			</input>
			<output>
				<port id="2" precision="FP16" names="1697">
					<dim>1</dim>
					<dim>40</dim>
					<dim>48</dim>
					<dim>36</dim>
				</port>
			</output>
		</layer>
		<layer id="269" name="Concat_185" type="Concat" version="opset1">
			<data axis="1"/>
			<input>
				<port id="0" precision="FP16">
					<dim>1</dim>
					<dim>40</dim>
					<dim>48</dim>
					<dim>36</dim>
				</port>
				<port id="1" precision="FP16">
					<dim>1</dim>
					<dim>40</dim>
					<dim>48</dim>
					<dim>36</dim>
				</port>
			</input>
			<output>
				<port id="2" precision="FP16" names="1699">
					<dim>1</dim>
					<dim>80</dim>
					<dim>48</dim>
					<dim>36</dim>
				</port>
			</output>
		</layer>
		<layer id="270" name="6726" type="Const" version="opset1">
			<data element_type="i64" shape="5" offset="20136" size="40"/>
			<output>
				<port id="0" precision="I64" names="6726">
					<dim>5</dim>
				</port>
			</output>
		</layer>
		<layer id="271" name="Reshape_189" type="Reshape" version="opset1">
			<data special_zero="true"/>
			<input>
				<port id="0" precision="FP16">
					<dim>1</dim>
					<dim>80</dim>
					<dim>48</dim>
					<dim>36</dim>
				</port>
				<port id="1" precision="I64">
					<dim>5</dim>
				</port>
			</input>
			<output>
				<port id="2" precision="FP16" names="1731">
					<dim>1</dim>
					<dim>2</dim>
					<dim>40</dim>
					<dim>48</dim>
					<dim>36</dim>
				</port>
			</output>
		</layer>
		<layer id="272" name="2069" type="Const" version="opset1">
			<data element_type="i64" shape="5" offset="5504" size="40"/>
			<output>
				<port id="0" precision="I64">
					<dim>5</dim>
				</port>
			</output>
		</layer>
		<layer id="273" name="Transpose_190" type="Transpose" version="opset1">
			<input>
				<port id="0" precision="FP16">
					<dim>1</dim>
					<dim>2</dim>
					<dim>40</dim>
					<dim>48</dim>
					<dim>36</dim>
				</port>
				<port id="1" precision="I64">
					<dim>5</dim>
				</port>
			</input>
			<output>
				<port id="2" precision="FP16" names="1732">
					<dim>1</dim>
					<dim>40</dim>
					<dim>2</dim>
					<dim>48</dim>
					<dim>36</dim>
				</port>
			</output>
		</layer>
		<layer id="274" name="6731130819" type="Const" version="opset1">
			<data element_type="i64" shape="4" offset="20176" size="32"/>
			<output>
				<port id="0" precision="I64" names="6731">
					<dim>4</dim>
				</port>
			</output>
		</layer>
		<layer id="275" name="Reshape_191" type="Reshape" version="opset1">
			<data special_zero="true"/>
			<input>
				<port id="0" precision="FP16">
					<dim>1</dim>
					<dim>40</dim>
					<dim>2</dim>
					<dim>48</dim>
					<dim>36</dim>
				</port>
				<port id="1" precision="I64">
					<dim>4</dim>
				</port>
			</input>
			<output>
				<port id="2" precision="FP16" names="1739">
					<dim>1</dim>
					<dim>80</dim>
					<dim>48</dim>
					<dim>36</dim>
				</port>
			</output>
		</layer>
		<layer id="276" name="5978" type="Const" version="opset1">
			<data element_type="f16" shape="40, 80, 1, 1" offset="25372" size="6400"/>
			<output>
				<port id="0" precision="FP16" names="5978">
					<dim>40</dim>
					<dim>80</dim>
					<dim>1</dim>
					<dim>1</dim>
				</port>
			</output>
		</layer>
		<layer id="277" name="Conv_193/WithoutBiases" type="Convolution" version="opset1">
			<data strides="1, 1" dilations="1, 1" pads_begin="0, 0" pads_end="0, 0" auto_pad="explicit"/>
			<input>
				<port id="0" precision="FP16">
					<dim>1</dim>
					<dim>80</dim>
					<dim>48</dim>
					<dim>36</dim>
				</port>
				<port id="1" precision="FP16">
					<dim>40</dim>
					<dim>80</dim>
					<dim>1</dim>
					<dim>1</dim>
				</port>
			</input>
			<output>
				<port id="2" precision="FP16">
					<dim>1</dim>
					<dim>40</dim>
					<dim>48</dim>
					<dim>36</dim>
				</port>
			</output>
		</layer>
		<layer id="278" name="Conv_193/Dims31534" type="Const" version="opset1">
			<data element_type="f16" shape="1, 40, 1, 1" offset="31772" size="80"/>
			<output>
				<port id="0" precision="FP16">
					<dim>1</dim>
					<dim>40</dim>
					<dim>1</dim>
					<dim>1</dim>
				</port>
			</output>
		</layer>
		<layer id="279" name="Conv_193" type="Add" version="opset1">
			<data auto_broadcast="numpy"/>
			<input>
				<port id="0" precision="FP16">
					<dim>1</dim>
					<dim>40</dim>
					<dim>48</dim>
					<dim>36</dim>
				</port>
				<port id="1" precision="FP16">
					<dim>1</dim>
					<dim>40</dim>
					<dim>1</dim>
					<dim>1</dim>
				</port>
			</input>
			<output>
				<port id="2" precision="FP16" names="5977">
					<dim>1</dim>
					<dim>40</dim>
					<dim>48</dim>
					<dim>36</dim>
				</port>
			</output>
		</layer>
		<layer id="280" name="Resize_195/ShapeOf" type="ShapeOf" version="opset3">
			<data output_type="i64"/>
			<input>
				<port id="0" precision="FP16">
					<dim>1</dim>
					<dim>40</dim>
					<dim>48</dim>
					<dim>36</dim>
				</port>
			</input>
			<output>
				<port id="1" precision="I64">
					<dim>4</dim>
				</port>
			</output>
		</layer>
		<layer id="281" name="21752" type="Convert" version="opset1">
			<data destination_type="f32"/>
			<input>
				<port id="0" precision="I64">
					<dim>4</dim>
				</port>
			</input>
			<output>
				<port id="1" precision="FP32">
					<dim>4</dim>
				</port>
			</output>
		</layer>
		<layer id="282" name="6762129214" type="Const" version="opset1">
			<data element_type="f32" shape="4" offset="31852" size="16"/>
			<output>
				<port id="0" precision="FP32" names="6762">
					<dim>4</dim>
				</port>
			</output>
		</layer>
		<layer id="283" name="Resize_195/Mul" type="Multiply" version="opset1">
			<data auto_broadcast="numpy"/>
			<input>
				<port id="0" precision="FP32">
					<dim>4</dim>
				</port>
				<port id="1" precision="FP32">
					<dim>4</dim>
				</port>
			</input>
			<output>
				<port id="2" precision="FP32">
					<dim>4</dim>
				</port>
			</output>
		</layer>
		<layer id="284" name="Resize_195/Add_input_port_1/value21751127624" type="Const" version="opset1">
			<data element_type="f32" shape="1" offset="16670" size="4"/>
			<output>
				<port id="0" precision="FP32">
					<dim>1</dim>
				</port>
			</output>
		</layer>
		<layer id="285" name="Resize_195/Add" type="Add" version="opset1">
			<data auto_broadcast="numpy"/>
			<input>
				<port id="0" precision="FP32">
					<dim>4</dim>
				</port>
				<port id="1" precision="FP32">
					<dim>1</dim>
				</port>
			</input>
			<output>
				<port id="2" precision="FP32">
					<dim>4</dim>
				</port>
			</output>
		</layer>
		<layer id="286" name="Resize_195/Floor" type="Floor" version="opset1">
			<input>
				<port id="0" precision="FP32">
					<dim>4</dim>
				</port>
			</input>
			<output>
				<port id="1" precision="FP32">
					<dim>4</dim>
				</port>
			</output>
		</layer>
		<layer id="287" name="21756" type="Convert" version="opset1">
			<data destination_type="i64"/>
			<input>
				<port id="0" precision="FP32">
					<dim>4</dim>
				</port>
			</input>
			<output>
				<port id="1" precision="I64">
					<dim>4</dim>
				</port>
			</output>
		</layer>
		<layer id="288" name="Resize_195/StridedSlice_sizes_input_port_1/value21733130552" type="Const" version="opset1">
			<data element_type="i64" shape="1" offset="16674" size="8"/>
			<output>
				<port id="0" precision="I64">
					<dim>1</dim>
				</port>
			</output>
		</layer>
		<layer id="289" name="Resize_195/StridedSlice_sizes_input_port_2/value21735128188" type="Const" version="opset1">
			<data element_type="i64" shape="1" offset="16682" size="8"/>
			<output>
				<port id="0" precision="I64">
					<dim>1</dim>
				</port>
			</output>
		</layer>
		<layer id="290" name="Resize_195/StridedSlice_sizes_input_port_3/value21737130345" type="Const" version="opset1">
			<data element_type="i64" shape="1" offset="1792" size="8"/>
			<output>
				<port id="0" precision="I64">
					<dim>1</dim>
				</port>
			</output>
		</layer>
		<layer id="291" name="Resize_195/StridedSlice_sizes" type="StridedSlice" version="opset1">
			<data begin_mask="0" end_mask="0" new_axis_mask="0" shrink_axis_mask="0" ellipsis_mask="0"/>
			<input>
				<port id="0" precision="I64">
					<dim>4</dim>
				</port>
				<port id="1" precision="I64">
					<dim>1</dim>
				</port>
				<port id="2" precision="I64">
					<dim>1</dim>
				</port>
				<port id="3" precision="I64">
					<dim>1</dim>
				</port>
			</input>
			<output>
				<port id="4" precision="I64">
					<dim>2</dim>
				</port>
			</output>
		</layer>
		<layer id="292" name="Resize_195/StridedSlice_scales21763127501" type="Const" version="opset1">
			<data element_type="f32" shape="2" offset="31868" size="8"/>
			<output>
				<port id="0" precision="FP32">
					<dim>2</dim>
				</port>
			</output>
		</layer>
		<layer id="293" name="Resize_195/axis21747128821" type="Const" version="opset1">
			<data element_type="i64" shape="2" offset="16690" size="16"/>
			<output>
				<port id="0" precision="I64">
					<dim>2</dim>
				</port>
			</output>
		</layer>
		<layer id="294" name="Resize_195" type="Interpolate" version="opset4">
			<data mode="nearest" shape_calculation_mode="scales" coordinate_transformation_mode="asymmetric" nearest_mode="floor" antialias="false" pads_begin="0, 0, 0, 0" pads_end="0, 0, 0, 0" cube_coeff="-0.75"/>
			<input>
				<port id="0" precision="FP16">
					<dim>1</dim>
					<dim>40</dim>
					<dim>48</dim>
					<dim>36</dim>
				</port>
				<port id="1" precision="I64">
					<dim>2</dim>
				</port>
				<port id="2" precision="FP32">
					<dim>2</dim>
				</port>
				<port id="3" precision="I64">
					<dim>2</dim>
				</port>
			</input>
			<output>
				<port id="4" precision="FP16" names="1747">
					<dim>1</dim>
					<dim>40</dim>
					<dim>96</dim>
					<dim>72</dim>
				</port>
			</output>
		</layer>
		<layer id="295" name="Add_196" type="Add" version="opset1">
			<data auto_broadcast="numpy"/>
			<input>
				<port id="0" precision="FP16">
					<dim>1</dim>
					<dim>40</dim>
					<dim>96</dim>
					<dim>72</dim>
				</port>
				<port id="1" precision="FP16">
					<dim>1</dim>
					<dim>40</dim>
					<dim>96</dim>
					<dim>72</dim>
				</port>
			</input>
			<output>
				<port id="2" precision="FP16" names="1748">
					<dim>1</dim>
					<dim>40</dim>
					<dim>96</dim>
					<dim>72</dim>
				</port>
			</output>
		</layer>
		<layer id="296" name="Relu_197" type="ReLU" version="opset1">
			<input>
				<port id="0" precision="FP16">
					<dim>1</dim>
					<dim>40</dim>
					<dim>96</dim>
					<dim>72</dim>
				</port>
			</input>
			<output>
				<port id="1" precision="FP16" names="1749">
					<dim>1</dim>
					<dim>40</dim>
					<dim>96</dim>
					<dim>72</dim>
				</port>
			</output>
		</layer>
		<layer id="297" name="40277127669" type="Const" version="opset1">
			<data element_type="i64" shape="" offset="1792" size="8"/>
			<output>
				<port id="0" precision="I64"/>
			</output>
		</layer>
		<layer id="298" name="40279129352" type="Const" version="opset1">
			<data element_type="i64" shape="2" offset="8856" size="16"/>
			<output>
				<port id="0" precision="I64">
					<dim>2</dim>
				</port>
			</output>
		</layer>
		<layer id="299" name="Slice_215/Split" type="VariadicSplit" version="opset1">
			<input>
				<port id="0" precision="FP16">
					<dim>1</dim>
					<dim>40</dim>
					<dim>96</dim>
					<dim>72</dim>
				</port>
				<port id="1" precision="I64"/>
				<port id="2" precision="I64">
					<dim>2</dim>
				</port>
			</input>
			<output>
				<port id="3" precision="FP16" names="1771">
					<dim>1</dim>
					<dim>20</dim>
					<dim>96</dim>
					<dim>72</dim>
				</port>
				<port id="4" precision="FP16" names="1774">
					<dim>1</dim>
					<dim>20</dim>
					<dim>96</dim>
					<dim>72</dim>
				</port>
			</output>
		</layer>
		<layer id="300" name="AveragePool_235" type="AvgPool" version="opset1">
			<data kernel="2, 2" strides="2, 2" pads_begin="0, 0" pads_end="0, 0" exclude-pad="true" auto_pad="explicit" rounding_type="floor"/>
			<input>
				<port id="0" precision="FP16">
					<dim>1</dim>
					<dim>20</dim>
					<dim>96</dim>
					<dim>72</dim>
				</port>
			</input>
			<output>
				<port id="1" precision="FP16" names="1791">
					<dim>1</dim>
					<dim>20</dim>
					<dim>48</dim>
					<dim>36</dim>
				</port>
			</output>
		</layer>
		<layer id="301" name="5981" type="Const" version="opset1">
			<data element_type="f16" shape="40, 1, 1, 3, 3" offset="31876" size="720"/>
			<output>
				<port id="0" precision="FP16" names="5981">
					<dim>40</dim>
					<dim>1</dim>
					<dim>1</dim>
					<dim>3</dim>
					<dim>3</dim>
				</port>
			</output>
		</layer>
		<layer id="302" name="Conv_198/WithoutBiases" type="GroupConvolution" version="opset1">
			<data strides="2, 2" pads_begin="1, 1" pads_end="1, 1" dilations="1, 1" auto_pad="explicit"/>
			<input>
				<port id="0" precision="FP16">
					<dim>1</dim>
					<dim>40</dim>
					<dim>96</dim>
					<dim>72</dim>
				</port>
				<port id="1" precision="FP16">
					<dim>40</dim>
					<dim>1</dim>
					<dim>1</dim>
					<dim>3</dim>
					<dim>3</dim>
				</port>
			</input>
			<output>
				<port id="2" precision="FP16">
					<dim>1</dim>
					<dim>40</dim>
					<dim>48</dim>
					<dim>36</dim>
				</port>
			</output>
		</layer>
		<layer id="303" name="Conv_198/Dims31138" type="Const" version="opset1">
			<data element_type="f16" shape="1, 40, 1, 1" offset="32596" size="80"/>
			<output>
				<port id="0" precision="FP16">
					<dim>1</dim>
					<dim>40</dim>
					<dim>1</dim>
					<dim>1</dim>
				</port>
			</output>
		</layer>
		<layer id="304" name="Conv_198" type="Add" version="opset1">
			<data auto_broadcast="numpy"/>
			<input>
				<port id="0" precision="FP16">
					<dim>1</dim>
					<dim>40</dim>
					<dim>48</dim>
					<dim>36</dim>
				</port>
				<port id="1" precision="FP16">
					<dim>1</dim>
					<dim>40</dim>
					<dim>1</dim>
					<dim>1</dim>
				</port>
			</input>
			<output>
				<port id="2" precision="FP16" names="5980">
					<dim>1</dim>
					<dim>40</dim>
					<dim>48</dim>
					<dim>36</dim>
				</port>
			</output>
		</layer>
		<layer id="305" name="5984" type="Const" version="opset1">
			<data element_type="f16" shape="80, 40, 1, 1" offset="32676" size="6400"/>
			<output>
				<port id="0" precision="FP16" names="5984">
					<dim>80</dim>
					<dim>40</dim>
					<dim>1</dim>
					<dim>1</dim>
				</port>
			</output>
		</layer>
		<layer id="306" name="Conv_199/WithoutBiases" type="Convolution" version="opset1">
			<data strides="1, 1" dilations="1, 1" pads_begin="0, 0" pads_end="0, 0" auto_pad="explicit"/>
			<input>
				<port id="0" precision="FP16">
					<dim>1</dim>
					<dim>40</dim>
					<dim>48</dim>
					<dim>36</dim>
				</port>
				<port id="1" precision="FP16">
					<dim>80</dim>
					<dim>40</dim>
					<dim>1</dim>
					<dim>1</dim>
				</port>
			</input>
			<output>
				<port id="2" precision="FP16">
					<dim>1</dim>
					<dim>80</dim>
					<dim>48</dim>
					<dim>36</dim>
				</port>
			</output>
		</layer>
		<layer id="307" name="Conv_199/Dims31714" type="Const" version="opset1">
			<data element_type="f16" shape="1, 80, 1, 1" offset="39076" size="160"/>
			<output>
				<port id="0" precision="FP16">
					<dim>1</dim>
					<dim>80</dim>
					<dim>1</dim>
					<dim>1</dim>
				</port>
			</output>
		</layer>
		<layer id="308" name="Conv_199" type="Add" version="opset1">
			<data auto_broadcast="numpy"/>
			<input>
				<port id="0" precision="FP16">
					<dim>1</dim>
					<dim>80</dim>
					<dim>48</dim>
					<dim>36</dim>
				</port>
				<port id="1" precision="FP16">
					<dim>1</dim>
					<dim>80</dim>
					<dim>1</dim>
					<dim>1</dim>
				</port>
			</input>
			<output>
				<port id="2" precision="FP16" names="5983">
					<dim>1</dim>
					<dim>80</dim>
					<dim>48</dim>
					<dim>36</dim>
				</port>
			</output>
		</layer>
		<layer id="309" name="5981130504" type="Const" version="opset1">
			<data element_type="f16" shape="40, 1, 1, 3, 3" offset="31876" size="720"/>
			<output>
				<port id="0" precision="FP16" names="5981">
					<dim>40</dim>
					<dim>1</dim>
					<dim>1</dim>
					<dim>3</dim>
					<dim>3</dim>
				</port>
			</output>
		</layer>
		<layer id="310" name="Conv_200/WithoutBiases" type="GroupConvolution" version="opset1">
			<data strides="2, 2" pads_begin="1, 1" pads_end="1, 1" dilations="1, 1" auto_pad="explicit"/>
			<input>
				<port id="0" precision="FP16">
					<dim>1</dim>
					<dim>40</dim>
					<dim>96</dim>
					<dim>72</dim>
				</port>
				<port id="1" precision="FP16">
					<dim>40</dim>
					<dim>1</dim>
					<dim>1</dim>
					<dim>3</dim>
					<dim>3</dim>
				</port>
			</input>
			<output>
				<port id="2" precision="FP16">
					<dim>1</dim>
					<dim>40</dim>
					<dim>48</dim>
					<dim>36</dim>
				</port>
			</output>
		</layer>
		<layer id="311" name="Conv_200/Dims31498" type="Const" version="opset1">
			<data element_type="f16" shape="1, 40, 1, 1" offset="32596" size="80"/>
			<output>
				<port id="0" precision="FP16">
					<dim>1</dim>
					<dim>40</dim>
					<dim>1</dim>
					<dim>1</dim>
				</port>
			</output>
		</layer>
		<layer id="312" name="Conv_200" type="Add" version="opset1">
			<data auto_broadcast="numpy"/>
			<input>
				<port id="0" precision="FP16">
					<dim>1</dim>
					<dim>40</dim>
					<dim>48</dim>
					<dim>36</dim>
				</port>
				<port id="1" precision="FP16">
					<dim>1</dim>
					<dim>40</dim>
					<dim>1</dim>
					<dim>1</dim>
				</port>
			</input>
			<output>
				<port id="2" precision="FP16" names="5986">
					<dim>1</dim>
					<dim>40</dim>
					<dim>48</dim>
					<dim>36</dim>
				</port>
			</output>
		</layer>
		<layer id="313" name="5984131095" type="Const" version="opset1">
			<data element_type="f16" shape="80, 40, 1, 1" offset="32676" size="6400"/>
			<output>
				<port id="0" precision="FP16" names="5984">
					<dim>80</dim>
					<dim>40</dim>
					<dim>1</dim>
					<dim>1</dim>
				</port>
			</output>
		</layer>
		<layer id="314" name="Conv_201/WithoutBiases" type="Convolution" version="opset1">
			<data strides="1, 1" dilations="1, 1" pads_begin="0, 0" pads_end="0, 0" auto_pad="explicit"/>
			<input>
				<port id="0" precision="FP16">
					<dim>1</dim>
					<dim>40</dim>
					<dim>48</dim>
					<dim>36</dim>
				</port>
				<port id="1" precision="FP16">
					<dim>80</dim>
					<dim>40</dim>
					<dim>1</dim>
					<dim>1</dim>
				</port>
			</input>
			<output>
				<port id="2" precision="FP16">
					<dim>1</dim>
					<dim>80</dim>
					<dim>48</dim>
					<dim>36</dim>
				</port>
			</output>
		</layer>
		<layer id="315" name="Conv_201/Dims29926" type="Const" version="opset1">
			<data element_type="f16" shape="1, 80, 1, 1" offset="39076" size="160"/>
			<output>
				<port id="0" precision="FP16">
					<dim>1</dim>
					<dim>80</dim>
					<dim>1</dim>
					<dim>1</dim>
				</port>
			</output>
		</layer>
		<layer id="316" name="Conv_201" type="Add" version="opset1">
			<data auto_broadcast="numpy"/>
			<input>
				<port id="0" precision="FP16">
					<dim>1</dim>
					<dim>80</dim>
					<dim>48</dim>
					<dim>36</dim>
				</port>
				<port id="1" precision="FP16">
					<dim>1</dim>
					<dim>80</dim>
					<dim>1</dim>
					<dim>1</dim>
				</port>
			</input>
			<output>
				<port id="2" precision="FP16" names="5989">
					<dim>1</dim>
					<dim>80</dim>
					<dim>48</dim>
					<dim>36</dim>
				</port>
			</output>
		</layer>
		<layer id="317" name="Add_202" type="Add" version="opset1">
			<data auto_broadcast="numpy"/>
			<input>
				<port id="0" precision="FP16">
					<dim>1</dim>
					<dim>80</dim>
					<dim>48</dim>
					<dim>36</dim>
				</port>
				<port id="1" precision="FP16">
					<dim>1</dim>
					<dim>80</dim>
					<dim>48</dim>
					<dim>36</dim>
				</port>
			</input>
			<output>
				<port id="2" precision="FP16" names="1758">
					<dim>1</dim>
					<dim>80</dim>
					<dim>48</dim>
					<dim>36</dim>
				</port>
			</output>
		</layer>
		<layer id="318" name="Add_203" type="Add" version="opset1">
			<data auto_broadcast="numpy"/>
			<input>
				<port id="0" precision="FP16">
					<dim>1</dim>
					<dim>80</dim>
					<dim>48</dim>
					<dim>36</dim>
				</port>
				<port id="1" precision="FP16">
					<dim>1</dim>
					<dim>80</dim>
					<dim>48</dim>
					<dim>36</dim>
				</port>
			</input>
			<output>
				<port id="2" precision="FP16" names="1759">
					<dim>1</dim>
					<dim>80</dim>
					<dim>48</dim>
					<dim>36</dim>
				</port>
			</output>
		</layer>
		<layer id="319" name="Relu_204" type="ReLU" version="opset1">
			<input>
				<port id="0" precision="FP16">
					<dim>1</dim>
					<dim>80</dim>
					<dim>48</dim>
					<dim>36</dim>
				</port>
			</input>
			<output>
				<port id="1" precision="FP16" names="1760">
					<dim>1</dim>
					<dim>80</dim>
					<dim>48</dim>
					<dim>36</dim>
				</port>
			</output>
		</layer>
		<layer id="320" name="40282130027" type="Const" version="opset1">
			<data element_type="i64" shape="" offset="1792" size="8"/>
			<output>
				<port id="0" precision="I64"/>
			</output>
		</layer>
		<layer id="321" name="40284131743" type="Const" version="opset1">
			<data element_type="i64" shape="2" offset="14792" size="16"/>
			<output>
				<port id="0" precision="I64">
					<dim>2</dim>
				</port>
			</output>
		</layer>
		<layer id="322" name="Slice_229/Split" type="VariadicSplit" version="opset1">
			<input>
				<port id="0" precision="FP16">
					<dim>1</dim>
					<dim>80</dim>
					<dim>48</dim>
					<dim>36</dim>
				</port>
				<port id="1" precision="I64"/>
				<port id="2" precision="I64">
					<dim>2</dim>
				</port>
			</input>
			<output>
				<port id="3" precision="FP16" names="1785">
					<dim>1</dim>
					<dim>40</dim>
					<dim>48</dim>
					<dim>36</dim>
				</port>
				<port id="4" precision="FP16" names="1788">
					<dim>1</dim>
					<dim>40</dim>
					<dim>48</dim>
					<dim>36</dim>
				</port>
			</output>
		</layer>
		<layer id="323" name="Concat_236" type="Concat" version="opset1">
			<data axis="1"/>
			<input>
				<port id="0" precision="FP16">
					<dim>1</dim>
					<dim>20</dim>
					<dim>48</dim>
					<dim>36</dim>
				</port>
				<port id="1" precision="FP16">
					<dim>1</dim>
					<dim>40</dim>
					<dim>48</dim>
					<dim>36</dim>
				</port>
			</input>
			<output>
				<port id="2" precision="FP16" names="1792">
					<dim>1</dim>
					<dim>60</dim>
					<dim>48</dim>
					<dim>36</dim>
				</port>
			</output>
		</layer>
		<layer id="324" name="5993" type="Const" version="opset1">
			<data element_type="f16" shape="7, 60, 1, 1" offset="39236" size="840"/>
			<output>
				<port id="0" precision="FP16" names="5993">
					<dim>7</dim>
					<dim>60</dim>
					<dim>1</dim>
					<dim>1</dim>
				</port>
			</output>
		</layer>
		<layer id="325" name="Conv_237/WithoutBiases" type="Convolution" version="opset1">
			<data strides="1, 1" dilations="1, 1" pads_begin="0, 0" pads_end="0, 0" auto_pad="explicit"/>
			<input>
				<port id="0" precision="FP16">
					<dim>1</dim>
					<dim>60</dim>
					<dim>48</dim>
					<dim>36</dim>
				</port>
				<port id="1" precision="FP16">
					<dim>7</dim>
					<dim>60</dim>
					<dim>1</dim>
					<dim>1</dim>
				</port>
			</input>
			<output>
				<port id="2" precision="FP16">
					<dim>1</dim>
					<dim>7</dim>
					<dim>48</dim>
					<dim>36</dim>
				</port>
			</output>
		</layer>
		<layer id="326" name="Conv_237/Dims30082" type="Const" version="opset1">
			<data element_type="f16" shape="1, 7, 1, 1" offset="40076" size="14"/>
			<output>
				<port id="0" precision="FP16">
					<dim>1</dim>
					<dim>7</dim>
					<dim>1</dim>
					<dim>1</dim>
				</port>
			</output>
		</layer>
		<layer id="327" name="Conv_237" type="Add" version="opset1">
			<data auto_broadcast="numpy"/>
			<input>
				<port id="0" precision="FP16">
					<dim>1</dim>
					<dim>7</dim>
					<dim>48</dim>
					<dim>36</dim>
				</port>
				<port id="1" precision="FP16">
					<dim>1</dim>
					<dim>7</dim>
					<dim>1</dim>
					<dim>1</dim>
				</port>
			</input>
			<output>
				<port id="2" precision="FP16" names="5992">
					<dim>1</dim>
					<dim>7</dim>
					<dim>48</dim>
					<dim>36</dim>
				</port>
			</output>
		</layer>
		<layer id="328" name="Relu_238" type="ReLU" version="opset1">
			<input>
				<port id="0" precision="FP16">
					<dim>1</dim>
					<dim>7</dim>
					<dim>48</dim>
					<dim>36</dim>
				</port>
			</input>
			<output>
				<port id="1" precision="FP16" names="1795">
					<dim>1</dim>
					<dim>7</dim>
					<dim>48</dim>
					<dim>36</dim>
				</port>
			</output>
		</layer>
		<layer id="329" name="5996" type="Const" version="opset1">
			<data element_type="f16" shape="60, 7, 1, 1" offset="40090" size="840"/>
			<output>
				<port id="0" precision="FP16" names="5996">
					<dim>60</dim>
					<dim>7</dim>
					<dim>1</dim>
					<dim>1</dim>
				</port>
			</output>
		</layer>
		<layer id="330" name="Conv_239/WithoutBiases" type="Convolution" version="opset1">
			<data strides="1, 1" dilations="1, 1" pads_begin="0, 0" pads_end="0, 0" auto_pad="explicit"/>
			<input>
				<port id="0" precision="FP16">
					<dim>1</dim>
					<dim>7</dim>
					<dim>48</dim>
					<dim>36</dim>
				</port>
				<port id="1" precision="FP16">
					<dim>60</dim>
					<dim>7</dim>
					<dim>1</dim>
					<dim>1</dim>
				</port>
			</input>
			<output>
				<port id="2" precision="FP16">
					<dim>1</dim>
					<dim>60</dim>
					<dim>48</dim>
					<dim>36</dim>
				</port>
			</output>
		</layer>
		<layer id="331" name="Conv_239/Dims29788" type="Const" version="opset1">
			<data element_type="f16" shape="1, 60, 1, 1" offset="40930" size="120"/>
			<output>
				<port id="0" precision="FP16">
					<dim>1</dim>
					<dim>60</dim>
					<dim>1</dim>
					<dim>1</dim>
				</port>
			</output>
		</layer>
		<layer id="332" name="Conv_239" type="Add" version="opset1">
			<data auto_broadcast="numpy"/>
			<input>
				<port id="0" precision="FP16">
					<dim>1</dim>
					<dim>60</dim>
					<dim>48</dim>
					<dim>36</dim>
				</port>
				<port id="1" precision="FP16">
					<dim>1</dim>
					<dim>60</dim>
					<dim>1</dim>
					<dim>1</dim>
				</port>
			</input>
			<output>
				<port id="2" precision="FP16" names="5995">
					<dim>1</dim>
					<dim>60</dim>
					<dim>48</dim>
					<dim>36</dim>
				</port>
			</output>
		</layer>
		<layer id="333" name="Sigmoid_240" type="Sigmoid" version="opset1">
			<input>
				<port id="0" precision="FP16">
					<dim>1</dim>
					<dim>60</dim>
					<dim>48</dim>
					<dim>36</dim>
				</port>
			</input>
			<output>
				<port id="1" precision="FP16" names="1798">
					<dim>1</dim>
					<dim>60</dim>
					<dim>48</dim>
					<dim>36</dim>
				</port>
			</output>
		</layer>
		<layer id="334" name="Split_241/VariadicSplit_input_port_1/value" type="Const" version="opset1">
			<data element_type="i64" shape="" offset="1792" size="8"/>
			<output>
				<port id="0" precision="I64"/>
			</output>
		</layer>
		<layer id="335" name="Split_241/VariadicSplit_input_port_2/value" type="Const" version="opset1">
			<data element_type="i64" shape="2" offset="16622" size="16"/>
			<output>
				<port id="0" precision="I64">
					<dim>2</dim>
				</port>
			</output>
		</layer>
		<layer id="336" name="Split_241/VariadicSplit" type="VariadicSplit" version="opset1">
			<input>
				<port id="0" precision="FP16">
					<dim>1</dim>
					<dim>60</dim>
					<dim>48</dim>
					<dim>36</dim>
				</port>
				<port id="1" precision="I64"/>
				<port id="2" precision="I64">
					<dim>2</dim>
				</port>
			</input>
			<output>
				<port id="3" precision="FP16" names="1799">
					<dim>1</dim>
					<dim>20</dim>
					<dim>48</dim>
					<dim>36</dim>
				</port>
				<port id="4" precision="FP16" names="1800">
					<dim>1</dim>
					<dim>40</dim>
					<dim>48</dim>
					<dim>36</dim>
				</port>
			</output>
		</layer>
		<layer id="337" name="Resize_260/StridedSlice_sizes21795129538" type="Const" version="opset1">
			<data element_type="i64" shape="2" offset="16638" size="16"/>
			<output>
				<port id="0" precision="I64">
					<dim>2</dim>
				</port>
			</output>
		</layer>
		<layer id="338" name="2178721789127138" type="Const" version="opset1">
			<data element_type="f32" shape="4" offset="16654" size="16"/>
			<output>
				<port id="0" precision="FP32">
					<dim>4</dim>
				</port>
			</output>
		</layer>
		<layer id="339" name="Resize_260/ShapeOf" type="ShapeOf" version="opset3">
			<data output_type="i64"/>
			<input>
				<port id="0" precision="FP16">
					<dim>1</dim>
					<dim>20</dim>
					<dim>48</dim>
					<dim>36</dim>
				</port>
			</input>
			<output>
				<port id="1" precision="I64">
					<dim>4</dim>
				</port>
			</output>
		</layer>
		<layer id="340" name="21786" type="Convert" version="opset1">
			<data destination_type="f32"/>
			<input>
				<port id="0" precision="I64">
					<dim>4</dim>
				</port>
			</input>
			<output>
				<port id="1" precision="FP32">
					<dim>4</dim>
				</port>
			</output>
		</layer>
		<layer id="341" name="Resize_260/Div" type="Divide" version="opset1">
			<data auto_broadcast="numpy" m_pythondiv="true"/>
			<input>
				<port id="0" precision="FP32">
					<dim>4</dim>
				</port>
				<port id="1" precision="FP32">
					<dim>4</dim>
				</port>
			</input>
			<output>
				<port id="2" precision="FP32">
					<dim>4</dim>
				</port>
			</output>
		</layer>
		<layer id="342" name="Resize_260/Add_input_port_1/value21785128077" type="Const" version="opset1">
			<data element_type="f32" shape="1" offset="16670" size="4"/>
			<output>
				<port id="0" precision="FP32">
					<dim>1</dim>
				</port>
			</output>
		</layer>
		<layer id="343" name="Resize_260/Add" type="Add" version="opset1">
			<data auto_broadcast="numpy"/>
			<input>
				<port id="0" precision="FP32">
					<dim>4</dim>
				</port>
				<port id="1" precision="FP32">
					<dim>1</dim>
				</port>
			</input>
			<output>
				<port id="2" precision="FP32">
					<dim>4</dim>
				</port>
			</output>
		</layer>
		<layer id="344" name="Resize_260/StridedSlice_scales_input_port_1/value21774128350" type="Const" version="opset1">
			<data element_type="i64" shape="1" offset="16674" size="8"/>
			<output>
				<port id="0" precision="I64">
					<dim>1</dim>
				</port>
			</output>
		</layer>
		<layer id="345" name="Resize_260/StridedSlice_scales_input_port_2/value21776127507" type="Const" version="opset1">
			<data element_type="i64" shape="1" offset="16682" size="8"/>
			<output>
				<port id="0" precision="I64">
					<dim>1</dim>
				</port>
			</output>
		</layer>
		<layer id="346" name="Resize_260/StridedSlice_scales_input_port_3/value21778129361" type="Const" version="opset1">
			<data element_type="i64" shape="1" offset="1792" size="8"/>
			<output>
				<port id="0" precision="I64">
					<dim>1</dim>
				</port>
			</output>
		</layer>
		<layer id="347" name="Resize_260/StridedSlice_scales" type="StridedSlice" version="opset1">
			<data begin_mask="0" end_mask="0" new_axis_mask="0" shrink_axis_mask="0" ellipsis_mask="0"/>
			<input>
				<port id="0" precision="FP32">
					<dim>4</dim>
				</port>
				<port id="1" precision="I64">
					<dim>1</dim>
				</port>
				<port id="2" precision="I64">
					<dim>1</dim>
				</port>
				<port id="3" precision="I64">
					<dim>1</dim>
				</port>
			</input>
			<output>
				<port id="4" precision="FP32">
					<dim>2</dim>
				</port>
			</output>
		</layer>
		<layer id="348" name="Resize_260/axis21781127864" type="Const" version="opset1">
			<data element_type="i64" shape="2" offset="16690" size="16"/>
			<output>
				<port id="0" precision="I64">
					<dim>2</dim>
				</port>
			</output>
		</layer>
		<layer id="349" name="Resize_260" type="Interpolate" version="opset4">
			<data mode="nearest" shape_calculation_mode="sizes" coordinate_transformation_mode="asymmetric" nearest_mode="floor" antialias="false" pads_begin="0, 0, 0, 0" pads_end="0, 0, 0, 0" cube_coeff="-0.75"/>
			<input>
				<port id="0" precision="FP16">
					<dim>1</dim>
					<dim>20</dim>
					<dim>48</dim>
					<dim>36</dim>
				</port>
				<port id="1" precision="I64">
					<dim>2</dim>
				</port>
				<port id="2" precision="FP32">
					<dim>2</dim>
				</port>
				<port id="3" precision="I64">
					<dim>2</dim>
				</port>
			</input>
			<output>
				<port id="4" precision="FP16" names="1819">
					<dim>1</dim>
					<dim>20</dim>
					<dim>96</dim>
					<dim>72</dim>
				</port>
			</output>
		</layer>
		<layer id="350" name="Mul_261" type="Multiply" version="opset1">
			<data auto_broadcast="numpy"/>
			<input>
				<port id="0" precision="FP16">
					<dim>1</dim>
					<dim>20</dim>
					<dim>96</dim>
					<dim>72</dim>
				</port>
				<port id="1" precision="FP16">
					<dim>1</dim>
					<dim>20</dim>
					<dim>96</dim>
					<dim>72</dim>
				</port>
			</input>
			<output>
				<port id="2" precision="FP16" names="1820">
					<dim>1</dim>
					<dim>20</dim>
					<dim>96</dim>
					<dim>72</dim>
				</port>
			</output>
		</layer>
		<layer id="351" name="5999" type="Const" version="opset1">
			<data element_type="f16" shape="20, 1, 1, 3, 3" offset="41050" size="360"/>
			<output>
				<port id="0" precision="FP16" names="5999">
					<dim>20</dim>
					<dim>1</dim>
					<dim>1</dim>
					<dim>3</dim>
					<dim>3</dim>
				</port>
			</output>
		</layer>
		<layer id="352" name="Conv_282/WithoutBiases" type="GroupConvolution" version="opset1">
			<data strides="1, 1" pads_begin="1, 1" pads_end="1, 1" dilations="1, 1" auto_pad="explicit"/>
			<input>
				<port id="0" precision="FP16">
					<dim>1</dim>
					<dim>20</dim>
					<dim>96</dim>
					<dim>72</dim>
				</port>
				<port id="1" precision="FP16">
					<dim>20</dim>
					<dim>1</dim>
					<dim>1</dim>
					<dim>3</dim>
					<dim>3</dim>
				</port>
			</input>
			<output>
				<port id="2" precision="FP16">
					<dim>1</dim>
					<dim>20</dim>
					<dim>96</dim>
					<dim>72</dim>
				</port>
			</output>
		</layer>
		<layer id="353" name="Conv_282/Dims31762" type="Const" version="opset1">
			<data element_type="f16" shape="1, 20, 1, 1" offset="41410" size="40"/>
			<output>
				<port id="0" precision="FP16">
					<dim>1</dim>
					<dim>20</dim>
					<dim>1</dim>
					<dim>1</dim>
				</port>
			</output>
		</layer>
		<layer id="354" name="Conv_282" type="Add" version="opset1">
			<data auto_broadcast="numpy"/>
			<input>
				<port id="0" precision="FP16">
					<dim>1</dim>
					<dim>20</dim>
					<dim>96</dim>
					<dim>72</dim>
				</port>
				<port id="1" precision="FP16">
					<dim>1</dim>
					<dim>20</dim>
					<dim>1</dim>
					<dim>1</dim>
				</port>
			</input>
			<output>
				<port id="2" precision="FP16" names="5998">
					<dim>1</dim>
					<dim>20</dim>
					<dim>96</dim>
					<dim>72</dim>
				</port>
			</output>
		</layer>
		<layer id="355" name="2124" type="Const" version="opset1">
			<data element_type="i64" shape="" offset="16674" size="8"/>
			<output>
				<port id="0" precision="I64"/>
			</output>
		</layer>
		<layer id="356" name="GlobalAveragePool_284/input_rank/shape_of" type="ShapeOf" version="opset3">
			<data output_type="i64"/>
			<input>
				<port id="0" precision="FP16">
					<dim>1</dim>
					<dim>20</dim>
					<dim>96</dim>
					<dim>72</dim>
				</port>
			</input>
			<output>
				<port id="1" precision="I64">
					<dim>4</dim>
				</port>
			</output>
		</layer>
		<layer id="357" name="GlobalAveragePool_284/input_rank/rank_of" type="ShapeOf" version="opset3">
			<data output_type="i64"/>
			<input>
				<port id="0" precision="I64">
					<dim>4</dim>
				</port>
			</input>
			<output>
				<port id="1" precision="I64">
					<dim>1</dim>
				</port>
			</output>
		</layer>
		<layer id="358" name="GlobalAveragePool_284/input_rank/0d_rank_of/value" type="Const" version="opset1">
			<data element_type="i64" shape="1" offset="17106" size="8"/>
			<output>
				<port id="0" precision="I64">
					<dim>1</dim>
				</port>
			</output>
		</layer>
		<layer id="359" name="GlobalAveragePool_284/input_rank" type="Squeeze" version="opset1">
			<input>
				<port id="0" precision="I64">
					<dim>1</dim>
				</port>
				<port id="1" precision="I64">
					<dim>1</dim>
				</port>
			</input>
			<output>
				<port id="2" precision="I64"/>
			</output>
		</layer>
		<layer id="360" name="2126" type="Const" version="opset1">
			<data element_type="i64" shape="" offset="1792" size="8"/>
			<output>
				<port id="0" precision="I64"/>
			</output>
		</layer>
		<layer id="361" name="GlobalAveragePool_284/global_pooling_reduce_axis" type="Range" version="opset4">
			<data output_type="i64"/>
			<input>
				<port id="0" precision="I64"/>
				<port id="1" precision="I64"/>
				<port id="2" precision="I64"/>
			</input>
			<output>
				<port id="3" precision="I64">
					<dim>2</dim>
				</port>
			</output>
		</layer>
		<layer id="362" name="GlobalAveragePool_284/reduce" type="ReduceMean" version="opset1">
			<data keep_dims="true"/>
			<input>
				<port id="0" precision="FP16">
					<dim>1</dim>
					<dim>20</dim>
					<dim>96</dim>
					<dim>72</dim>
				</port>
				<port id="1" precision="I64">
					<dim>2</dim>
				</port>
			</input>
			<output>
				<port id="2" precision="FP16" names="1845">
					<dim>1</dim>
					<dim>20</dim>
					<dim>1</dim>
					<dim>1</dim>
				</port>
			</output>
		</layer>
		<layer id="363" name="backbone.stage0.1.layers.0.spatial_weighting.0.conv1.conv.weight" type="Const" version="opset1">
			<data element_type="f16" shape="5, 20, 1, 1" offset="41450" size="200"/>
			<output>
				<port id="0" precision="FP16" names="backbone.stage0.1.layers.0.spatial_weighting.0.conv1.conv.weight">
					<dim>5</dim>
					<dim>20</dim>
					<dim>1</dim>
					<dim>1</dim>
				</port>
			</output>
		</layer>
		<layer id="364" name="Conv_285/WithoutBiases" type="Convolution" version="opset1">
			<data strides="1, 1" dilations="1, 1" pads_begin="0, 0" pads_end="0, 0" auto_pad="explicit"/>
			<input>
				<port id="0" precision="FP16">
					<dim>1</dim>
					<dim>20</dim>
					<dim>1</dim>
					<dim>1</dim>
				</port>
				<port id="1" precision="FP16">
					<dim>5</dim>
					<dim>20</dim>
					<dim>1</dim>
					<dim>1</dim>
				</port>
			</input>
			<output>
				<port id="2" precision="FP16">
					<dim>1</dim>
					<dim>5</dim>
					<dim>1</dim>
					<dim>1</dim>
				</port>
			</output>
		</layer>
		<layer id="365" name="Conv_285/Dims30688" type="Const" version="opset1">
			<data element_type="f16" shape="1, 5, 1, 1" offset="41650" size="10"/>
			<output>
				<port id="0" precision="FP16">
					<dim>1</dim>
					<dim>5</dim>
					<dim>1</dim>
					<dim>1</dim>
				</port>
			</output>
		</layer>
		<layer id="366" name="Conv_285" type="Add" version="opset1">
			<data auto_broadcast="numpy"/>
			<input>
				<port id="0" precision="FP16">
					<dim>1</dim>
					<dim>5</dim>
					<dim>1</dim>
					<dim>1</dim>
				</port>
				<port id="1" precision="FP16">
					<dim>1</dim>
					<dim>5</dim>
					<dim>1</dim>
					<dim>1</dim>
				</port>
			</input>
			<output>
				<port id="2" precision="FP16" names="1846">
					<dim>1</dim>
					<dim>5</dim>
					<dim>1</dim>
					<dim>1</dim>
				</port>
			</output>
		</layer>
		<layer id="367" name="Relu_286" type="ReLU" version="opset1">
			<input>
				<port id="0" precision="FP16">
					<dim>1</dim>
					<dim>5</dim>
					<dim>1</dim>
					<dim>1</dim>
				</port>
			</input>
			<output>
				<port id="1" precision="FP16" names="1847">
					<dim>1</dim>
					<dim>5</dim>
					<dim>1</dim>
					<dim>1</dim>
				</port>
			</output>
		</layer>
		<layer id="368" name="backbone.stage0.1.layers.0.spatial_weighting.0.conv2.conv.weight" type="Const" version="opset1">
			<data element_type="f16" shape="20, 5, 1, 1" offset="41660" size="200"/>
			<output>
				<port id="0" precision="FP16" names="backbone.stage0.1.layers.0.spatial_weighting.0.conv2.conv.weight">
					<dim>20</dim>
					<dim>5</dim>
					<dim>1</dim>
					<dim>1</dim>
				</port>
			</output>
		</layer>
		<layer id="369" name="Conv_287/WithoutBiases" type="Convolution" version="opset1">
			<data strides="1, 1" dilations="1, 1" pads_begin="0, 0" pads_end="0, 0" auto_pad="explicit"/>
			<input>
				<port id="0" precision="FP16">
					<dim>1</dim>
					<dim>5</dim>
					<dim>1</dim>
					<dim>1</dim>
				</port>
				<port id="1" precision="FP16">
					<dim>20</dim>
					<dim>5</dim>
					<dim>1</dim>
					<dim>1</dim>
				</port>
			</input>
			<output>
				<port id="2" precision="FP16">
					<dim>1</dim>
					<dim>20</dim>
					<dim>1</dim>
					<dim>1</dim>
				</port>
			</output>
		</layer>
		<layer id="370" name="Conv_287/Dims31606" type="Const" version="opset1">
			<data element_type="f16" shape="1, 20, 1, 1" offset="41860" size="40"/>
			<output>
				<port id="0" precision="FP16">
					<dim>1</dim>
					<dim>20</dim>
					<dim>1</dim>
					<dim>1</dim>
				</port>
			</output>
		</layer>
		<layer id="371" name="Conv_287" type="Add" version="opset1">
			<data auto_broadcast="numpy"/>
			<input>
				<port id="0" precision="FP16">
					<dim>1</dim>
					<dim>20</dim>
					<dim>1</dim>
					<dim>1</dim>
				</port>
				<port id="1" precision="FP16">
					<dim>1</dim>
					<dim>20</dim>
					<dim>1</dim>
					<dim>1</dim>
				</port>
			</input>
			<output>
				<port id="2" precision="FP16" names="1848">
					<dim>1</dim>
					<dim>20</dim>
					<dim>1</dim>
					<dim>1</dim>
				</port>
			</output>
		</layer>
		<layer id="372" name="Sigmoid_288" type="Sigmoid" version="opset1">
			<input>
				<port id="0" precision="FP16">
					<dim>1</dim>
					<dim>20</dim>
					<dim>1</dim>
					<dim>1</dim>
				</port>
			</input>
			<output>
				<port id="1" precision="FP16" names="1849">
					<dim>1</dim>
					<dim>20</dim>
					<dim>1</dim>
					<dim>1</dim>
				</port>
			</output>
		</layer>
		<layer id="373" name="Mul_289" type="Multiply" version="opset1">
			<data auto_broadcast="numpy"/>
			<input>
				<port id="0" precision="FP16">
					<dim>1</dim>
					<dim>20</dim>
					<dim>96</dim>
					<dim>72</dim>
				</port>
				<port id="1" precision="FP16">
					<dim>1</dim>
					<dim>20</dim>
					<dim>1</dim>
					<dim>1</dim>
				</port>
			</input>
			<output>
				<port id="2" precision="FP16" names="1850">
					<dim>1</dim>
					<dim>20</dim>
					<dim>96</dim>
					<dim>72</dim>
				</port>
			</output>
		</layer>
		<layer id="374" name="Concat_296" type="Concat" version="opset1">
			<data axis="1"/>
			<input>
				<port id="0" precision="FP16">
					<dim>1</dim>
					<dim>20</dim>
					<dim>96</dim>
					<dim>72</dim>
				</port>
				<port id="1" precision="FP16">
					<dim>1</dim>
					<dim>20</dim>
…
		<edge from-layer="3160" from-port="1" to-layer="3256" to-port="1"/>
		<edge from-layer="3161" from-port="0" to-layer="3173" to-port="1"/>
		<edge from-layer="3162" from-port="0" to-layer="3165" to-port="0"/>
		<edge from-layer="3163" from-port="1" to-layer="3164" to-port="0"/>
		<edge from-layer="3164" from-port="1" to-layer="3165" to-port="1"/>
		<edge from-layer="3165" from-port="2" to-layer="3167" to-port="0"/>
		<edge from-layer="3166" from-port="0" to-layer="3167" to-port="1"/>
		<edge from-layer="3167" from-port="2" to-layer="3171" to-port="0"/>
		<edge from-layer="3168" from-port="0" to-layer="3171" to-port="1"/>
		<edge from-layer="3169" from-port="0" to-layer="3171" to-port="2"/>
		<edge from-layer="3170" from-port="0" to-layer="3171" to-port="3"/>
		<edge from-layer="3171" from-port="4" to-layer="3173" to-port="2"/>
		<edge from-layer="3172" from-port="0" to-layer="3173" to-port="3"/>
		<edge from-layer="3173" from-port="4" to-layer="3174" to-port="1"/>
		<edge from-layer="3174" from-port="2" to-layer="3176" to-port="0"/>
		<edge from-layer="3175" from-port="0" to-layer="3176" to-port="1"/>
		<edge from-layer="3176" from-port="2" to-layer="3178" to-port="0"/>
		<edge from-layer="3177" from-port="0" to-layer="3178" to-port="1"/>
		<edge from-layer="3178" from-port="2" to-layer="3180" to-port="0"/>
		<edge from-layer="3178" from-port="2" to-layer="3197" to-port="0"/>
		<edge from-layer="3178" from-port="2" to-layer="3186" to-port="0"/>
		<edge from-layer="3179" from-port="0" to-layer="3185" to-port="0"/>
		<edge from-layer="3180" from-port="1" to-layer="3181" to-port="0"/>
		<edge from-layer="3181" from-port="1" to-layer="3183" to-port="0"/>
		<edge from-layer="3182" from-port="0" to-layer="3183" to-port="1"/>
		<edge from-layer="3183" from-port="2" to-layer="3185" to-port="1"/>
		<edge from-layer="3184" from-port="0" to-layer="3185" to-port="2"/>
		<edge from-layer="3185" from-port="3" to-layer="3186" to-port="1"/>
		<edge from-layer="3186" from-port="2" to-layer="3188" to-port="0"/>
		<edge from-layer="3187" from-port="0" to-layer="3188" to-port="1"/>
		<edge from-layer="3188" from-port="2" to-layer="3190" to-port="0"/>
		<edge from-layer="3189" from-port="0" to-layer="3190" to-port="1"/>
		<edge from-layer="3190" from-port="2" to-layer="3191" to-port="0"/>
		<edge from-layer="3191" from-port="1" to-layer="3193" to-port="0"/>
		<edge from-layer="3192" from-port="0" to-layer="3193" to-port="1"/>
		<edge from-layer="3193" from-port="2" to-layer="3195" to-port="0"/>
		<edge from-layer="3194" from-port="0" to-layer="3195" to-port="1"/>
		<edge from-layer="3195" from-port="2" to-layer="3196" to-port="0"/>
		<edge from-layer="3196" from-port="1" to-layer="3197" to-port="1"/>
		<edge from-layer="3197" from-port="2" to-layer="3198" to-port="1"/>
		<edge from-layer="3198" from-port="2" to-layer="3200" to-port="0"/>
		<edge from-layer="3199" from-port="0" to-layer="3200" to-port="1"/>
		<edge from-layer="3200" from-port="2" to-layer="3202" to-port="0"/>
		<edge from-layer="3201" from-port="0" to-layer="3202" to-port="1"/>
		<edge from-layer="3202" from-port="2" to-layer="3204" to-port="0"/>
		<edge from-layer="3203" from-port="0" to-layer="3204" to-port="1"/>
		<edge from-layer="3204" from-port="2" to-layer="3207" to-port="0"/>
		<edge from-layer="3205" from-port="0" to-layer="3207" to-port="1"/>
		<edge from-layer="3206" from-port="0" to-layer="3207" to-port="2"/>
		<edge from-layer="3207" from-port="4" to-layer="3392" to-port="0"/>
		<edge from-layer="3207" from-port="3" to-layer="3416" to-port="0"/>
		<edge from-layer="3207" from-port="4" to-layer="3208" to-port="0"/>
		<edge from-layer="3208" from-port="1" to-layer="3256" to-port="2"/>
		<edge from-layer="3209" from-port="0" to-layer="3221" to-port="1"/>
		<edge from-layer="3210" from-port="0" to-layer="3213" to-port="0"/>
		<edge from-layer="3211" from-port="1" to-layer="3212" to-port="0"/>
		<edge from-layer="3212" from-port="1" to-layer="3213" to-port="1"/>
		<edge from-layer="3213" from-port="2" to-layer="3215" to-port="0"/>
		<edge from-layer="3214" from-port="0" to-layer="3215" to-port="1"/>
		<edge from-layer="3215" from-port="2" to-layer="3219" to-port="0"/>
		<edge from-layer="3216" from-port="0" to-layer="3219" to-port="1"/>
		<edge from-layer="3217" from-port="0" to-layer="3219" to-port="2"/>
		<edge from-layer="3218" from-port="0" to-layer="3219" to-port="3"/>
		<edge from-layer="3219" from-port="4" to-layer="3221" to-port="2"/>
		<edge from-layer="3220" from-port="0" to-layer="3221" to-port="3"/>
		<edge from-layer="3221" from-port="4" to-layer="3222" to-port="1"/>
		<edge from-layer="3222" from-port="2" to-layer="3224" to-port="0"/>
		<edge from-layer="3223" from-port="0" to-layer="3224" to-port="1"/>
		<edge from-layer="3224" from-port="2" to-layer="3226" to-port="0"/>
		<edge from-layer="3225" from-port="0" to-layer="3226" to-port="1"/>
		<edge from-layer="3226" from-port="2" to-layer="3234" to-port="0"/>
		<edge from-layer="3226" from-port="2" to-layer="3245" to-port="0"/>
		<edge from-layer="3226" from-port="2" to-layer="3228" to-port="0"/>
		<edge from-layer="3227" from-port="0" to-layer="3233" to-port="0"/>
		<edge from-layer="3228" from-port="1" to-layer="3229" to-port="0"/>
		<edge from-layer="3229" from-port="1" to-layer="3231" to-port="0"/>
		<edge from-layer="3230" from-port="0" to-layer="3231" to-port="1"/>
		<edge from-layer="3231" from-port="2" to-layer="3233" to-port="1"/>
		<edge from-layer="3232" from-port="0" to-layer="3233" to-port="2"/>
		<edge from-layer="3233" from-port="3" to-layer="3234" to-port="1"/>
		<edge from-layer="3234" from-port="2" to-layer="3236" to-port="0"/>
		<edge from-layer="3235" from-port="0" to-layer="3236" to-port="1"/>
		<edge from-layer="3236" from-port="2" to-layer="3238" to-port="0"/>
		<edge from-layer="3237" from-port="0" to-layer="3238" to-port="1"/>
		<edge from-layer="3238" from-port="2" to-layer="3239" to-port="0"/>
		<edge from-layer="3239" from-port="1" to-layer="3241" to-port="0"/>
		<edge from-layer="3240" from-port="0" to-layer="3241" to-port="1"/>
		<edge from-layer="3241" from-port="2" to-layer="3243" to-port="0"/>
		<edge from-layer="3242" from-port="0" to-layer="3243" to-port="1"/>
		<edge from-layer="3243" from-port="2" to-layer="3244" to-port="0"/>
		<edge from-layer="3244" from-port="1" to-layer="3245" to-port="1"/>
		<edge from-layer="3245" from-port="2" to-layer="3246" to-port="1"/>
		<edge from-layer="3246" from-port="2" to-layer="3248" to-port="0"/>
		<edge from-layer="3247" from-port="0" to-layer="3248" to-port="1"/>
		<edge from-layer="3248" from-port="2" to-layer="3250" to-port="0"/>
		<edge from-layer="3249" from-port="0" to-layer="3250" to-port="1"/>
		<edge from-layer="3250" from-port="2" to-layer="3252" to-port="0"/>
		<edge from-layer="3251" from-port="0" to-layer="3252" to-port="1"/>
		<edge from-layer="3252" from-port="2" to-layer="3255" to-port="0"/>
		<edge from-layer="3253" from-port="0" to-layer="3255" to-port="1"/>
		<edge from-layer="3254" from-port="0" to-layer="3255" to-port="2"/>
		<edge from-layer="3255" from-port="4" to-layer="3256" to-port="3"/>
		<edge from-layer="3255" from-port="4" to-layer="3456" to-port="0"/>
		<edge from-layer="3255" from-port="3" to-layer="3480" to-port="0"/>
		<edge from-layer="3256" from-port="4" to-layer="3258" to-port="0"/>
		<edge from-layer="3257" from-port="0" to-layer="3258" to-port="1"/>
		<edge from-layer="3258" from-port="2" to-layer="3260" to-port="0"/>
		<edge from-layer="3259" from-port="0" to-layer="3260" to-port="1"/>
		<edge from-layer="3260" from-port="2" to-layer="3261" to-port="0"/>
		<edge from-layer="3261" from-port="1" to-layer="3263" to-port="0"/>
		<edge from-layer="3262" from-port="0" to-layer="3263" to-port="1"/>
		<edge from-layer="3263" from-port="2" to-layer="3265" to-port="0"/>
		<edge from-layer="3264" from-port="0" to-layer="3265" to-port="1"/>
		<edge from-layer="3265" from-port="2" to-layer="3266" to-port="0"/>
		<edge from-layer="3266" from-port="1" to-layer="3269" to-port="0"/>
		<edge from-layer="3267" from-port="0" to-layer="3269" to-port="1"/>
		<edge from-layer="3268" from-port="0" to-layer="3269" to-port="2"/>
		<edge from-layer="3269" from-port="4" to-layer="3327" to-port="0"/>
		<edge from-layer="3269" from-port="6" to-layer="3455" to-port="0"/>
		<edge from-layer="3269" from-port="6" to-layer="3445" to-port="0"/>
		<edge from-layer="3269" from-port="5" to-layer="3391" to-port="0"/>
		<edge from-layer="3269" from-port="5" to-layer="3381" to-port="0"/>
		<edge from-layer="3269" from-port="4" to-layer="3317" to-port="0"/>
		<edge from-layer="3269" from-port="3" to-layer="3282" to-port="0"/>
		<edge from-layer="3269" from-port="3" to-layer="3272" to-port="0"/>
		<edge from-layer="3270" from-port="0" to-layer="3282" to-port="1"/>
		<edge from-layer="3271" from-port="0" to-layer="3274" to-port="0"/>
		<edge from-layer="3272" from-port="1" to-layer="3273" to-port="0"/>
		<edge from-layer="3273" from-port="1" to-layer="3274" to-port="1"/>
		<edge from-layer="3274" from-port="2" to-layer="3276" to-port="0"/>
		<edge from-layer="3275" from-port="0" to-layer="3276" to-port="1"/>
		<edge from-layer="3276" from-port="2" to-layer="3280" to-port="0"/>
		<edge from-layer="3277" from-port="0" to-layer="3280" to-port="1"/>
		<edge from-layer="3278" from-port="0" to-layer="3280" to-port="2"/>
		<edge from-layer="3279" from-port="0" to-layer="3280" to-port="3"/>
		<edge from-layer="3280" from-port="4" to-layer="3282" to-port="2"/>
		<edge from-layer="3281" from-port="0" to-layer="3282" to-port="3"/>
		<edge from-layer="3282" from-port="4" to-layer="3283" to-port="1"/>
		<edge from-layer="3283" from-port="2" to-layer="3285" to-port="0"/>
		<edge from-layer="3284" from-port="0" to-layer="3285" to-port="1"/>
		<edge from-layer="3285" from-port="2" to-layer="3287" to-port="0"/>
		<edge from-layer="3286" from-port="0" to-layer="3287" to-port="1"/>
		<edge from-layer="3287" from-port="2" to-layer="3295" to-port="0"/>
		<edge from-layer="3287" from-port="2" to-layer="3306" to-port="0"/>
		<edge from-layer="3287" from-port="2" to-layer="3289" to-port="0"/>
		<edge from-layer="3288" from-port="0" to-layer="3294" to-port="0"/>
		<edge from-layer="3289" from-port="1" to-layer="3290" to-port="0"/>
		<edge from-layer="3290" from-port="1" to-layer="3292" to-port="0"/>
		<edge from-layer="3291" from-port="0" to-layer="3292" to-port="1"/>
		<edge from-layer="3292" from-port="2" to-layer="3294" to-port="1"/>
		<edge from-layer="3293" from-port="0" to-layer="3294" to-port="2"/>
		<edge from-layer="3294" from-port="3" to-layer="3295" to-port="1"/>
		<edge from-layer="3295" from-port="2" to-layer="3297" to-port="0"/>
		<edge from-layer="3296" from-port="0" to-layer="3297" to-port="1"/>
		<edge from-layer="3297" from-port="2" to-layer="3299" to-port="0"/>
		<edge from-layer="3298" from-port="0" to-layer="3299" to-port="1"/>
		<edge from-layer="3299" from-port="2" to-layer="3300" to-port="0"/>
		<edge from-layer="3300" from-port="1" to-layer="3302" to-port="0"/>
		<edge from-layer="3301" from-port="0" to-layer="3302" to-port="1"/>
		<edge from-layer="3302" from-port="2" to-layer="3304" to-port="0"/>
		<edge from-layer="3303" from-port="0" to-layer="3304" to-port="1"/>
		<edge from-layer="3304" from-port="2" to-layer="3305" to-port="0"/>
		<edge from-layer="3305" from-port="1" to-layer="3306" to-port="1"/>
		<edge from-layer="3306" from-port="2" to-layer="3307" to-port="1"/>
		<edge from-layer="3307" from-port="2" to-layer="3309" to-port="0"/>
		<edge from-layer="3308" from-port="0" to-layer="3309" to-port="1"/>
		<edge from-layer="3309" from-port="2" to-layer="3311" to-port="0"/>
		<edge from-layer="3310" from-port="0" to-layer="3311" to-port="1"/>
		<edge from-layer="3311" from-port="2" to-layer="3313" to-port="0"/>
		<edge from-layer="3312" from-port="0" to-layer="3313" to-port="1"/>
		<edge from-layer="3313" from-port="2" to-layer="3314" to-port="1"/>
		<edge from-layer="3313" from-port="2" to-layer="3314" to-port="0"/>
		<edge from-layer="3314" from-port="2" to-layer="3378" to-port="0"/>
		<edge from-layer="3315" from-port="0" to-layer="3327" to-port="1"/>
		<edge from-layer="3316" from-port="0" to-layer="3319" to-port="0"/>
		<edge from-layer="3317" from-port="1" to-layer="3318" to-port="0"/>
		<edge from-layer="3318" from-port="1" to-layer="3319" to-port="1"/>
		<edge from-layer="3319" from-port="2" to-layer="3321" to-port="0"/>
		<edge from-layer="3320" from-port="0" to-layer="3321" to-port="1"/>
		<edge from-layer="3321" from-port="2" to-layer="3325" to-port="0"/>
		<edge from-layer="3322" from-port="0" to-layer="3325" to-port="1"/>
		<edge from-layer="3323" from-port="0" to-layer="3325" to-port="2"/>
		<edge from-layer="3324" from-port="0" to-layer="3325" to-port="3"/>
		<edge from-layer="3325" from-port="4" to-layer="3327" to-port="2"/>
		<edge from-layer="3326" from-port="0" to-layer="3327" to-port="3"/>
		<edge from-layer="3327" from-port="4" to-layer="3328" to-port="1"/>
		<edge from-layer="3328" from-port="2" to-layer="3330" to-port="0"/>
		<edge from-layer="3329" from-port="0" to-layer="3330" to-port="1"/>
		<edge from-layer="3330" from-port="2" to-layer="3332" to-port="0"/>
		<edge from-layer="3331" from-port="0" to-layer="3332" to-port="1"/>
		<edge from-layer="3332" from-port="2" to-layer="3340" to-port="0"/>
		<edge from-layer="3332" from-port="2" to-layer="3334" to-port="0"/>
		<edge from-layer="3332" from-port="2" to-layer="3351" to-port="0"/>
		<edge from-layer="3333" from-port="0" to-layer="3339" to-port="0"/>
		<edge from-layer="3334" from-port="1" to-layer="3335" to-port="0"/>
		<edge from-layer="3335" from-port="1" to-layer="3337" to-port="0"/>
		<edge from-layer="3336" from-port="0" to-layer="3337" to-port="1"/>
		<edge from-layer="3337" from-port="2" to-layer="3339" to-port="1"/>
		<edge from-layer="3338" from-port="0" to-layer="3339" to-port="2"/>
		<edge from-layer="3339" from-port="3" to-layer="3340" to-port="1"/>
		<edge from-layer="3340" from-port="2" to-layer="3342" to-port="0"/>
		<edge from-layer="3341" from-port="0" to-layer="3342" to-port="1"/>
		<edge from-layer="3342" from-port="2" to-layer="3344" to-port="0"/>
		<edge from-layer="3343" from-port="0" to-layer="3344" to-port="1"/>
		<edge from-layer="3344" from-port="2" to-layer="3345" to-port="0"/>
		<edge from-layer="3345" from-port="1" to-layer="3347" to-port="0"/>
		<edge from-layer="3346" from-port="0" to-layer="3347" to-port="1"/>
		<edge from-layer="3347" from-port="2" to-layer="3349" to-port="0"/>
		<edge from-layer="3348" from-port="0" to-layer="3349" to-port="1"/>
		<edge from-layer="3349" from-port="2" to-layer="3350" to-port="0"/>
		<edge from-layer="3350" from-port="1" to-layer="3351" to-port="1"/>
		<edge from-layer="3351" from-port="2" to-layer="3352" to-port="1"/>
		<edge from-layer="3352" from-port="2" to-layer="3354" to-port="0"/>
		<edge from-layer="3353" from-port="0" to-layer="3354" to-port="1"/>
		<edge from-layer="3354" from-port="2" to-layer="3356" to-port="0"/>
		<edge from-layer="3355" from-port="0" to-layer="3356" to-port="1"/>
		<edge from-layer="3356" from-port="2" to-layer="3358" to-port="0"/>
		<edge from-layer="3357" from-port="0" to-layer="3358" to-port="1"/>
		<edge from-layer="3358" from-port="2" to-layer="3360" to-port="0"/>
		<edge from-layer="3358" from-port="2" to-layer="3687" to-port="0"/>
		<edge from-layer="3358" from-port="2" to-layer="3603" to-port="0"/>
		<edge from-layer="3358" from-port="2" to-layer="3525" to-port="1"/>
		<edge from-layer="3359" from-port="0" to-layer="3360" to-port="1"/>
		<edge from-layer="3360" from-port="2" to-layer="3362" to-port="0"/>
		<edge from-layer="3361" from-port="0" to-layer="3362" to-port="1"/>
		<edge from-layer="3362" from-port="2" to-layer="3377" to-port="0"/>
		<edge from-layer="3362" from-port="2" to-layer="3363" to-port="0"/>
		<edge from-layer="3363" from-port="1" to-layer="3364" to-port="0"/>
		<edge from-layer="3364" from-port="1" to-layer="3366" to-port="0"/>
		<edge from-layer="3365" from-port="0" to-layer="3366" to-port="1"/>
		<edge from-layer="3366" from-port="2" to-layer="3368" to-port="0"/>
		<edge from-layer="3367" from-port="0" to-layer="3368" to-port="1"/>
		<edge from-layer="3368" from-port="2" to-layer="3369" to-port="0"/>
		<edge from-layer="3369" from-port="1" to-layer="3370" to-port="0"/>
		<edge from-layer="3370" from-port="1" to-layer="3374" to-port="0"/>
		<edge from-layer="3371" from-port="0" to-layer="3374" to-port="1"/>
		<edge from-layer="3372" from-port="0" to-layer="3374" to-port="2"/>
		<edge from-layer="3373" from-port="0" to-layer="3374" to-port="3"/>
		<edge from-layer="3374" from-port="4" to-layer="3377" to-port="1"/>
		<edge from-layer="3375" from-port="0" to-layer="3377" to-port="2"/>
		<edge from-layer="3376" from-port="0" to-layer="3377" to-port="3"/>
		<edge from-layer="3377" from-port="4" to-layer="3378" to-port="1"/>
		<edge from-layer="3378" from-port="2" to-layer="3442" to-port="0"/>
		<edge from-layer="3379" from-port="0" to-layer="3391" to-port="1"/>
		<edge from-layer="3380" from-port="0" to-layer="3383" to-port="0"/>
		<edge from-layer="3381" from-port="1" to-layer="3382" to-port="0"/>
		<edge from-layer="3382" from-port="1" to-layer="3383" to-port="1"/>
		<edge from-layer="3383" from-port="2" to-layer="3385" to-port="0"/>
		<edge from-layer="3384" from-port="0" to-layer="3385" to-port="1"/>
		<edge from-layer="3385" from-port="2" to-layer="3389" to-port="0"/>
		<edge from-layer="3386" from-port="0" to-layer="3389" to-port="1"/>
		<edge from-layer="3387" from-port="0" to-layer="3389" to-port="2"/>
		<edge from-layer="3388" from-port="0" to-layer="3389" to-port="3"/>
		<edge from-layer="3389" from-port="4" to-layer="3391" to-port="2"/>
		<edge from-layer="3390" from-port="0" to-layer="3391" to-port="3"/>
		<edge from-layer="3391" from-port="4" to-layer="3392" to-port="1"/>
		<edge from-layer="3392" from-port="2" to-layer="3394" to-port="0"/>
		<edge from-layer="3393" from-port="0" to-layer="3394" to-port="1"/>
		<edge from-layer="3394" from-port="2" to-layer="3396" to-port="0"/>
		<edge from-layer="3395" from-port="0" to-layer="3396" to-port="1"/>
		<edge from-layer="3396" from-port="2" to-layer="3415" to-port="0"/>
		<edge from-layer="3396" from-port="2" to-layer="3404" to-port="0"/>
		<edge from-layer="3396" from-port="2" to-layer="3398" to-port="0"/>
		<edge from-layer="3397" from-port="0" to-layer="3403" to-port="0"/>
		<edge from-layer="3398" from-port="1" to-layer="3399" to-port="0"/>
		<edge from-layer="3399" from-port="1" to-layer="3401" to-port="0"/>
		<edge from-layer="3400" from-port="0" to-layer="3401" to-port="1"/>
		<edge from-layer="3401" from-port="2" to-layer="3403" to-port="1"/>
		<edge from-layer="3402" from-port="0" to-layer="3403" to-port="2"/>
		<edge from-layer="3403" from-port="3" to-layer="3404" to-port="1"/>
		<edge from-layer="3404" from-port="2" to-layer="3406" to-port="0"/>
		<edge from-layer="3405" from-port="0" to-layer="3406" to-port="1"/>
		<edge from-layer="3406" from-port="2" to-layer="3408" to-port="0"/>
		<edge from-layer="3407" from-port="0" to-layer="3408" to-port="1"/>
		<edge from-layer="3408" from-port="2" to-layer="3409" to-port="0"/>
		<edge from-layer="3409" from-port="1" to-layer="3411" to-port="0"/>
		<edge from-layer="3410" from-port="0" to-layer="3411" to-port="1"/>
		<edge from-layer="3411" from-port="2" to-layer="3413" to-port="0"/>
		<edge from-layer="3412" from-port="0" to-layer="3413" to-port="1"/>
		<edge from-layer="3413" from-port="2" to-layer="3414" to-port="0"/>
		<edge from-layer="3414" from-port="1" to-layer="3415" to-port="1"/>
		<edge from-layer="3415" from-port="2" to-layer="3416" to-port="1"/>
		<edge from-layer="3416" from-port="2" to-layer="3418" to-port="0"/>
		<edge from-layer="3417" from-port="0" to-layer="3418" to-port="1"/>
		<edge from-layer="3418" from-port="2" to-layer="3420" to-port="0"/>
		<edge from-layer="3419" from-port="0" to-layer="3420" to-port="1"/>
		<edge from-layer="3420" from-port="2" to-layer="3422" to-port="0"/>
		<edge from-layer="3421" from-port="0" to-layer="3422" to-port="1"/>
		<edge from-layer="3422" from-port="2" to-layer="3424" to-port="0"/>
		<edge from-layer="3422" from-port="2" to-layer="3705" to-port="0"/>
		<edge from-layer="3422" from-port="2" to-layer="3611" to-port="1"/>
		<edge from-layer="3422" from-port="2" to-layer="3527" to-port="0"/>
		<edge from-layer="3423" from-port="0" to-layer="3424" to-port="1"/>
		<edge from-layer="3424" from-port="2" to-layer="3426" to-port="0"/>
		<edge from-layer="3425" from-port="0" to-layer="3426" to-port="1"/>
		<edge from-layer="3426" from-port="2" to-layer="3441" to-port="0"/>
		<edge from-layer="3426" from-port="2" to-layer="3427" to-port="0"/>
		<edge from-layer="3427" from-port="1" to-layer="3428" to-port="0"/>
		<edge from-layer="3428" from-port="1" to-layer="3430" to-port="0"/>
		<edge from-layer="3429" from-port="0" to-layer="3430" to-port="1"/>
		<edge from-layer="3430" from-port="2" to-layer="3432" to-port="0"/>
		<edge from-layer="3431" from-port="0" to-layer="3432" to-port="1"/>
		<edge from-layer="3432" from-port="2" to-layer="3433" to-port="0"/>
		<edge from-layer="3433" from-port="1" to-layer="3434" to-port="0"/>
		<edge from-layer="3434" from-port="1" to-layer="3438" to-port="0"/>
		<edge from-layer="3435" from-port="0" to-layer="3438" to-port="1"/>
		<edge from-layer="3436" from-port="0" to-layer="3438" to-port="2"/>
		<edge from-layer="3437" from-port="0" to-layer="3438" to-port="3"/>
		<edge from-layer="3438" from-port="4" to-layer="3441" to-port="1"/>
		<edge from-layer="3439" from-port="0" to-layer="3441" to-port="2"/>
		<edge from-layer="3440" from-port="0" to-layer="3441" to-port="3"/>
		<edge from-layer="3441" from-port="4" to-layer="3442" to-port="1"/>
		<edge from-layer="3442" from-port="2" to-layer="3506" to-port="0"/>
		<edge from-layer="3443" from-port="0" to-layer="3455" to-port="1"/>
		<edge from-layer="3444" from-port="0" to-layer="3447" to-port="0"/>
		<edge from-layer="3445" from-port="1" to-layer="3446" to-port="0"/>
		<edge from-layer="3446" from-port="1" to-layer="3447" to-port="1"/>
		<edge from-layer="3447" from-port="2" to-layer="3449" to-port="0"/>
		<edge from-layer="3448" from-port="0" to-layer="3449" to-port="1"/>
		<edge from-layer="3449" from-port="2" to-layer="3453" to-port="0"/>
		<edge from-layer="3450" from-port="0" to-layer="3453" to-port="1"/>
		<edge from-layer="3451" from-port="0" to-layer="3453" to-port="2"/>
		<edge from-layer="3452" from-port="0" to-layer="3453" to-port="3"/>
		<edge from-layer="3453" from-port="4" to-layer="3455" to-port="2"/>
		<edge from-layer="3454" from-port="0" to-layer="3455" to-port="3"/>
		<edge from-layer="3455" from-port="4" to-layer="3456" to-port="1"/>
		<edge from-layer="3456" from-port="2" to-layer="3458" to-port="0"/>
		<edge from-layer="3457" from-port="0" to-layer="3458" to-port="1"/>
		<edge from-layer="3458" from-port="2" to-layer="3460" to-port="0"/>
		<edge from-layer="3459" from-port="0" to-layer="3460" to-port="1"/>
		<edge from-layer="3460" from-port="2" to-layer="3468" to-port="0"/>
		<edge from-layer="3460" from-port="2" to-layer="3462" to-port="0"/>
		<edge from-layer="3460" from-port="2" to-layer="3479" to-port="0"/>
		<edge from-layer="3461" from-port="0" to-layer="3467" to-port="0"/>
		<edge from-layer="3462" from-port="1" to-layer="3463" to-port="0"/>
		<edge from-layer="3463" from-port="1" to-layer="3465" to-port="0"/>
		<edge from-layer="3464" from-port="0" to-layer="3465" to-port="1"/>
		<edge from-layer="3465" from-port="2" to-layer="3467" to-port="1"/>
		<edge from-layer="3466" from-port="0" to-layer="3467" to-port="2"/>
		<edge from-layer="3467" from-port="3" to-layer="3468" to-port="1"/>
		<edge from-layer="3468" from-port="2" to-layer="3470" to-port="0"/>
		<edge from-layer="3469" from-port="0" to-layer="3470" to-port="1"/>
		<edge from-layer="3470" from-port="2" to-layer="3472" to-port="0"/>
		<edge from-layer="3471" from-port="0" to-layer="3472" to-port="1"/>
		<edge from-layer="3472" from-port="2" to-layer="3473" to-port="0"/>
		<edge from-layer="3473" from-port="1" to-layer="3475" to-port="0"/>
		<edge from-layer="3474" from-port="0" to-layer="3475" to-port="1"/>
		<edge from-layer="3475" from-port="2" to-layer="3477" to-port="0"/>
		<edge from-layer="3476" from-port="0" to-layer="3477" to-port="1"/>
		<edge from-layer="3477" from-port="2" to-layer="3478" to-port="0"/>
		<edge from-layer="3478" from-port="1" to-layer="3479" to-port="1"/>
		<edge from-layer="3479" from-port="2" to-layer="3480" to-port="1"/>
		<edge from-layer="3480" from-port="2" to-layer="3482" to-port="0"/>
		<edge from-layer="3481" from-port="0" to-layer="3482" to-port="1"/>
		<edge from-layer="3482" from-port="2" to-layer="3484" to-port="0"/>
		<edge from-layer="3483" from-port="0" to-layer="3484" to-port="1"/>
		<edge from-layer="3484" from-port="2" to-layer="3486" to-port="0"/>
		<edge from-layer="3485" from-port="0" to-layer="3486" to-port="1"/>
		<edge from-layer="3486" from-port="2" to-layer="3547" to-port="0"/>
		<edge from-layer="3486" from-port="2" to-layer="3613" to-port="0"/>
		<edge from-layer="3486" from-port="2" to-layer="3488" to-port="0"/>
		<edge from-layer="3486" from-port="2" to-layer="3713" to-port="1"/>
		<edge from-layer="3487" from-port="0" to-layer="3488" to-port="1"/>
		<edge from-layer="3488" from-port="2" to-layer="3490" to-port="0"/>
		<edge from-layer="3489" from-port="0" to-layer="3490" to-port="1"/>
		<edge from-layer="3490" from-port="2" to-layer="3505" to-port="0"/>
		<edge from-layer="3490" from-port="2" to-layer="3491" to-port="0"/>
		<edge from-layer="3491" from-port="1" to-layer="3492" to-port="0"/>
		<edge from-layer="3492" from-port="1" to-layer="3494" to-port="0"/>
		<edge from-layer="3493" from-port="0" to-layer="3494" to-port="1"/>
		<edge from-layer="3494" from-port="2" to-layer="3496" to-port="0"/>
		<edge from-layer="3495" from-port="0" to-layer="3496" to-port="1"/>
		<edge from-layer="3496" from-port="2" to-layer="3497" to-port="0"/>
		<edge from-layer="3497" from-port="1" to-layer="3498" to-port="0"/>
		<edge from-layer="3498" from-port="1" to-layer="3502" to-port="0"/>
		<edge from-layer="3499" from-port="0" to-layer="3502" to-port="1"/>
		<edge from-layer="3500" from-port="0" to-layer="3502" to-port="2"/>
		<edge from-layer="3501" from-port="0" to-layer="3502" to-port="3"/>
		<edge from-layer="3502" from-port="4" to-layer="3505" to-port="1"/>
		<edge from-layer="3503" from-port="0" to-layer="3505" to-port="2"/>
		<edge from-layer="3504" from-port="0" to-layer="3505" to-port="3"/>
		<edge from-layer="3505" from-port="4" to-layer="3506" to-port="1"/>
		<edge from-layer="3506" from-port="2" to-layer="3634" to-port="0"/>
		<edge from-layer="3506" from-port="2" to-layer="3585" to-port="0"/>
		<edge from-layer="3506" from-port="2" to-layer="3568" to-port="0"/>
		<edge from-layer="3506" from-port="2" to-layer="3660" to-port="0"/>
		<edge from-layer="3506" from-port="2" to-layer="3507" to-port="0"/>
		<edge from-layer="3506" from-port="2" to-layer="3509" to-port="0"/>
		<edge from-layer="3506" from-port="2" to-layer="3517" to-port="0"/>
		<edge from-layer="3507" from-port="1" to-layer="3783" to-port="0"/>
		<edge from-layer="3508" from-port="0" to-layer="3509" to-port="1"/>
		<edge from-layer="3509" from-port="2" to-layer="3511" to-port="0"/>
		<edge from-layer="3510" from-port="0" to-layer="3511" to-port="1"/>
		<edge from-layer="3511" from-port="2" to-layer="3513" to-port="0"/>
		<edge from-layer="3512" from-port="0" to-layer="3513" to-port="1"/>
		<edge from-layer="3513" from-port="2" to-layer="3515" to-port="0"/>
		<edge from-layer="3514" from-port="0" to-layer="3515" to-port="1"/>
		<edge from-layer="3515" from-port="2" to-layer="3524" to-port="0"/>
		<edge from-layer="3516" from-port="0" to-layer="3517" to-port="1"/>
		<edge from-layer="3517" from-port="2" to-layer="3519" to-port="0"/>
		<edge from-layer="3518" from-port="0" to-layer="3519" to-port="1"/>
		<edge from-layer="3519" from-port="2" to-layer="3521" to-port="0"/>
		<edge from-layer="3520" from-port="0" to-layer="3521" to-port="1"/>
		<edge from-layer="3521" from-port="2" to-layer="3523" to-port="0"/>
		<edge from-layer="3522" from-port="0" to-layer="3523" to-port="1"/>
		<edge from-layer="3523" from-port="2" to-layer="3524" to-port="1"/>
		<edge from-layer="3524" from-port="2" to-layer="3525" to-port="0"/>
		<edge from-layer="3525" from-port="2" to-layer="3545" to-port="0"/>
		<edge from-layer="3526" from-port="0" to-layer="3527" to-port="1"/>
		<edge from-layer="3527" from-port="2" to-layer="3529" to-port="0"/>
		<edge from-layer="3528" from-port="0" to-layer="3529" to-port="1"/>
		<edge from-layer="3529" from-port="2" to-layer="3530" to-port="0"/>
		<edge from-layer="3529" from-port="2" to-layer="3544" to-port="0"/>
		<edge from-layer="3530" from-port="1" to-layer="3531" to-port="0"/>
		<edge from-layer="3531" from-port="1" to-layer="3533" to-port="0"/>
		<edge from-layer="3532" from-port="0" to-layer="3533" to-port="1"/>
		<edge from-layer="3533" from-port="2" to-layer="3535" to-port="0"/>
		<edge from-layer="3534" from-port="0" to-layer="3535" to-port="1"/>
		<edge from-layer="3535" from-port="2" to-layer="3536" to-port="0"/>
		<edge from-layer="3536" from-port="1" to-layer="3537" to-port="0"/>
		<edge from-layer="3537" from-port="1" to-layer="3541" to-port="0"/>
		<edge from-layer="3538" from-port="0" to-layer="3541" to-port="1"/>
		<edge from-layer="3539" from-port="0" to-layer="3541" to-port="2"/>
		<edge from-layer="3540" from-port="0" to-layer="3541" to-port="3"/>
		<edge from-layer="3541" from-port="4" to-layer="3544" to-port="1"/>
		<edge from-layer="3542" from-port="0" to-layer="3544" to-port="2"/>
		<edge from-layer="3543" from-port="0" to-layer="3544" to-port="3"/>
		<edge from-layer="3544" from-port="4" to-layer="3545" to-port="1"/>
		<edge from-layer="3545" from-port="2" to-layer="3565" to-port="0"/>
		<edge from-layer="3546" from-port="0" to-layer="3547" to-port="1"/>
		<edge from-layer="3547" from-port="2" to-layer="3549" to-port="0"/>
		<edge from-layer="3548" from-port="0" to-layer="3549" to-port="1"/>
		<edge from-layer="3549" from-port="2" to-layer="3564" to-port="0"/>
		<edge from-layer="3549" from-port="2" to-layer="3550" to-port="0"/>
		<edge from-layer="3550" from-port="1" to-layer="3551" to-port="0"/>
		<edge from-layer="3551" from-port="1" to-layer="3553" to-port="0"/>
		<edge from-layer="3552" from-port="0" to-layer="3553" to-port="1"/>
		<edge from-layer="3553" from-port="2" to-layer="3555" to-port="0"/>
		<edge from-layer="3554" from-port="0" to-layer="3555" to-port="1"/>
		<edge from-layer="3555" from-port="2" to-layer="3556" to-port="0"/>
		<edge from-layer="3556" from-port="1" to-layer="3557" to-port="0"/>
		<edge from-layer="3557" from-port="1" to-layer="3561" to-port="0"/>
		<edge from-layer="3558" from-port="0" to-layer="3561" to-port="1"/>
		<edge from-layer="3559" from-port="0" to-layer="3561" to-port="2"/>
		<edge from-layer="3560" from-port="0" to-layer="3561" to-port="3"/>
		<edge from-layer="3561" from-port="4" to-layer="3564" to-port="1"/>
		<edge from-layer="3562" from-port="0" to-layer="3564" to-port="2"/>
		<edge from-layer="3563" from-port="0" to-layer="3564" to-port="3"/>
		<edge from-layer="3564" from-port="4" to-layer="3565" to-port="1"/>
		<edge from-layer="3565" from-port="2" to-layer="3566" to-port="0"/>
		<edge from-layer="3566" from-port="1" to-layer="3760" to-port="0"/>
		<edge from-layer="3567" from-port="0" to-layer="3568" to-port="1"/>
		<edge from-layer="3568" from-port="2" to-layer="3570" to-port="0"/>
		<edge from-layer="3569" from-port="0" to-layer="3570" to-port="1"/>
		<edge from-layer="3570" from-port="2" to-layer="3572" to-port="0"/>
		<edge from-layer="3571" from-port="0" to-layer="3572" to-port="1"/>
		<edge from-layer="3572" from-port="2" to-layer="3574" to-port="0"/>
		<edge from-layer="3573" from-port="0" to-layer="3574" to-port="1"/>
		<edge from-layer="3574" from-port="2" to-layer="3575" to-port="0"/>
		<edge from-layer="3575" from-port="1" to-layer="3577" to-port="0"/>
		<edge from-layer="3576" from-port="0" to-layer="3577" to-port="1"/>
		<edge from-layer="3577" from-port="2" to-layer="3579" to-port="0"/>
		<edge from-layer="3578" from-port="0" to-layer="3579" to-port="1"/>
		<edge from-layer="3579" from-port="2" to-layer="3581" to-port="0"/>
		<edge from-layer="3580" from-port="0" to-layer="3581" to-port="1"/>
		<edge from-layer="3581" from-port="2" to-layer="3583" to-port="0"/>
		<edge from-layer="3582" from-port="0" to-layer="3583" to-port="1"/>
		<edge from-layer="3583" from-port="2" to-layer="3601" to-port="0"/>
		<edge from-layer="3584" from-port="0" to-layer="3585" to-port="1"/>
		<edge from-layer="3585" from-port="2" to-layer="3587" to-port="0"/>
		<edge from-layer="3586" from-port="0" to-layer="3587" to-port="1"/>
		<edge from-layer="3587" from-port="2" to-layer="3589" to-port="0"/>
		<edge from-layer="3588" from-port="0" to-layer="3589" to-port="1"/>
		<edge from-layer="3589" from-port="2" to-layer="3591" to-port="0"/>
		<edge from-layer="3590" from-port="0" to-layer="3591" to-port="1"/>
		<edge from-layer="3591" from-port="2" to-layer="3592" to-port="0"/>
		<edge from-layer="3592" from-port="1" to-layer="3594" to-port="0"/>
		<edge from-layer="3593" from-port="0" to-layer="3594" to-port="1"/>
		<edge from-layer="3594" from-port="2" to-layer="3596" to-port="0"/>
		<edge from-layer="3595" from-port="0" to-layer="3596" to-port="1"/>
		<edge from-layer="3596" from-port="2" to-layer="3598" to-port="0"/>
		<edge from-layer="3597" from-port="0" to-layer="3598" to-port="1"/>
		<edge from-layer="3598" from-port="2" to-layer="3600" to-port="0"/>
		<edge from-layer="3599" from-port="0" to-layer="3600" to-port="1"/>
		<edge from-layer="3600" from-port="2" to-layer="3601" to-port="1"/>
		<edge from-layer="3601" from-port="2" to-layer="3610" to-port="0"/>
		<edge from-layer="3602" from-port="0" to-layer="3603" to-port="1"/>
		<edge from-layer="3603" from-port="2" to-layer="3605" to-port="0"/>
		<edge from-layer="3604" from-port="0" to-layer="3605" to-port="1"/>
		<edge from-layer="3605" from-port="2" to-layer="3607" to-port="0"/>
		<edge from-layer="3606" from-port="0" to-layer="3607" to-port="1"/>
		<edge from-layer="3607" from-port="2" to-layer="3609" to-port="0"/>
		<edge from-layer="3608" from-port="0" to-layer="3609" to-port="1"/>
		<edge from-layer="3609" from-port="2" to-layer="3610" to-port="1"/>
		<edge from-layer="3610" from-port="2" to-layer="3611" to-port="0"/>
		<edge from-layer="3611" from-port="2" to-layer="3631" to-port="0"/>
		<edge from-layer="3612" from-port="0" to-layer="3613" to-port="1"/>
		<edge from-layer="3613" from-port="2" to-layer="3615" to-port="0"/>
		<edge from-layer="3614" from-port="0" to-layer="3615" to-port="1"/>
		<edge from-layer="3615" from-port="2" to-layer="3630" to-port="0"/>
		<edge from-layer="3615" from-port="2" to-layer="3616" to-port="0"/>
		<edge from-layer="3616" from-port="1" to-layer="3617" to-port="0"/>
		<edge from-layer="3617" from-port="1" to-layer="3619" to-port="0"/>
		<edge from-layer="3618" from-port="0" to-layer="3619" to-port="1"/>
		<edge from-layer="3619" from-port="2" to-layer="3621" to-port="0"/>
		<edge from-layer="3620" from-port="0" to-layer="3621" to-port="1"/>
		<edge from-layer="3621" from-port="2" to-layer="3622" to-port="0"/>
		<edge from-layer="3622" from-port="1" to-layer="3623" to-port="0"/>
		<edge from-layer="3623" from-port="1" to-layer="3627" to-port="0"/>
		<edge from-layer="3624" from-port="0" to-layer="3627" to-port="1"/>
		<edge from-layer="3625" from-port="0" to-layer="3627" to-port="2"/>
		<edge from-layer="3626" from-port="0" to-layer="3627" to-port="3"/>
		<edge from-layer="3627" from-port="4" to-layer="3630" to-port="1"/>
		<edge from-layer="3628" from-port="0" to-layer="3630" to-port="2"/>
		<edge from-layer="3629" from-port="0" to-layer="3630" to-port="3"/>
		<edge from-layer="3630" from-port="4" to-layer="3631" to-port="1"/>
		<edge from-layer="3631" from-port="2" to-layer="3632" to-port="0"/>
		<edge from-layer="3632" from-port="1" to-layer="3737" to-port="0"/>
		<edge from-layer="3633" from-port="0" to-layer="3634" to-port="1"/>
		<edge from-layer="3634" from-port="2" to-layer="3636" to-port="0"/>
		<edge from-layer="3635" from-port="0" to-layer="3636" to-port="1"/>
		<edge from-layer="3636" from-port="2" to-layer="3638" to-port="0"/>
		<edge from-layer="3637" from-port="0" to-layer="3638" to-port="1"/>
		<edge from-layer="3638" from-port="2" to-layer="3640" to-port="0"/>
		<edge from-layer="3639" from-port="0" to-layer="3640" to-port="1"/>
		<edge from-layer="3640" from-port="2" to-layer="3641" to-port="0"/>
		<edge from-layer="3641" from-port="1" to-layer="3643" to-port="0"/>
		<edge from-layer="3642" from-port="0" to-layer="3643" to-port="1"/>
		<edge from-layer="3643" from-port="2" to-layer="3645" to-port="0"/>
		<edge from-layer="3644" from-port="0" to-layer="3645" to-port="1"/>
		<edge from-layer="3645" from-port="2" to-layer="3647" to-port="0"/>
		<edge from-layer="3646" from-port="0" to-layer="3647" to-port="1"/>
		<edge from-layer="3647" from-port="2" to-layer="3649" to-port="0"/>
		<edge from-layer="3648" from-port="0" to-layer="3649" to-port="1"/>
		<edge from-layer="3649" from-port="2" to-layer="3650" to-port="0"/>
		<edge from-layer="3650" from-port="1" to-layer="3652" to-port="0"/>
		<edge from-layer="3651" from-port="0" to-layer="3652" to-port="1"/>
		<edge from-layer="3652" from-port="2" to-layer="3654" to-port="0"/>
		<edge from-layer="3653" from-port="0" to-layer="3654" to-port="1"/>
		<edge from-layer="3654" from-port="2" to-layer="3656" to-port="0"/>
		<edge from-layer="3655" from-port="0" to-layer="3656" to-port="1"/>
		<edge from-layer="3656" from-port="2" to-layer="3658" to-port="0"/>
		<edge from-layer="3657" from-port="0" to-layer="3658" to-port="1"/>
		<edge from-layer="3658" from-port="2" to-layer="3685" to-port="0"/>
		<edge from-layer="3659" from-port="0" to-layer="3660" to-port="1"/>
		<edge from-layer="3660" from-port="2" to-layer="3662" to-port="0"/>
		<edge from-layer="3661" from-port="0" to-layer="3662" to-port="1"/>
		<edge from-layer="3662" from-port="2" to-layer="3664" to-port="0"/>
		<edge from-layer="3663" from-port="0" to-layer="3664" to-port="1"/>
		<edge from-layer="3664" from-port="2" to-layer="3666" to-port="0"/>
		<edge from-layer="3665" from-port="0" to-layer="3666" to-port="1"/>
		<edge from-layer="3666" from-port="2" to-layer="3667" to-port="0"/>
		<edge from-layer="3667" from-port="1" to-layer="3669" to-port="0"/>
		<edge from-layer="3668" from-port="0" to-layer="3669" to-port="1"/>
		<edge from-layer="3669" from-port="2" to-layer="3671" to-port="0"/>
		<edge from-layer="3670" from-port="0" to-layer="3671" to-port="1"/>
		<edge from-layer="3671" from-port="2" to-layer="3673" to-port="0"/>
		<edge from-layer="3672" from-port="0" to-layer="3673" to-port="1"/>
		<edge from-layer="3673" from-port="2" to-layer="3675" to-port="0"/>
		<edge from-layer="3674" from-port="0" to-layer="3675" to-port="1"/>
		<edge from-layer="3675" from-port="2" to-layer="3676" to-port="0"/>
		<edge from-layer="3676" from-port="1" to-layer="3678" to-port="0"/>
		<edge from-layer="3677" from-port="0" to-layer="3678" to-port="1"/>
		<edge from-layer="3678" from-port="2" to-layer="3680" to-port="0"/>
		<edge from-layer="3679" from-port="0" to-layer="3680" to-port="1"/>
		<edge from-layer="3680" from-port="2" to-layer="3682" to-port="0"/>
		<edge from-layer="3681" from-port="0" to-layer="3682" to-port="1"/>
		<edge from-layer="3682" from-port="2" to-layer="3684" to-port="0"/>
		<edge from-layer="3683" from-port="0" to-layer="3684" to-port="1"/>
		<edge from-layer="3684" from-port="2" to-layer="3685" to-port="1"/>
		<edge from-layer="3685" from-port="2" to-layer="3703" to-port="0"/>
		<edge from-layer="3686" from-port="0" to-layer="3687" to-port="1"/>
		<edge from-layer="3687" from-port="2" to-layer="3689" to-port="0"/>
		<edge from-layer="3688" from-port="0" to-layer="3689" to-port="1"/>
		<edge from-layer="3689" from-port="2" to-layer="3691" to-port="0"/>
		<edge from-layer="3690" from-port="0" to-layer="3691" to-port="1"/>
		<edge from-layer="3691" from-port="2" to-layer="3693" to-port="0"/>
		<edge from-layer="3692" from-port="0" to-layer="3693" to-port="1"/>
		<edge from-layer="3693" from-port="2" to-layer="3694" to-port="0"/>
		<edge from-layer="3694" from-port="1" to-layer="3696" to-port="0"/>
		<edge from-layer="3695" from-port="0" to-layer="3696" to-port="1"/>
		<edge from-layer="3696" from-port="2" to-layer="3698" to-port="0"/>
		<edge from-layer="3697" from-port="0" to-layer="3698" to-port="1"/>
		<edge from-layer="3698" from-port="2" to-layer="3700" to-port="0"/>
		<edge from-layer="3699" from-port="0" to-layer="3700" to-port="1"/>
		<edge from-layer="3700" from-port="2" to-layer="3702" to-port="0"/>
		<edge from-layer="3701" from-port="0" to-layer="3702" to-port="1"/>
		<edge from-layer="3702" from-port="2" to-layer="3703" to-port="1"/>
		<edge from-layer="3703" from-port="2" to-layer="3712" to-port="0"/>
		<edge from-layer="3704" from-port="0" to-layer="3705" to-port="1"/>
		<edge from-layer="3705" from-port="2" to-layer="3707" to-port="0"/>
		<edge from-layer="3706" from-port="0" to-layer="3707" to-port="1"/>
		<edge from-layer="3707" from-port="2" to-layer="3709" to-port="0"/>
		<edge from-layer="3708" from-port="0" to-layer="3709" to-port="1"/>
		<edge from-layer="3709" from-port="2" to-layer="3711" to-port="0"/>
		<edge from-layer="3710" from-port="0" to-layer="3711" to-port="1"/>
		<edge from-layer="3711" from-port="2" to-layer="3712" to-port="1"/>
		<edge from-layer="3712" from-port="2" to-layer="3713" to-port="0"/>
		<edge from-layer="3713" from-port="2" to-layer="3714" to-port="0"/>
		<edge from-layer="3714" from-port="1" to-layer="3716" to-port="0"/>
		<edge from-layer="3715" from-port="0" to-layer="3716" to-port="1"/>
		<edge from-layer="3716" from-port="2" to-layer="3718" to-port="0"/>
		<edge from-layer="3717" from-port="0" to-layer="3718" to-port="1"/>
		<edge from-layer="3718" from-port="2" to-layer="3720" to-port="0"/>
		<edge from-layer="3719" from-port="0" to-layer="3720" to-port="1"/>
		<edge from-layer="3720" from-port="2" to-layer="3722" to-port="0"/>
		<edge from-layer="3721" from-port="0" to-layer="3722" to-port="1"/>
		<edge from-layer="3722" from-port="2" to-layer="3723" to-port="0"/>
		<edge from-layer="3723" from-port="1" to-layer="3726" to-port="0"/>
		<edge from-layer="3723" from-port="1" to-layer="3736" to-port="0"/>
		<edge from-layer="3724" from-port="0" to-layer="3736" to-port="1"/>
		<edge from-layer="3725" from-port="0" to-layer="3728" to-port="0"/>
		<edge from-layer="3726" from-port="1" to-layer="3727" to-port="0"/>
		<edge from-layer="3727" from-port="1" to-layer="3728" to-port="1"/>
		<edge from-layer="3728" from-port="2" to-layer="3730" to-port="0"/>
		<edge from-layer="3729" from-port="0" to-layer="3730" to-port="1"/>
		<edge from-layer="3730" from-port="2" to-layer="3734" to-port="0"/>
		<edge from-layer="3731" from-port="0" to-layer="3734" to-port="1"/>
		<edge from-layer="3732" from-port="0" to-layer="3734" to-port="2"/>
		<edge from-layer="3733" from-port="0" to-layer="3734" to-port="3"/>
		<edge from-layer="3734" from-port="4" to-layer="3736" to-port="2"/>
		<edge from-layer="3735" from-port="0" to-layer="3736" to-port="3"/>
		<edge from-layer="3736" from-port="4" to-layer="3737" to-port="1"/>
		<edge from-layer="3737" from-port="2" to-layer="3739" to-port="0"/>
		<edge from-layer="3738" from-port="0" to-layer="3739" to-port="1"/>
		<edge from-layer="3739" from-port="2" to-layer="3741" to-port="0"/>
		<edge from-layer="3740" from-port="0" to-layer="3741" to-port="1"/>
		<edge from-layer="3741" from-port="2" to-layer="3743" to-port="0"/>
		<edge from-layer="3742" from-port="0" to-layer="3743" to-port="1"/>
		<edge from-layer="3743" from-port="2" to-layer="3745" to-port="0"/>
		<edge from-layer="3744" from-port="0" to-layer="3745" to-port="1"/>
		<edge from-layer="3745" from-port="2" to-layer="3746" to-port="0"/>
		<edge from-layer="3746" from-port="1" to-layer="3749" to-port="0"/>
		<edge from-layer="3746" from-port="1" to-layer="3759" to-port="0"/>
		<edge from-layer="3747" from-port="0" to-layer="3759" to-port="1"/>
		<edge from-layer="3748" from-port="0" to-layer="3751" to-port="0"/>
		<edge from-layer="3749" from-port="1" to-layer="3750" to-port="0"/>
		<edge from-layer="3750" from-port="1" to-layer="3751" to-port="1"/>
		<edge from-layer="3751" from-port="2" to-layer="3753" to-port="0"/>
		<edge from-layer="3752" from-port="0" to-layer="3753" to-port="1"/>
		<edge from-layer="3753" from-port="2" to-layer="3757" to-port="0"/>
		<edge from-layer="3754" from-port="0" to-layer="3757" to-port="1"/>
		<edge from-layer="3755" from-port="0" to-layer="3757" to-port="2"/>
		<edge from-layer="3756" from-port="0" to-layer="3757" to-port="3"/>
		<edge from-layer="3757" from-port="4" to-layer="3759" to-port="2"/>
		<edge from-layer="3758" from-port="0" to-layer="3759" to-port="3"/>
		<edge from-layer="3759" from-port="4" to-layer="3760" to-port="1"/>
		<edge from-layer="3760" from-port="2" to-layer="3762" to-port="0"/>
		<edge from-layer="3761" from-port="0" to-layer="3762" to-port="1"/>
		<edge from-layer="3762" from-port="2" to-layer="3764" to-port="0"/>
		<edge from-layer="3763" from-port="0" to-layer="3764" to-port="1"/>
		<edge from-layer="3764" from-port="2" to-layer="3766" to-port="0"/>
		<edge from-layer="3765" from-port="0" to-layer="3766" to-port="1"/>
		<edge from-layer="3766" from-port="2" to-layer="3768" to-port="0"/>
		<edge from-layer="3767" from-port="0" to-layer="3768" to-port="1"/>
		<edge from-layer="3768" from-port="2" to-layer="3769" to-port="0"/>
		<edge from-layer="3769" from-port="1" to-layer="3772" to-port="0"/>
		<edge from-layer="3769" from-port="1" to-layer="3782" to-port="0"/>
		<edge from-layer="3770" from-port="0" to-layer="3782" to-port="1"/>
		<edge from-layer="3771" from-port="0" to-layer="3774" to-port="0"/>
		<edge from-layer="3772" from-port="1" to-layer="3773" to-port="0"/>
		<edge from-layer="3773" from-port="1" to-layer="3774" to-port="1"/>
		<edge from-layer="3774" from-port="2" to-layer="3776" to-port="0"/>
		<edge from-layer="3775" from-port="0" to-layer="3776" to-port="1"/>
		<edge from-layer="3776" from-port="2" to-layer="3780" to-port="0"/>
		<edge from-layer="3777" from-port="0" to-layer="3780" to-port="1"/>
		<edge from-layer="3778" from-port="0" to-layer="3780" to-port="2"/>
		<edge from-layer="3779" from-port="0" to-layer="3780" to-port="3"/>
		<edge from-layer="3780" from-port="4" to-layer="3782" to-port="2"/>
		<edge from-layer="3781" from-port="0" to-layer="3782" to-port="3"/>
		<edge from-layer="3782" from-port="4" to-layer="3783" to-port="1"/>
		<edge from-layer="3783" from-port="2" to-layer="3785" to-port="0"/>
		<edge from-layer="3784" from-port="0" to-layer="3785" to-port="1"/>
		<edge from-layer="3785" from-port="2" to-layer="3787" to-port="0"/>
		<edge from-layer="3786" from-port="0" to-layer="3787" to-port="1"/>
		<edge from-layer="3787" from-port="2" to-layer="3789" to-port="0"/>
		<edge from-layer="3788" from-port="0" to-layer="3789" to-port="1"/>
		<edge from-layer="3789" from-port="2" to-layer="3791" to-port="0"/>
		<edge from-layer="3790" from-port="0" to-layer="3791" to-port="1"/>
		<edge from-layer="3791" from-port="2" to-layer="3792" to-port="0"/>
		<edge from-layer="3792" from-port="1" to-layer="3794" to-port="0"/>
		<edge from-layer="3793" from-port="0" to-layer="3794" to-port="1"/>
		<edge from-layer="3794" from-port="2" to-layer="3796" to-port="0"/>
		<edge from-layer="3795" from-port="0" to-layer="3796" to-port="1"/>
		<edge from-layer="3796" from-port="2" to-layer="3797" to-port="0"/>
	</edges>
	<meta_data>
		<MO_version value="2021.4.0-3839-cd81789d294-releases/2021/4"/>
		<cli_parameters>
			<caffe_parser_path value="DIR"/>
			<data_type value="FP16"/>
			<disable_nhwc_to_nchw value="False"/>
			<disable_omitting_optional value="False"/>
			<disable_resnet_optimization value="False"/>
			<disable_weights_compression value="False"/>
			<enable_concat_optimization value="False"/>
			<enable_flattening_nested_params value="False"/>
			<enable_ssd_gluoncv value="False"/>
			<extensions value="DIR"/>
			<framework value="onnx"/>
			<freeze_placeholder_with_value value="{}"/>
			<generate_deprecated_IR_V7 value="False"/>
			<input_model value="DIR/litehrnet_18_coco_384x288.onnx"/>
			<input_model_is_text value="False"/>
			<k value="DIR/CustomLayersMapping.xml"/>
			<keep_shape_ops value="True"/>
			<legacy_ir_generation value="False"/>
			<legacy_mxnet_model value="False"/>
			<log_level value="ERROR"/>
			<mean_scale_values value="{}"/>
			<mean_values value="()"/>
			<model_name value="litehrnet_18_coco_384x288"/>
			<output_dir value="DIR"/>
			<placeholder_data_types value="{}"/>
			<progress value="False"/>
			<remove_memory value="False"/>
			<remove_output_softmax value="False"/>
			<reverse_input_channels value="False"/>
			<save_params_from_nd value="False"/>
			<scale_values value="()"/>
			<silent value="False"/>
			<static_shape value="False"/>
			<stream_output value="False"/>
			<transform value=""/>
			<unset unset_cli_parameters="batch, counts, disable_fusing, disable_gfusing, finegrain_fusing, input, input_checkpoint, input_meta_graph, input_proto, input_shape, input_symbol, mean_file, mean_file_offsets, move_to_preprocess, nd_prefix_name, output, placeholder_shapes, pretrained_model_name, saved_model_dir, saved_model_tags, scale, tensorboard_logdir, tensorflow_custom_layer_libraries, tensorflow_custom_operations_config_update, tensorflow_object_detection_api_pipeline_config, tensorflow_use_custom_operations_config, transformations_config"/>
		</cli_parameters>
	</meta_data>
</net>
