<?xml version="1.0" ?>
<net name="litehrnet_30_coco_384x288" version="10">
	<layers>
		<layer id="0" name="input.1" type="Parameter" version="opset1">
			<data shape="1, 3, 384, 288" element_type="f32"/>
			<output>
				<port id="0" precision="FP32" names="input.1">
					<dim>1</dim>
					<dim>3</dim>
					<dim>384</dim>
					<dim>288</dim>
				</port>
			</output>
		</layer>
		<layer id="1" name="10164" type="Const" version="opset1">
			<data element_type="f32" shape="32, 3, 3, 3" offset="0" size="3456"/>
			<output>
				<port id="0" precision="FP32" names="10164">
					<dim>32</dim>
					<dim>3</dim>
					<dim>3</dim>
					<dim>3</dim>
				</port>
			</output>
		</layer>
		<layer id="2" name="Conv_0/WithoutBiases" type="Convolution" version="opset1">
			<data strides="2, 2" dilations="1, 1" pads_begin="1, 1" pads_end="1, 1" auto_pad="explicit"/>
			<input>
				<port id="0" precision="FP32">
					<dim>1</dim>
					<dim>3</dim>
					<dim>384</dim>
					<dim>288</dim>
				</port>
				<port id="1" precision="FP32">
					<dim>32</dim>
					<dim>3</dim>
					<dim>3</dim>
					<dim>3</dim>
				</port>
			</input>
			<output>
				<port id="2" precision="FP32">
					<dim>1</dim>
					<dim>32</dim>
					<dim>192</dim>
					<dim>144</dim>
				</port>
			</output>
		</layer>
		<layer id="3" name="Conv_0/Dims53245" type="Const" version="opset1">
			<data element_type="f32" shape="1, 32, 1, 1" offset="3456" size="128"/>
			<output>
				<port id="0" precision="FP32">
					<dim>1</dim>
					<dim>32</dim>
					<dim>1</dim>
					<dim>1</dim>
				</port>
			</output>
		</layer>
		<layer id="4" name="Conv_0" type="Add" version="opset1">
			<data auto_broadcast="numpy"/>
			<input>
				<port id="0" precision="FP32">
					<dim>1</dim>
					<dim>32</dim>
					<dim>192</dim>
					<dim>144</dim>
				</port>
				<port id="1" precision="FP32">
					<dim>1</dim>
					<dim>32</dim>
					<dim>1</dim>
					<dim>1</dim>
				</port>
			</input>
			<output>
				<port id="2" precision="FP32" names="10163">
					<dim>1</dim>
					<dim>32</dim>
					<dim>192</dim>
					<dim>144</dim>
				</port>
			</output>
		</layer>
		<layer id="5" name="Relu_1" type="ReLU" version="opset1">
			<input>
				<port id="0" precision="FP32">
					<dim>1</dim>
					<dim>32</dim>
					<dim>192</dim>
					<dim>144</dim>
				</port>
			</input>
			<output>
				<port id="1" precision="FP32" names="2363">
					<dim>1</dim>
					<dim>32</dim>
					<dim>192</dim>
					<dim>144</dim>
				</port>
			</output>
		</layer>
		<layer id="6" name="68979223345" type="Const" version="opset1">
			<data element_type="i64" shape="" offset="3584" size="8"/>
			<output>
				<port id="0" precision="I64"/>
			</output>
		</layer>
		<layer id="7" name="68981221728" type="Const" version="opset1">
			<data element_type="i64" shape="2" offset="3592" size="16"/>
			<output>
				<port id="0" precision="I64">
					<dim>2</dim>
				</port>
			</output>
		</layer>
		<layer id="8" name="Slice_12/Split" type="VariadicSplit" version="opset1">
			<input>
				<port id="0" precision="FP32">
					<dim>1</dim>
					<dim>32</dim>
					<dim>192</dim>
					<dim>144</dim>
				</port>
				<port id="1" precision="I64"/>
				<port id="2" precision="I64">
					<dim>2</dim>
				</port>
			</input>
			<output>
				<port id="3" precision="FP32" names="2374">
					<dim>1</dim>
					<dim>16</dim>
					<dim>192</dim>
					<dim>144</dim>
				</port>
				<port id="4" precision="FP32" names="2377">
					<dim>1</dim>
					<dim>16</dim>
					<dim>192</dim>
					<dim>144</dim>
				</port>
			</output>
		</layer>
		<layer id="9" name="10176" type="Const" version="opset1">
			<data element_type="f32" shape="16, 1, 1, 3, 3" offset="3608" size="576"/>
			<output>
				<port id="0" precision="FP32" names="10176">
					<dim>16</dim>
					<dim>1</dim>
					<dim>1</dim>
					<dim>3</dim>
					<dim>3</dim>
				</port>
			</output>
		</layer>
		<layer id="10" name="Conv_21/WithoutBiases" type="GroupConvolution" version="opset1">
			<data strides="2, 2" pads_begin="1, 1" pads_end="1, 1" dilations="1, 1" auto_pad="explicit"/>
			<input>
				<port id="0" precision="FP32">
					<dim>1</dim>
					<dim>16</dim>
					<dim>192</dim>
					<dim>144</dim>
				</port>
				<port id="1" precision="FP32">
					<dim>16</dim>
					<dim>1</dim>
					<dim>1</dim>
					<dim>3</dim>
					<dim>3</dim>
				</port>
			</input>
			<output>
				<port id="2" precision="FP32">
					<dim>1</dim>
					<dim>16</dim>
					<dim>96</dim>
					<dim>72</dim>
				</port>
			</output>
		</layer>
		<layer id="11" name="Conv_21/Dims54427" type="Const" version="opset1">
			<data element_type="f32" shape="1, 16, 1, 1" offset="4184" size="64"/>
			<output>
				<port id="0" precision="FP32">
					<dim>1</dim>
					<dim>16</dim>
					<dim>1</dim>
					<dim>1</dim>
				</port>
			</output>
		</layer>
		<layer id="12" name="Conv_21" type="Add" version="opset1">
			<data auto_broadcast="numpy"/>
			<input>
				<port id="0" precision="FP32">
					<dim>1</dim>
					<dim>16</dim>
					<dim>96</dim>
					<dim>72</dim>
				</port>
				<port id="1" precision="FP32">
					<dim>1</dim>
					<dim>16</dim>
					<dim>1</dim>
					<dim>1</dim>
				</port>
			</input>
			<output>
				<port id="2" precision="FP32" names="10175">
					<dim>1</dim>
					<dim>16</dim>
					<dim>96</dim>
					<dim>72</dim>
				</port>
			</output>
		</layer>
		<layer id="13" name="10179" type="Const" version="opset1">
			<data element_type="f32" shape="16, 16, 1, 1" offset="4248" size="1024"/>
			<output>
				<port id="0" precision="FP32" names="10179">
					<dim>16</dim>
					<dim>16</dim>
					<dim>1</dim>
					<dim>1</dim>
				</port>
			</output>
		</layer>
		<layer id="14" name="Conv_22/WithoutBiases" type="Convolution" version="opset1">
			<data strides="1, 1" dilations="1, 1" pads_begin="0, 0" pads_end="0, 0" auto_pad="explicit"/>
			<input>
				<port id="0" precision="FP32">
					<dim>1</dim>
					<dim>16</dim>
					<dim>96</dim>
					<dim>72</dim>
				</port>
				<port id="1" precision="FP32">
					<dim>16</dim>
					<dim>16</dim>
					<dim>1</dim>
					<dim>1</dim>
				</port>
			</input>
			<output>
				<port id="2" precision="FP32">
					<dim>1</dim>
					<dim>16</dim>
					<dim>96</dim>
					<dim>72</dim>
				</port>
			</output>
		</layer>
		<layer id="15" name="Conv_22/Dims53341" type="Const" version="opset1">
			<data element_type="f32" shape="1, 16, 1, 1" offset="5272" size="64"/>
			<output>
				<port id="0" precision="FP32">
					<dim>1</dim>
					<dim>16</dim>
					<dim>1</dim>
					<dim>1</dim>
				</port>
			</output>
		</layer>
		<layer id="16" name="Conv_22" type="Add" version="opset1">
			<data auto_broadcast="numpy"/>
			<input>
				<port id="0" precision="FP32">
					<dim>1</dim>
					<dim>16</dim>
					<dim>96</dim>
					<dim>72</dim>
				</port>
				<port id="1" precision="FP32">
					<dim>1</dim>
					<dim>16</dim>
					<dim>1</dim>
					<dim>1</dim>
				</port>
			</input>
			<output>
				<port id="2" precision="FP32" names="10178">
					<dim>1</dim>
					<dim>16</dim>
					<dim>96</dim>
					<dim>72</dim>
				</port>
			</output>
		</layer>
		<layer id="17" name="Relu_23" type="ReLU" version="opset1">
			<input>
				<port id="0" precision="FP32">
					<dim>1</dim>
					<dim>16</dim>
					<dim>96</dim>
					<dim>72</dim>
				</port>
			</input>
			<output>
				<port id="1" precision="FP32" names="2390">
					<dim>1</dim>
					<dim>16</dim>
					<dim>96</dim>
					<dim>72</dim>
				</port>
			</output>
		</layer>
		<layer id="18" name="10167" type="Const" version="opset1">
			<data element_type="f32" shape="32, 16, 1, 1" offset="5336" size="2048"/>
			<output>
				<port id="0" precision="FP32" names="10167">
					<dim>32</dim>
					<dim>16</dim>
					<dim>1</dim>
					<dim>1</dim>
				</port>
			</output>
		</layer>
		<layer id="19" name="Conv_16/WithoutBiases" type="Convolution" version="opset1">
			<data strides="1, 1" dilations="1, 1" pads_begin="0, 0" pads_end="0, 0" auto_pad="explicit"/>
			<input>
				<port id="0" precision="FP32">
					<dim>1</dim>
					<dim>16</dim>
					<dim>192</dim>
					<dim>144</dim>
				</port>
				<port id="1" precision="FP32">
					<dim>32</dim>
					<dim>16</dim>
					<dim>1</dim>
					<dim>1</dim>
				</port>
			</input>
			<output>
				<port id="2" precision="FP32">
					<dim>1</dim>
					<dim>32</dim>
					<dim>192</dim>
					<dim>144</dim>
				</port>
			</output>
		</layer>
		<layer id="20" name="Conv_16/Dims52621" type="Const" version="opset1">
			<data element_type="f32" shape="1, 32, 1, 1" offset="7384" size="128"/>
			<output>
				<port id="0" precision="FP32">
					<dim>1</dim>
					<dim>32</dim>
					<dim>1</dim>
					<dim>1</dim>
				</port>
			</output>
		</layer>
		<layer id="21" name="Conv_16" type="Add" version="opset1">
			<data auto_broadcast="numpy"/>
			<input>
				<port id="0" precision="FP32">
					<dim>1</dim>
					<dim>32</dim>
					<dim>192</dim>
					<dim>144</dim>
				</port>
				<port id="1" precision="FP32">
					<dim>1</dim>
					<dim>32</dim>
					<dim>1</dim>
					<dim>1</dim>
				</port>
			</input>
			<output>
				<port id="2" precision="FP32" names="10166">
					<dim>1</dim>
					<dim>32</dim>
					<dim>192</dim>
					<dim>144</dim>
				</port>
			</output>
		</layer>
		<layer id="22" name="Relu_17" type="ReLU" version="opset1">
			<input>
				<port id="0" precision="FP32">
					<dim>1</dim>
					<dim>32</dim>
					<dim>192</dim>
					<dim>144</dim>
				</port>
			</input>
			<output>
				<port id="1" precision="FP32" names="2380">
					<dim>1</dim>
					<dim>32</dim>
					<dim>192</dim>
					<dim>144</dim>
				</port>
			</output>
		</layer>
		<layer id="23" name="10170" type="Const" version="opset1">
			<data element_type="f32" shape="32, 1, 1, 3, 3" offset="7512" size="1152"/>
			<output>
				<port id="0" precision="FP32" names="10170">
					<dim>32</dim>
					<dim>1</dim>
					<dim>1</dim>
					<dim>3</dim>
					<dim>3</dim>
				</port>
			</output>
		</layer>
		<layer id="24" name="Conv_18/WithoutBiases" type="GroupConvolution" version="opset1">
			<data strides="2, 2" pads_begin="1, 1" pads_end="1, 1" dilations="1, 1" auto_pad="explicit"/>
			<input>
				<port id="0" precision="FP32">
					<dim>1</dim>
					<dim>32</dim>
					<dim>192</dim>
					<dim>144</dim>
				</port>
				<port id="1" precision="FP32">
					<dim>32</dim>
					<dim>1</dim>
					<dim>1</dim>
					<dim>3</dim>
					<dim>3</dim>
				</port>
			</input>
			<output>
				<port id="2" precision="FP32">
					<dim>1</dim>
					<dim>32</dim>
					<dim>96</dim>
					<dim>72</dim>
				</port>
			</output>
		</layer>
		<layer id="25" name="Conv_18/Dims51877" type="Const" version="opset1">
			<data element_type="f32" shape="1, 32, 1, 1" offset="8664" size="128"/>
			<output>
				<port id="0" precision="FP32">
					<dim>1</dim>
					<dim>32</dim>
					<dim>1</dim>
					<dim>1</dim>
				</port>
			</output>
		</layer>
		<layer id="26" name="Conv_18" type="Add" version="opset1">
			<data auto_broadcast="numpy"/>
			<input>
				<port id="0" precision="FP32">
					<dim>1</dim>
					<dim>32</dim>
					<dim>96</dim>
					<dim>72</dim>
				</port>
				<port id="1" precision="FP32">
					<dim>1</dim>
					<dim>32</dim>
					<dim>1</dim>
					<dim>1</dim>
				</port>
			</input>
			<output>
				<port id="2" precision="FP32" names="10169">
					<dim>1</dim>
					<dim>32</dim>
					<dim>96</dim>
					<dim>72</dim>
				</port>
			</output>
		</layer>
		<layer id="27" name="10173" type="Const" version="opset1">
			<data element_type="f32" shape="16, 32, 1, 1" offset="8792" size="2048"/>
			<output>
				<port id="0" precision="FP32" names="10173">
					<dim>16</dim>
					<dim>32</dim>
					<dim>1</dim>
					<dim>1</dim>
				</port>
			</output>
		</layer>
		<layer id="28" name="Conv_19/WithoutBiases" type="Convolution" version="opset1">
			<data strides="1, 1" dilations="1, 1" pads_begin="0, 0" pads_end="0, 0" auto_pad="explicit"/>
			<input>
				<port id="0" precision="FP32">
					<dim>1</dim>
					<dim>32</dim>
					<dim>96</dim>
					<dim>72</dim>
				</port>
				<port id="1" precision="FP32">
					<dim>16</dim>
					<dim>32</dim>
					<dim>1</dim>
					<dim>1</dim>
				</port>
			</input>
			<output>
				<port id="2" precision="FP32">
					<dim>1</dim>
					<dim>16</dim>
					<dim>96</dim>
					<dim>72</dim>
				</port>
			</output>
		</layer>
		<layer id="29" name="Conv_19/Dims51919" type="Const" version="opset1">
			<data element_type="f32" shape="1, 16, 1, 1" offset="10840" size="64"/>
			<output>
				<port id="0" precision="FP32">
					<dim>1</dim>
					<dim>16</dim>
					<dim>1</dim>
					<dim>1</dim>
				</port>
			</output>
		</layer>
		<layer id="30" name="Conv_19" type="Add" version="opset1">
			<data auto_broadcast="numpy"/>
			<input>
				<port id="0" precision="FP32">
					<dim>1</dim>
					<dim>16</dim>
					<dim>96</dim>
					<dim>72</dim>
				</port>
				<port id="1" precision="FP32">
					<dim>1</dim>
					<dim>16</dim>
					<dim>1</dim>
					<dim>1</dim>
				</port>
			</input>
			<output>
				<port id="2" precision="FP32" names="10172">
					<dim>1</dim>
					<dim>16</dim>
					<dim>96</dim>
					<dim>72</dim>
				</port>
			</output>
		</layer>
		<layer id="31" name="Relu_20" type="ReLU" version="opset1">
			<input>
				<port id="0" precision="FP32">
					<dim>1</dim>
					<dim>16</dim>
					<dim>96</dim>
					<dim>72</dim>
				</port>
			</input>
			<output>
				<port id="1" precision="FP32" names="2385">
					<dim>1</dim>
					<dim>16</dim>
					<dim>96</dim>
					<dim>72</dim>
				</port>
			</output>
		</layer>
		<layer id="32" name="Concat_24" type="Concat" version="opset1">
			<data axis="1"/>
			<input>
				<port id="0" precision="FP32">
					<dim>1</dim>
					<dim>16</dim>
					<dim>96</dim>
					<dim>72</dim>
				</port>
				<port id="1" precision="FP32">
					<dim>1</dim>
					<dim>16</dim>
					<dim>96</dim>
					<dim>72</dim>
				</port>
			</input>
			<output>
				<port id="2" precision="FP32" names="2391">
					<dim>1</dim>
					<dim>32</dim>
					<dim>96</dim>
					<dim>72</dim>
				</port>
			</output>
		</layer>
		<layer id="33" name="11449" type="Const" version="opset1">
			<data element_type="i64" shape="5" offset="10904" size="40"/>
			<output>
				<port id="0" precision="I64" names="11449">
					<dim>5</dim>
				</port>
			</output>
		</layer>
		<layer id="34" name="Reshape_25" type="Reshape" version="opset1">
			<data special_zero="true"/>
			<input>
				<port id="0" precision="FP32">
					<dim>1</dim>
					<dim>32</dim>
					<dim>96</dim>
					<dim>72</dim>
				</port>
				<port id="1" precision="I64">
					<dim>5</dim>
				</port>
			</input>
			<output>
				<port id="2" precision="FP32" names="2403">
					<dim>1</dim>
					<dim>2</dim>
					<dim>16</dim>
					<dim>96</dim>
					<dim>72</dim>
				</port>
			</output>
		</layer>
		<layer id="35" name="3558" type="Const" version="opset1">
			<data element_type="i64" shape="5" offset="10944" size="40"/>
			<output>
				<port id="0" precision="I64">
					<dim>5</dim>
				</port>
			</output>
		</layer>
		<layer id="36" name="Transpose_26" type="Transpose" version="opset1">
			<input>
				<port id="0" precision="FP32">
					<dim>1</dim>
					<dim>2</dim>
					<dim>16</dim>
					<dim>96</dim>
					<dim>72</dim>
				</port>
				<port id="1" precision="I64">
					<dim>5</dim>
				</port>
			</input>
			<output>
				<port id="2" precision="FP32" names="2404">
					<dim>1</dim>
					<dim>16</dim>
					<dim>2</dim>
					<dim>96</dim>
					<dim>72</dim>
				</port>
			</output>
		</layer>
		<layer id="37" name="11454223774" type="Const" version="opset1">
			<data element_type="i64" shape="4" offset="10984" size="32"/>
			<output>
				<port id="0" precision="I64" names="11454">
					<dim>4</dim>
				</port>
			</output>
		</layer>
		<layer id="38" name="Reshape_27" type="Reshape" version="opset1">
			<data special_zero="true"/>
			<input>
				<port id="0" precision="FP32">
					<dim>1</dim>
					<dim>16</dim>
					<dim>2</dim>
					<dim>96</dim>
					<dim>72</dim>
				</port>
				<port id="1" precision="I64">
					<dim>4</dim>
				</port>
			</input>
			<output>
				<port id="2" precision="FP32" names="2411">
					<dim>1</dim>
					<dim>32</dim>
					<dim>96</dim>
					<dim>72</dim>
				</port>
			</output>
		</layer>
		<layer id="39" name="10182" type="Const" version="opset1">
			<data element_type="f32" shape="32, 1, 1, 3, 3" offset="11016" size="1152"/>
			<output>
				<port id="0" precision="FP32" names="10182">
					<dim>32</dim>
					<dim>1</dim>
					<dim>1</dim>
					<dim>3</dim>
					<dim>3</dim>
				</port>
			</output>
		</layer>
		<layer id="40" name="Conv_28/WithoutBiases" type="GroupConvolution" version="opset1">
			<data strides="1, 1" pads_begin="1, 1" pads_end="1, 1" dilations="1, 1" auto_pad="explicit"/>
			<input>
				<port id="0" precision="FP32">
					<dim>1</dim>
					<dim>32</dim>
					<dim>96</dim>
					<dim>72</dim>
				</port>
				<port id="1" precision="FP32">
					<dim>32</dim>
					<dim>1</dim>
					<dim>1</dim>
					<dim>3</dim>
					<dim>3</dim>
				</port>
			</input>
			<output>
				<port id="2" precision="FP32">
					<dim>1</dim>
					<dim>32</dim>
					<dim>96</dim>
					<dim>72</dim>
				</port>
			</output>
		</layer>
		<layer id="41" name="Conv_28/Dims51655" type="Const" version="opset1">
			<data element_type="f32" shape="1, 32, 1, 1" offset="12168" size="128"/>
			<output>
				<port id="0" precision="FP32">
					<dim>1</dim>
					<dim>32</dim>
					<dim>1</dim>
					<dim>1</dim>
				</port>
			</output>
		</layer>
		<layer id="42" name="Conv_28" type="Add" version="opset1">
			<data auto_broadcast="numpy"/>
			<input>
				<port id="0" precision="FP32">
					<dim>1</dim>
					<dim>32</dim>
					<dim>96</dim>
					<dim>72</dim>
				</port>
				<port id="1" precision="FP32">
					<dim>1</dim>
					<dim>32</dim>
					<dim>1</dim>
					<dim>1</dim>
				</port>
			</input>
			<output>
				<port id="2" precision="FP32" names="10181">
					<dim>1</dim>
					<dim>32</dim>
					<dim>96</dim>
					<dim>72</dim>
				</port>
			</output>
		</layer>
		<layer id="43" name="10185" type="Const" version="opset1">
			<data element_type="f32" shape="40, 32, 1, 1" offset="12296" size="5120"/>
			<output>
				<port id="0" precision="FP32" names="10185">
					<dim>40</dim>
					<dim>32</dim>
					<dim>1</dim>
					<dim>1</dim>
				</port>
			</output>
		</layer>
		<layer id="44" name="Conv_29/WithoutBiases" type="Convolution" version="opset1">
			<data strides="1, 1" dilations="1, 1" pads_begin="0, 0" pads_end="0, 0" auto_pad="explicit"/>
			<input>
				<port id="0" precision="FP32">
					<dim>1</dim>
					<dim>32</dim>
					<dim>96</dim>
					<dim>72</dim>
				</port>
				<port id="1" precision="FP32">
					<dim>40</dim>
					<dim>32</dim>
					<dim>1</dim>
					<dim>1</dim>
				</port>
			</input>
			<output>
				<port id="2" precision="FP32">
					<dim>1</dim>
					<dim>40</dim>
					<dim>96</dim>
					<dim>72</dim>
				</port>
			</output>
		</layer>
		<layer id="45" name="Conv_29/Dims52105" type="Const" version="opset1">
			<data element_type="f32" shape="1, 40, 1, 1" offset="17416" size="160"/>
			<output>
				<port id="0" precision="FP32">
					<dim>1</dim>
					<dim>40</dim>
					<dim>1</dim>
					<dim>1</dim>
				</port>
			</output>
		</layer>
		<layer id="46" name="Conv_29" type="Add" version="opset1">
			<data auto_broadcast="numpy"/>
			<input>
				<port id="0" precision="FP32">
					<dim>1</dim>
					<dim>40</dim>
					<dim>96</dim>
					<dim>72</dim>
				</port>
				<port id="1" precision="FP32">
					<dim>1</dim>
					<dim>40</dim>
					<dim>1</dim>
					<dim>1</dim>
				</port>
			</input>
			<output>
				<port id="2" precision="FP32" names="10184">
					<dim>1</dim>
					<dim>40</dim>
					<dim>96</dim>
					<dim>72</dim>
				</port>
			</output>
		</layer>
		<layer id="47" name="Relu_30" type="ReLU" version="opset1">
			<input>
				<port id="0" precision="FP32">
					<dim>1</dim>
					<dim>40</dim>
					<dim>96</dim>
					<dim>72</dim>
				</port>
			</input>
			<output>
				<port id="1" precision="FP32" names="2416">
					<dim>1</dim>
					<dim>40</dim>
					<dim>96</dim>
					<dim>72</dim>
				</port>
			</output>
		</layer>
		<layer id="48" name="68984223351" type="Const" version="opset1">
			<data element_type="i64" shape="" offset="3584" size="8"/>
			<output>
				<port id="0" precision="I64"/>
			</output>
		</layer>
		<layer id="49" name="68986224539" type="Const" version="opset1">
			<data element_type="i64" shape="2" offset="17576" size="16"/>
			<output>
				<port id="0" precision="I64">
					<dim>2</dim>
				</port>
			</output>
		</layer>
		<layer id="50" name="Slice_44/Split" type="VariadicSplit" version="opset1">
			<input>
				<port id="0" precision="FP32">
					<dim>1</dim>
					<dim>40</dim>
					<dim>96</dim>
					<dim>72</dim>
				</port>
				<port id="1" precision="I64"/>
				<port id="2" precision="I64">
					<dim>2</dim>
				</port>
			</input>
			<output>
				<port id="3" precision="FP32" names="2432">
					<dim>1</dim>
					<dim>20</dim>
					<dim>96</dim>
					<dim>72</dim>
				</port>
				<port id="4" precision="FP32" names="2435">
					<dim>1</dim>
					<dim>20</dim>
					<dim>96</dim>
					<dim>72</dim>
				</port>
			</output>
		</layer>
		<layer id="51" name="AveragePool_64" type="AvgPool" version="opset1">
			<data kernel="2, 2" strides="2, 2" pads_begin="0, 0" pads_end="0, 0" exclude-pad="true" auto_pad="explicit" rounding_type="floor"/>
			<input>
				<port id="0" precision="FP32">
					<dim>1</dim>
					<dim>20</dim>
					<dim>96</dim>
					<dim>72</dim>
				</port>
			</input>
			<output>
				<port id="1" precision="FP32" names="2452">
					<dim>1</dim>
					<dim>20</dim>
					<dim>48</dim>
					<dim>36</dim>
				</port>
			</output>
		</layer>
		<layer id="52" name="10188" type="Const" version="opset1">
			<data element_type="f32" shape="32, 1, 1, 3, 3" offset="17592" size="1152"/>
			<output>
				<port id="0" precision="FP32" names="10188">
					<dim>32</dim>
					<dim>1</dim>
					<dim>1</dim>
					<dim>3</dim>
					<dim>3</dim>
				</port>
			</output>
		</layer>
		<layer id="53" name="Conv_31/WithoutBiases" type="GroupConvolution" version="opset1">
			<data strides="2, 2" pads_begin="1, 1" pads_end="1, 1" dilations="1, 1" auto_pad="explicit"/>
			<input>
				<port id="0" precision="FP32">
					<dim>1</dim>
					<dim>32</dim>
					<dim>96</dim>
					<dim>72</dim>
				</port>
				<port id="1" precision="FP32">
					<dim>32</dim>
					<dim>1</dim>
					<dim>1</dim>
					<dim>3</dim>
					<dim>3</dim>
				</port>
			</input>
			<output>
				<port id="2" precision="FP32">
					<dim>1</dim>
					<dim>32</dim>
					<dim>48</dim>
					<dim>36</dim>
				</port>
			</output>
		</layer>
		<layer id="54" name="Conv_31/Dims51085" type="Const" version="opset1">
			<data element_type="f32" shape="1, 32, 1, 1" offset="18744" size="128"/>
			<output>
				<port id="0" precision="FP32">
					<dim>1</dim>
					<dim>32</dim>
					<dim>1</dim>
					<dim>1</dim>
				</port>
			</output>
		</layer>
		<layer id="55" name="Conv_31" type="Add" version="opset1">
			<data auto_broadcast="numpy"/>
			<input>
				<port id="0" precision="FP32">
					<dim>1</dim>
					<dim>32</dim>
					<dim>48</dim>
					<dim>36</dim>
				</port>
				<port id="1" precision="FP32">
					<dim>1</dim>
					<dim>32</dim>
					<dim>1</dim>
					<dim>1</dim>
				</port>
			</input>
			<output>
				<port id="2" precision="FP32" names="10187">
					<dim>1</dim>
					<dim>32</dim>
					<dim>48</dim>
					<dim>36</dim>
				</port>
			</output>
		</layer>
		<layer id="56" name="10191" type="Const" version="opset1">
			<data element_type="f32" shape="80, 32, 1, 1" offset="18872" size="10240"/>
			<output>
				<port id="0" precision="FP32" names="10191">
					<dim>80</dim>
					<dim>32</dim>
					<dim>1</dim>
					<dim>1</dim>
				</port>
			</output>
		</layer>
		<layer id="57" name="Conv_32/WithoutBiases" type="Convolution" version="opset1">
			<data strides="1, 1" dilations="1, 1" pads_begin="0, 0" pads_end="0, 0" auto_pad="explicit"/>
			<input>
				<port id="0" precision="FP32">
					<dim>1</dim>
					<dim>32</dim>
					<dim>48</dim>
					<dim>36</dim>
				</port>
				<port id="1" precision="FP32">
					<dim>80</dim>
					<dim>32</dim>
					<dim>1</dim>
					<dim>1</dim>
				</port>
			</input>
			<output>
				<port id="2" precision="FP32">
					<dim>1</dim>
					<dim>80</dim>
					<dim>48</dim>
					<dim>36</dim>
				</port>
			</output>
		</layer>
		<layer id="58" name="Conv_32/Dims53275" type="Const" version="opset1">
			<data element_type="f32" shape="1, 80, 1, 1" offset="29112" size="320"/>
			<output>
				<port id="0" precision="FP32">
					<dim>1</dim>
					<dim>80</dim>
					<dim>1</dim>
					<dim>1</dim>
				</port>
			</output>
		</layer>
		<layer id="59" name="Conv_32" type="Add" version="opset1">
			<data auto_broadcast="numpy"/>
			<input>
				<port id="0" precision="FP32">
					<dim>1</dim>
					<dim>80</dim>
					<dim>48</dim>
					<dim>36</dim>
				</port>
				<port id="1" precision="FP32">
					<dim>1</dim>
					<dim>80</dim>
					<dim>1</dim>
					<dim>1</dim>
				</port>
			</input>
			<output>
				<port id="2" precision="FP32" names="10190">
					<dim>1</dim>
					<dim>80</dim>
					<dim>48</dim>
					<dim>36</dim>
				</port>
			</output>
		</layer>
		<layer id="60" name="Relu_33" type="ReLU" version="opset1">
			<input>
				<port id="0" precision="FP32">
					<dim>1</dim>
					<dim>80</dim>
					<dim>48</dim>
					<dim>36</dim>
				</port>
			</input>
			<output>
				<port id="1" precision="FP32" names="2421">
					<dim>1</dim>
					<dim>80</dim>
					<dim>48</dim>
					<dim>36</dim>
				</port>
			</output>
		</layer>
		<layer id="61" name="68989221044" type="Const" version="opset1">
			<data element_type="i64" shape="" offset="3584" size="8"/>
			<output>
				<port id="0" precision="I64"/>
			</output>
		</layer>
		<layer id="62" name="68991219724" type="Const" version="opset1">
			<data element_type="i64" shape="2" offset="29432" size="16"/>
			<output>
				<port id="0" precision="I64">
					<dim>2</dim>
				</port>
			</output>
		</layer>
		<layer id="63" name="Slice_58/Split" type="VariadicSplit" version="opset1">
			<input>
				<port id="0" precision="FP32">
					<dim>1</dim>
					<dim>80</dim>
					<dim>48</dim>
					<dim>36</dim>
				</port>
				<port id="1" precision="I64"/>
				<port id="2" precision="I64">
					<dim>2</dim>
				</port>
			</input>
			<output>
				<port id="3" precision="FP32" names="2446">
					<dim>1</dim>
					<dim>40</dim>
					<dim>48</dim>
					<dim>36</dim>
				</port>
				<port id="4" precision="FP32" names="2449">
					<dim>1</dim>
					<dim>40</dim>
					<dim>48</dim>
					<dim>36</dim>
				</port>
			</output>
		</layer>
		<layer id="64" name="Concat_65" type="Concat" version="opset1">
			<data axis="1"/>
			<input>
				<port id="0" precision="FP32">
					<dim>1</dim>
					<dim>20</dim>
					<dim>48</dim>
					<dim>36</dim>
				</port>
				<port id="1" precision="FP32">
					<dim>1</dim>
					<dim>40</dim>
					<dim>48</dim>
					<dim>36</dim>
				</port>
			</input>
			<output>
				<port id="2" precision="FP32" names="2453">
					<dim>1</dim>
					<dim>60</dim>
					<dim>48</dim>
					<dim>36</dim>
				</port>
			</output>
		</layer>
		<layer id="65" name="10194" type="Const" version="opset1">
			<data element_type="f32" shape="7, 60, 1, 1" offset="29448" size="1680"/>
			<output>
				<port id="0" precision="FP32" names="10194">
					<dim>7</dim>
					<dim>60</dim>
					<dim>1</dim>
					<dim>1</dim>
				</port>
			</output>
		</layer>
		<layer id="66" name="Conv_66/WithoutBiases" type="Convolution" version="opset1">
			<data strides="1, 1" dilations="1, 1" pads_begin="0, 0" pads_end="0, 0" auto_pad="explicit"/>
			<input>
				<port id="0" precision="FP32">
					<dim>1</dim>
					<dim>60</dim>
					<dim>48</dim>
					<dim>36</dim>
				</port>
				<port id="1" precision="FP32">
					<dim>7</dim>
					<dim>60</dim>
					<dim>1</dim>
					<dim>1</dim>
				</port>
			</input>
			<output>
				<port id="2" precision="FP32">
					<dim>1</dim>
					<dim>7</dim>
					<dim>48</dim>
					<dim>36</dim>
				</port>
			</output>
		</layer>
		<layer id="67" name="Conv_66/Dims53851" type="Const" version="opset1">
			<data element_type="f32" shape="1, 7, 1, 1" offset="31128" size="28"/>
			<output>
				<port id="0" precision="FP32">
					<dim>1</dim>
					<dim>7</dim>
					<dim>1</dim>
					<dim>1</dim>
				</port>
			</output>
		</layer>
		<layer id="68" name="Conv_66" type="Add" version="opset1">
			<data auto_broadcast="numpy"/>
			<input>
				<port id="0" precision="FP32">
					<dim>1</dim>
					<dim>7</dim>
					<dim>48</dim>
					<dim>36</dim>
				</port>
				<port id="1" precision="FP32">
					<dim>1</dim>
					<dim>7</dim>
					<dim>1</dim>
					<dim>1</dim>
				</port>
			</input>
			<output>
				<port id="2" precision="FP32" names="10193">
					<dim>1</dim>
					<dim>7</dim>
					<dim>48</dim>
					<dim>36</dim>
				</port>
			</output>
		</layer>
		<layer id="69" name="Relu_67" type="ReLU" version="opset1">
			<input>
				<port id="0" precision="FP32">
					<dim>1</dim>
					<dim>7</dim>
					<dim>48</dim>
					<dim>36</dim>
				</port>
			</input>
			<output>
				<port id="1" precision="FP32" names="2456">
					<dim>1</dim>
					<dim>7</dim>
					<dim>48</dim>
					<dim>36</dim>
				</port>
			</output>
		</layer>
		<layer id="70" name="10197" type="Const" version="opset1">
			<data element_type="f32" shape="60, 7, 1, 1" offset="31156" size="1680"/>
			<output>
				<port id="0" precision="FP32" names="10197">
					<dim>60</dim>
					<dim>7</dim>
					<dim>1</dim>
					<dim>1</dim>
				</port>
			</output>
		</layer>
		<layer id="71" name="Conv_68/WithoutBiases" type="Convolution" version="opset1">
			<data strides="1, 1" dilations="1, 1" pads_begin="0, 0" pads_end="0, 0" auto_pad="explicit"/>
			<input>
				<port id="0" precision="FP32">
					<dim>1</dim>
					<dim>7</dim>
					<dim>48</dim>
					<dim>36</dim>
				</port>
				<port id="1" precision="FP32">
					<dim>60</dim>
					<dim>7</dim>
					<dim>1</dim>
					<dim>1</dim>
				</port>
			</input>
			<output>
				<port id="2" precision="FP32">
					<dim>1</dim>
					<dim>60</dim>
					<dim>48</dim>
					<dim>36</dim>
				</port>
			</output>
		</layer>
		<layer id="72" name="Conv_68/Dims53677" type="Const" version="opset1">
			<data element_type="f32" shape="1, 60, 1, 1" offset="32836" size="240"/>
			<output>
				<port id="0" precision="FP32">
					<dim>1</dim>
					<dim>60</dim>
					<dim>1</dim>
					<dim>1</dim>
				</port>
			</output>
		</layer>
		<layer id="73" name="Conv_68" type="Add" version="opset1">
			<data auto_broadcast="numpy"/>
			<input>
				<port id="0" precision="FP32">
					<dim>1</dim>
					<dim>60</dim>
					<dim>48</dim>
					<dim>36</dim>
				</port>
				<port id="1" precision="FP32">
					<dim>1</dim>
					<dim>60</dim>
					<dim>1</dim>
					<dim>1</dim>
				</port>
			</input>
			<output>
				<port id="2" precision="FP32" names="10196">
					<dim>1</dim>
					<dim>60</dim>
					<dim>48</dim>
					<dim>36</dim>
				</port>
			</output>
		</layer>
		<layer id="74" name="Sigmoid_69" type="Sigmoid" version="opset1">
			<input>
				<port id="0" precision="FP32">
					<dim>1</dim>
					<dim>60</dim>
					<dim>48</dim>
					<dim>36</dim>
				</port>
			</input>
			<output>
				<port id="1" precision="FP32" names="2459">
					<dim>1</dim>
					<dim>60</dim>
					<dim>48</dim>
					<dim>36</dim>
				</port>
			</output>
		</layer>
		<layer id="75" name="Split_70/VariadicSplit_input_port_1/value" type="Const" version="opset1">
			<data element_type="i64" shape="" offset="3584" size="8"/>
			<output>
				<port id="0" precision="I64"/>
			</output>
		</layer>
		<layer id="76" name="Split_70/VariadicSplit_input_port_2/value" type="Const" version="opset1">
			<data element_type="i64" shape="2" offset="33076" size="16"/>
			<output>
				<port id="0" precision="I64">
					<dim>2</dim>
				</port>
			</output>
		</layer>
		<layer id="77" name="Split_70/VariadicSplit" type="VariadicSplit" version="opset1">
			<input>
				<port id="0" precision="FP32">
					<dim>1</dim>
					<dim>60</dim>
					<dim>48</dim>
					<dim>36</dim>
				</port>
				<port id="1" precision="I64"/>
				<port id="2" precision="I64">
					<dim>2</dim>
				</port>
			</input>
			<output>
				<port id="3" precision="FP32" names="2460">
					<dim>1</dim>
					<dim>20</dim>
					<dim>48</dim>
					<dim>36</dim>
				</port>
				<port id="4" precision="FP32" names="2461">
					<dim>1</dim>
					<dim>40</dim>
					<dim>48</dim>
					<dim>36</dim>
				</port>
			</output>
		</layer>
		<layer id="78" name="Resize_79/StridedSlice_sizes37013218398" type="Const" version="opset1">
			<data element_type="i64" shape="2" offset="33092" size="16"/>
			<output>
				<port id="0" precision="I64">
					<dim>2</dim>
				</port>
			</output>
		</layer>
		<layer id="79" name="3700537007217876" type="Const" version="opset1">
			<data element_type="f32" shape="4" offset="33108" size="16"/>
			<output>
				<port id="0" precision="FP32">
					<dim>4</dim>
				</port>
			</output>
		</layer>
		<layer id="80" name="Resize_79/ShapeOf" type="ShapeOf" version="opset3">
			<data output_type="i64"/>
			<input>
				<port id="0" precision="FP32">
					<dim>1</dim>
					<dim>20</dim>
					<dim>48</dim>
					<dim>36</dim>
				</port>
			</input>
			<output>
				<port id="1" precision="I64">
					<dim>4</dim>
				</port>
			</output>
		</layer>
		<layer id="81" name="37004" type="Convert" version="opset1">
			<data destination_type="f32"/>
			<input>
				<port id="0" precision="I64">
					<dim>4</dim>
				</port>
			</input>
			<output>
				<port id="1" precision="FP32">
					<dim>4</dim>
				</port>
			</output>
		</layer>
		<layer id="82" name="Resize_79/Div" type="Divide" version="opset1">
			<data auto_broadcast="numpy" m_pythondiv="true"/>
			<input>
				<port id="0" precision="FP32">
					<dim>4</dim>
				</port>
				<port id="1" precision="FP32">
					<dim>4</dim>
				</port>
			</input>
			<output>
				<port id="2" precision="FP32">
					<dim>4</dim>
				</port>
			</output>
		</layer>
		<layer id="83" name="Resize_79/Add_input_port_1/value37003225064" type="Const" version="opset1">
			<data element_type="f32" shape="1" offset="33124" size="4"/>
			<output>
				<port id="0" precision="FP32">
					<dim>1</dim>
				</port>
			</output>
		</layer>
		<layer id="84" name="Resize_79/Add" type="Add" version="opset1">
			<data auto_broadcast="numpy"/>
			<input>
				<port id="0" precision="FP32">
					<dim>4</dim>
				</port>
				<port id="1" precision="FP32">
					<dim>1</dim>
				</port>
			</input>
			<output>
				<port id="2" precision="FP32">
					<dim>4</dim>
				</port>
			</output>
		</layer>
		<layer id="85" name="Resize_79/StridedSlice_scales_input_port_1/value36992220228" type="Const" version="opset1">
			<data element_type="i64" shape="1" offset="33128" size="8"/>
			<output>
				<port id="0" precision="I64">
					<dim>1</dim>
				</port>
			</output>
		</layer>
		<layer id="86" name="Resize_79/StridedSlice_scales_input_port_2/value36994225226" type="Const" version="opset1">
			<data element_type="i64" shape="1" offset="33136" size="8"/>
			<output>
				<port id="0" precision="I64">
					<dim>1</dim>
				</port>
			</output>
		</layer>
		<layer id="87" name="Resize_79/StridedSlice_scales_input_port_3/value36996219670" type="Const" version="opset1">
			<data element_type="i64" shape="1" offset="3584" size="8"/>
			<output>
				<port id="0" precision="I64">
					<dim>1</dim>
				</port>
			</output>
		</layer>
		<layer id="88" name="Resize_79/StridedSlice_scales" type="StridedSlice" version="opset1">
			<data begin_mask="0" end_mask="0" new_axis_mask="0" shrink_axis_mask="0" ellipsis_mask="0"/>
			<input>
				<port id="0" precision="FP32">
					<dim>4</dim>
				</port>
				<port id="1" precision="I64">
					<dim>1</dim>
				</port>
				<port id="2" precision="I64">
					<dim>1</dim>
				</port>
				<port id="3" precision="I64">
					<dim>1</dim>
				</port>
			</input>
			<output>
				<port id="4" precision="FP32">
					<dim>2</dim>
				</port>
			</output>
		</layer>
		<layer id="89" name="Resize_79/axis36999220264" type="Const" version="opset1">
			<data element_type="i64" shape="2" offset="33144" size="16"/>
			<output>
				<port id="0" precision="I64">
					<dim>2</dim>
				</port>
			</output>
		</layer>
		<layer id="90" name="Resize_79" type="Interpolate" version="opset4">
			<data mode="nearest" shape_calculation_mode="sizes" coordinate_transformation_mode="asymmetric" nearest_mode="floor" antialias="false" pads_begin="0, 0, 0, 0" pads_end="0, 0, 0, 0" cube_coeff="-0.75"/>
			<input>
				<port id="0" precision="FP32">
					<dim>1</dim>
					<dim>20</dim>
					<dim>48</dim>
					<dim>36</dim>
				</port>
				<port id="1" precision="I64">
					<dim>2</dim>
				</port>
				<port id="2" precision="FP32">
					<dim>2</dim>
				</port>
				<port id="3" precision="I64">
					<dim>2</dim>
				</port>
			</input>
			<output>
				<port id="4" precision="FP32" names="2476">
					<dim>1</dim>
					<dim>20</dim>
					<dim>96</dim>
					<dim>72</dim>
				</port>
			</output>
		</layer>
		<layer id="91" name="Mul_80" type="Multiply" version="opset1">
			<data auto_broadcast="numpy"/>
			<input>
				<port id="0" precision="FP32">
					<dim>1</dim>
					<dim>20</dim>
					<dim>96</dim>
					<dim>72</dim>
				</port>
				<port id="1" precision="FP32">
					<dim>1</dim>
					<dim>20</dim>
					<dim>96</dim>
					<dim>72</dim>
				</port>
			</input>
			<output>
				<port id="2" precision="FP32" names="2477">
					<dim>1</dim>
					<dim>20</dim>
					<dim>96</dim>
					<dim>72</dim>
				</port>
			</output>
		</layer>
		<layer id="92" name="10200" type="Const" version="opset1">
			<data element_type="f32" shape="20, 1, 1, 3, 3" offset="33160" size="720"/>
			<output>
				<port id="0" precision="FP32" names="10200">
					<dim>20</dim>
					<dim>1</dim>
					<dim>1</dim>
					<dim>3</dim>
					<dim>3</dim>
				</port>
			</output>
		</layer>
		<layer id="93" name="Conv_91/WithoutBiases" type="GroupConvolution" version="opset1">
			<data strides="1, 1" pads_begin="1, 1" pads_end="1, 1" dilations="1, 1" auto_pad="explicit"/>
			<input>
				<port id="0" precision="FP32">
					<dim>1</dim>
					<dim>20</dim>
					<dim>96</dim>
					<dim>72</dim>
				</port>
				<port id="1" precision="FP32">
					<dim>20</dim>
					<dim>1</dim>
					<dim>1</dim>
					<dim>3</dim>
					<dim>3</dim>
				</port>
			</input>
			<output>
				<port id="2" precision="FP32">
					<dim>1</dim>
					<dim>20</dim>
					<dim>96</dim>
					<dim>72</dim>
				</port>
			</output>
		</layer>
		<layer id="94" name="Conv_91/Dims51127" type="Const" version="opset1">
			<data element_type="f32" shape="1, 20, 1, 1" offset="33880" size="80"/>
			<output>
				<port id="0" precision="FP32">
					<dim>1</dim>
					<dim>20</dim>
					<dim>1</dim>
					<dim>1</dim>
				</port>
			</output>
		</layer>
		<layer id="95" name="Conv_91" type="Add" version="opset1">
			<data auto_broadcast="numpy"/>
			<input>
				<port id="0" precision="FP32">
					<dim>1</dim>
					<dim>20</dim>
					<dim>96</dim>
					<dim>72</dim>
				</port>
				<port id="1" precision="FP32">
					<dim>1</dim>
					<dim>20</dim>
					<dim>1</dim>
					<dim>1</dim>
				</port>
			</input>
			<output>
				<port id="2" precision="FP32" names="10199">
					<dim>1</dim>
					<dim>20</dim>
					<dim>96</dim>
					<dim>72</dim>
				</port>
			</output>
		</layer>
		<layer id="96" name="3585" type="Const" version="opset1">
			<data element_type="i64" shape="" offset="33128" size="8"/>
			<output>
				<port id="0" precision="I64"/>
			</output>
		</layer>
		<layer id="97" name="GlobalAveragePool_93/input_rank/shape_of" type="ShapeOf" version="opset3">
			<data output_type="i64"/>
			<input>
				<port id="0" precision="FP32">
					<dim>1</dim>
					<dim>20</dim>
					<dim>96</dim>
					<dim>72</dim>
				</port>
			</input>
			<output>
				<port id="1" precision="I64">
					<dim>4</dim>
				</port>
			</output>
		</layer>
		<layer id="98" name="GlobalAveragePool_93/input_rank/rank_of" type="ShapeOf" version="opset3">
			<data output_type="i64"/>
			<input>
				<port id="0" precision="I64">
					<dim>4</dim>
				</port>
			</input>
			<output>
				<port id="1" precision="I64">
					<dim>1</dim>
				</port>
			</output>
		</layer>
		<layer id="99" name="GlobalAveragePool_93/input_rank/0d_rank_of/value" type="Const" version="opset1">
			<data element_type="i64" shape="1" offset="33960" size="8"/>
			<output>
				<port id="0" precision="I64">
					<dim>1</dim>
				</port>
			</output>
		</layer>
		<layer id="100" name="GlobalAveragePool_93/input_rank" type="Squeeze" version="opset1">
			<input>
				<port id="0" precision="I64">
					<dim>1</dim>
				</port>
				<port id="1" precision="I64">
					<dim>1</dim>
				</port>
			</input>
			<output>
				<port id="2" precision="I64"/>
			</output>
		</layer>
		<layer id="101" name="3587" type="Const" version="opset1">
			<data element_type="i64" shape="" offset="3584" size="8"/>
			<output>
				<port id="0" precision="I64"/>
			</output>
		</layer>
		<layer id="102" name="GlobalAveragePool_93/global_pooling_reduce_axis" type="Range" version="opset4">
			<data output_type="i64"/>
			<input>
				<port id="0" precision="I64"/>
				<port id="1" precision="I64"/>
				<port id="2" precision="I64"/>
			</input>
			<output>
				<port id="3" precision="I64">
					<dim>2</dim>
				</port>
			</output>
		</layer>
		<layer id="103" name="GlobalAveragePool_93/reduce" type="ReduceMean" version="opset1">
			<data keep_dims="true"/>
			<input>
				<port id="0" precision="FP32">
					<dim>1</dim>
					<dim>20</dim>
					<dim>96</dim>
					<dim>72</dim>
				</port>
				<port id="1" precision="I64">
					<dim>2</dim>
				</port>
			</input>
			<output>
				<port id="2" precision="FP32" names="2498">
					<dim>1</dim>
					<dim>20</dim>
					<dim>1</dim>
					<dim>1</dim>
				</port>
			</output>
		</layer>
		<layer id="104" name="backbone.stage0.0.layers.0.spatial_weighting.0.conv1.conv.weight" type="Const" version="opset1">
			<data element_type="f32" shape="5, 20, 1, 1" offset="33968" size="400"/>
			<output>
				<port id="0" precision="FP32" names="backbone.stage0.0.layers.0.spatial_weighting.0.conv1.conv.weight">
					<dim>5</dim>
					<dim>20</dim>
					<dim>1</dim>
					<dim>1</dim>
				</port>
			</output>
		</layer>
		<layer id="105" name="Conv_94/WithoutBiases" type="Convolution" version="opset1">
			<data strides="1, 1" dilations="1, 1" pads_begin="0, 0" pads_end="0, 0" auto_pad="explicit"/>
			<input>
				<port id="0" precision="FP32">
					<dim>1</dim>
					<dim>20</dim>
					<dim>1</dim>
					<dim>1</dim>
				</port>
				<port id="1" precision="FP32">
					<dim>5</dim>
					<dim>20</dim>
					<dim>1</dim>
					<dim>1</dim>
				</port>
			</input>
			<output>
				<port id="2" precision="FP32">
					<dim>1</dim>
					<dim>5</dim>
					<dim>1</dim>
					<dim>1</dim>
				</port>
			</output>
		</layer>
		<layer id="106" name="Conv_94/Dims54277" type="Const" version="opset1">
			<data element_type="f32" shape="1, 5, 1, 1" offset="34368" size="20"/>
			<output>
				<port id="0" precision="FP32">
					<dim>1</dim>
					<dim>5</dim>
					<dim>1</dim>
					<dim>1</dim>
				</port>
			</output>
		</layer>
		<layer id="107" name="Conv_94" type="Add" version="opset1">
			<data auto_broadcast="numpy"/>
			<input>
				<port id="0" precision="FP32">
					<dim>1</dim>
					<dim>5</dim>
					<dim>1</dim>
					<dim>1</dim>
				</port>
				<port id="1" precision="FP32">
					<dim>1</dim>
					<dim>5</dim>
					<dim>1</dim>
					<dim>1</dim>
				</port>
			</input>
			<output>
				<port id="2" precision="FP32" names="2499">
					<dim>1</dim>
					<dim>5</dim>
					<dim>1</dim>
					<dim>1</dim>
				</port>
			</output>
		</layer>
		<layer id="108" name="Relu_95" type="ReLU" version="opset1">
			<input>
				<port id="0" precision="FP32">
					<dim>1</dim>
					<dim>5</dim>
					<dim>1</dim>
					<dim>1</dim>
				</port>
			</input>
			<output>
				<port id="1" precision="FP32" names="2500">
					<dim>1</dim>
					<dim>5</dim>
					<dim>1</dim>
					<dim>1</dim>
				</port>
			</output>
		</layer>
		<layer id="109" name="backbone.stage0.0.layers.0.spatial_weighting.0.conv2.conv.weight" type="Const" version="opset1">
			<data element_type="f32" shape="20, 5, 1, 1" offset="34388" size="400"/>
			<output>
				<port id="0" precision="FP32" names="backbone.stage0.0.layers.0.spatial_weighting.0.conv2.conv.weight">
					<dim>20</dim>
					<dim>5</dim>
					<dim>1</dim>
					<dim>1</dim>
				</port>
			</output>
		</layer>
		<layer id="110" name="Conv_96/WithoutBiases" type="Convolution" version="opset1">
			<data strides="1, 1" dilations="1, 1" pads_begin="0, 0" pads_end="0, 0" auto_pad="explicit"/>
			<input>
				<port id="0" precision="FP32">
					<dim>1</dim>
					<dim>5</dim>
					<dim>1</dim>
					<dim>1</dim>
				</port>
				<port id="1" precision="FP32">
					<dim>20</dim>
					<dim>5</dim>
					<dim>1</dim>
					<dim>1</dim>
				</port>
			</input>
			<output>
				<port id="2" precision="FP32">
					<dim>1</dim>
					<dim>20</dim>
					<dim>1</dim>
					<dim>1</dim>
				</port>
			</output>
		</layer>
		<layer id="111" name="Conv_96/Dims53287" type="Const" version="opset1">
			<data element_type="f32" shape="1, 20, 1, 1" offset="34788" size="80"/>
			<output>
				<port id="0" precision="FP32">
					<dim>1</dim>
					<dim>20</dim>
					<dim>1</dim>
					<dim>1</dim>
				</port>
			</output>
		</layer>
		<layer id="112" name="Conv_96" type="Add" version="opset1">
			<data auto_broadcast="numpy"/>
			<input>
				<port id="0" precision="FP32">
					<dim>1</dim>
					<dim>20</dim>
					<dim>1</dim>
					<dim>1</dim>
				</port>
				<port id="1" precision="FP32">
					<dim>1</dim>
					<dim>20</dim>
					<dim>1</dim>
					<dim>1</dim>
				</port>
			</input>
			<output>
				<port id="2" precision="FP32" names="2501">
					<dim>1</dim>
					<dim>20</dim>
					<dim>1</dim>
					<dim>1</dim>
				</port>
			</output>
		</layer>
		<layer id="113" name="Sigmoid_97" type="Sigmoid" version="opset1">
			<input>
				<port id="0" precision="FP32">
					<dim>1</dim>
					<dim>20</dim>
					<dim>1</dim>
					<dim>1</dim>
				</port>
			</input>
			<output>
				<port id="1" precision="FP32" names="2502">
					<dim>1</dim>
					<dim>20</dim>
					<dim>1</dim>
					<dim>1</dim>
				</port>
			</output>
		</layer>
		<layer id="114" name="Mul_98" type="Multiply" version="opset1">
			<data auto_broadcast="numpy"/>
			<input>
				<port id="0" precision="FP32">
					<dim>1</dim>
					<dim>20</dim>
					<dim>96</dim>
					<dim>72</dim>
				</port>
				<port id="1" precision="FP32">
					<dim>1</dim>
					<dim>20</dim>
					<dim>1</dim>
					<dim>1</dim>
				</port>
			</input>
			<output>
				<port id="2" precision="FP32" names="2503">
					<dim>1</dim>
					<dim>20</dim>
					<dim>96</dim>
					<dim>72</dim>
				</port>
			</output>
		</layer>
		<layer id="115" name="Concat_105" type="Concat" version="opset1">
			<data axis="1"/>
			<input>
				<port id="0" precision="FP32">
					<dim>1</dim>
					<dim>20</dim>
					<dim>96</dim>
					<dim>72</dim>
				</port>
				<port id="1" precision="FP32">
					<dim>1</dim>
					<dim>20</dim>
					<dim>96</dim>
					<dim>72</dim>
				</port>
			</input>
			<output>
				<port id="2" precision="FP32" names="2510">
					<dim>1</dim>
					<dim>40</dim>
					<dim>96</dim>
					<dim>72</dim>
				</port>
			</output>
		</layer>
		<layer id="116" name="11468219085" type="Const" version="opset1">
			<data element_type="i64" shape="5" offset="34868" size="40"/>
			<output>
				<port id="0" precision="I64" names="11468">
					<dim>5</dim>
				</port>
			</output>
		</layer>
		<layer id="117" name="Reshape_107" type="Reshape" version="opset1">
			<data special_zero="true"/>
			<input>
				<port id="0" precision="FP32">
					<dim>1</dim>
					<dim>40</dim>
					<dim>96</dim>
					<dim>72</dim>
				</port>
				<port id="1" precision="I64">
					<dim>5</dim>
				</port>
			</input>
			<output>
				<port id="2" precision="FP32" names="2523">
					<dim>1</dim>
					<dim>2</dim>
					<dim>20</dim>
					<dim>96</dim>
					<dim>72</dim>
				</port>
			</output>
		</layer>
		<layer id="118" name="3570" type="Const" version="opset1">
			<data element_type="i64" shape="5" offset="10944" size="40"/>
			<output>
				<port id="0" precision="I64">
					<dim>5</dim>
				</port>
			</output>
		</layer>
		<layer id="119" name="Transpose_108" type="Transpose" version="opset1">
			<input>
				<port id="0" precision="FP32">
					<dim>1</dim>
					<dim>2</dim>
					<dim>20</dim>
					<dim>96</dim>
					<dim>72</dim>
				</port>
				<port id="1" precision="I64">
					<dim>5</dim>
				</port>
			</input>
			<output>
				<port id="2" precision="FP32" names="2524">
					<dim>1</dim>
					<dim>20</dim>
					<dim>2</dim>
					<dim>96</dim>
					<dim>72</dim>
				</port>
			</output>
		</layer>
		<layer id="120" name="11454" type="Const" version="opset1">
			<data element_type="i64" shape="4" offset="10984" size="32"/>
			<output>
				<port id="0" precision="I64" names="11454">
					<dim>4</dim>
				</port>
			</output>
		</layer>
		<layer id="121" name="Reshape_109" type="Reshape" version="opset1">
			<data special_zero="true"/>
			<input>
				<port id="0" precision="FP32">
					<dim>1</dim>
					<dim>20</dim>
					<dim>2</dim>
					<dim>96</dim>
					<dim>72</dim>
				</port>
				<port id="1" precision="I64">
					<dim>4</dim>
				</port>
			</input>
			<output>
				<port id="2" precision="FP32" names="2531">
					<dim>1</dim>
					<dim>40</dim>
					<dim>96</dim>
					<dim>72</dim>
				</port>
			</output>
		</layer>
		<layer id="122" name="68994217783" type="Const" version="opset1">
			<data element_type="i64" shape="" offset="3584" size="8"/>
			<output>
				<port id="0" precision="I64"/>
			</output>
		</layer>
		<layer id="123" name="68996225475" type="Const" version="opset1">
			<data element_type="i64" shape="2" offset="17576" size="16"/>
			<output>
				<port id="0" precision="I64">
					<dim>2</dim>
				</port>
			</output>
		</layer>
		<layer id="124" name="Slice_123/Split" type="VariadicSplit" version="opset1">
			<input>
				<port id="0" precision="FP32">
					<dim>1</dim>
					<dim>40</dim>
					<dim>96</dim>
					<dim>72</dim>
				</port>
				<port id="1" precision="I64"/>
				<port id="2" precision="I64">
					<dim>2</dim>
				</port>
			</input>
			<output>
				<port id="3" precision="FP32" names="2562">
					<dim>1</dim>
					<dim>20</dim>
					<dim>96</dim>
					<dim>72</dim>
				</port>
				<port id="4" precision="FP32" names="2565">
					<dim>1</dim>
					<dim>20</dim>
					<dim>96</dim>
					<dim>72</dim>
				</port>
			</output>
		</layer>
		<layer id="125" name="AveragePool_143" type="AvgPool" version="opset1">
			<data kernel="2, 2" strides="2, 2" pads_begin="0, 0" pads_end="0, 0" exclude-pad="true" auto_pad="explicit" rounding_type="floor"/>
			<input>
				<port id="0" precision="FP32">
					<dim>1</dim>
					<dim>20</dim>
					<dim>96</dim>
					<dim>72</dim>
				</port>
			</input>
			<output>
				<port id="1" precision="FP32" names="2582">
					<dim>1</dim>
					<dim>20</dim>
					<dim>48</dim>
					<dim>36</dim>
				</port>
			</output>
		</layer>
		<layer id="126" name="Resize_89/StridedSlice_sizes37045222364" type="Const" version="opset1">
			<data element_type="i64" shape="2" offset="34908" size="16"/>
			<output>
				<port id="0" precision="I64">
					<dim>2</dim>
				</port>
			</output>
		</layer>
		<layer id="127" name="3703737039224176" type="Const" version="opset1">
			<data element_type="f32" shape="4" offset="34924" size="16"/>
			<output>
				<port id="0" precision="FP32">
					<dim>4</dim>
				</port>
			</output>
		</layer>
		<layer id="128" name="Resize_89/ShapeOf" type="ShapeOf" version="opset3">
			<data output_type="i64"/>
			<input>
				<port id="0" precision="FP32">
					<dim>1</dim>
					<dim>40</dim>
					<dim>48</dim>
					<dim>36</dim>
				</port>
			</input>
			<output>
				<port id="1" precision="I64">
					<dim>4</dim>
				</port>
			</output>
		</layer>
		<layer id="129" name="37036" type="Convert" version="opset1">
			<data destination_type="f32"/>
			<input>
				<port id="0" precision="I64">
					<dim>4</dim>
				</port>
			</input>
			<output>
				<port id="1" precision="FP32">
					<dim>4</dim>
				</port>
			</output>
		</layer>
		<layer id="130" name="Resize_89/Div" type="Divide" version="opset1">
			<data auto_broadcast="numpy" m_pythondiv="true"/>
			<input>
				<port id="0" precision="FP32">
					<dim>4</dim>
				</port>
				<port id="1" precision="FP32">
					<dim>4</dim>
				</port>
			</input>
			<output>
				<port id="2" precision="FP32">
					<dim>4</dim>
				</port>
			</output>
		</layer>
		<layer id="131" name="Resize_89/Add_input_port_1/value37035223699" type="Const" version="opset1">
			<data element_type="f32" shape="1" offset="33124" size="4"/>
			<output>
				<port id="0" precision="FP32">
					<dim>1</dim>
				</port>
			</output>
		</layer>
		<layer id="132" name="Resize_89/Add" type="Add" version="opset1">
			<data auto_broadcast="numpy"/>
			<input>
				<port id="0" precision="FP32">
					<dim>4</dim>
				</port>
				<port id="1" precision="FP32">
					<dim>1</dim>
				</port>
			</input>
			<output>
				<port id="2" precision="FP32">
					<dim>4</dim>
				</port>
			</output>
		</layer>
		<layer id="133" name="Resize_89/StridedSlice_scales_input_port_1/value37024221944" type="Const" version="opset1">
			<data element_type="i64" shape="1" offset="33128" size="8"/>
			<output>
				<port id="0" precision="I64">
					<dim>1</dim>
				</port>
			</output>
		</layer>
		<layer id="134" name="Resize_89/StridedSlice_scales_input_port_2/value37026220156" type="Const" version="opset1">
			<data element_type="i64" shape="1" offset="33136" size="8"/>
			<output>
				<port id="0" precision="I64">
					<dim>1</dim>
				</port>
			</output>
		</layer>
		<layer id="135" name="Resize_89/StridedSlice_scales_input_port_3/value37028217753" type="Const" version="opset1">
			<data element_type="i64" shape="1" offset="3584" size="8"/>
			<output>
				<port id="0" precision="I64">
					<dim>1</dim>
				</port>
			</output>
		</layer>
		<layer id="136" name="Resize_89/StridedSlice_scales" type="StridedSlice" version="opset1">
			<data begin_mask="0" end_mask="0" new_axis_mask="0" shrink_axis_mask="0" ellipsis_mask="0"/>
			<input>
				<port id="0" precision="FP32">
					<dim>4</dim>
				</port>
				<port id="1" precision="I64">
					<dim>1</dim>
				</port>
				<port id="2" precision="I64">
					<dim>1</dim>
				</port>
				<port id="3" precision="I64">
					<dim>1</dim>
				</port>
			</input>
			<output>
				<port id="4" precision="FP32">
					<dim>2</dim>
				</port>
			</output>
		</layer>
		<layer id="137" name="Resize_89/axis37031217459" type="Const" version="opset1">
			<data element_type="i64" shape="2" offset="33144" size="16"/>
			<output>
				<port id="0" precision="I64">
					<dim>2</dim>
				</port>
			</output>
		</layer>
		<layer id="138" name="Resize_89" type="Interpolate" version="opset4">
			<data mode="nearest" shape_calculation_mode="sizes" coordinate_transformation_mode="asymmetric" nearest_mode="floor" antialias="false" pads_begin="0, 0, 0, 0" pads_end="0, 0, 0, 0" cube_coeff="-0.75"/>
			<input>
				<port id="0" precision="FP32">
					<dim>1</dim>
					<dim>40</dim>
					<dim>48</dim>
					<dim>36</dim>
				</port>
				<port id="1" precision="I64">
					<dim>2</dim>
				</port>
				<port id="2" precision="FP32">
					<dim>2</dim>
				</port>
				<port id="3" precision="I64">
					<dim>2</dim>
				</port>
			</input>
			<output>
				<port id="4" precision="FP32" names="2492">
					<dim>1</dim>
					<dim>40</dim>
					<dim>48</dim>
					<dim>36</dim>
				</port>
			</output>
		</layer>
		<layer id="139" name="Mul_90" type="Multiply" version="opset1">
			<data auto_broadcast="numpy"/>
			<input>
				<port id="0" precision="FP32">
					<dim>1</dim>
					<dim>40</dim>
					<dim>48</dim>
					<dim>36</dim>
				</port>
				<port id="1" precision="FP32">
					<dim>1</dim>
					<dim>40</dim>
					<dim>48</dim>
					<dim>36</dim>
				</port>
			</input>
			<output>
				<port id="2" precision="FP32" names="2493">
					<dim>1</dim>
					<dim>40</dim>
					<dim>48</dim>
					<dim>36</dim>
				</port>
			</output>
		</layer>
		<layer id="140" name="10203" type="Const" version="opset1">
			<data element_type="f32" shape="40, 1, 1, 3, 3" offset="34940" size="1440"/>
			<output>
				<port id="0" precision="FP32" names="10203">
					<dim>40</dim>
					<dim>1</dim>
					<dim>1</dim>
					<dim>3</dim>
					<dim>3</dim>
				</port>
			</output>
		</layer>
		<layer id="141" name="Conv_92/WithoutBiases" type="GroupConvolution" version="opset1">
			<data strides="1, 1" pads_begin="1, 1" pads_end="1, 1" dilations="1, 1" auto_pad="explicit"/>
			<input>
				<port id="0" precision="FP32">
					<dim>1</dim>
					<dim>40</dim>
					<dim>48</dim>
					<dim>36</dim>
				</port>
				<port id="1" precision="FP32">
					<dim>40</dim>
					<dim>1</dim>
					<dim>1</dim>
					<dim>3</dim>
					<dim>3</dim>
				</port>
			</input>
			<output>
				<port id="2" precision="FP32">
					<dim>1</dim>
					<dim>40</dim>
					<dim>48</dim>
					<dim>36</dim>
				</port>
			</output>
		</layer>
		<layer id="142" name="Conv_92/Dims51865" type="Const" version="opset1">
			<data element_type="f32" shape="1, 40, 1, 1" offset="36380" size="160"/>
			<output>
				<port id="0" precision="FP32">
					<dim>1</dim>
					<dim>40</dim>
					<dim>1</dim>
					<dim>1</dim>
				</port>
			</output>
		</layer>
		<layer id="143" name="Conv_92" type="Add" version="opset1">
			<data auto_broadcast="numpy"/>
			<input>
				<port id="0" precision="FP32">
					<dim>1</dim>
					<dim>40</dim>
					<dim>48</dim>
					<dim>36</dim>
				</port>
				<port id="1" precision="FP32">
					<dim>1</dim>
					<dim>40</dim>
					<dim>1</dim>
					<dim>1</dim>
				</port>
			</input>
			<output>
				<port id="2" precision="FP32" names="10202">
					<dim>1</dim>
					<dim>40</dim>
					<dim>48</dim>
					<dim>36</dim>
				</port>
			</output>
		</layer>
		<layer id="144" name="3590" type="Const" version="opset1">
			<data element_type="i64" shape="" offset="33128" size="8"/>
			<output>
				<port id="0" precision="I64"/>
			</output>
		</layer>
		<layer id="145" name="GlobalAveragePool_99/input_rank/shape_of" type="ShapeOf" version="opset3">
			<data output_type="i64"/>
			<input>
				<port id="0" precision="FP32">
					<dim>1</dim>
					<dim>40</dim>
					<dim>48</dim>
					<dim>36</dim>
				</port>
			</input>
			<output>
				<port id="1" precision="I64">
					<dim>4</dim>
				</port>
			</output>
		</layer>
		<layer id="146" name="GlobalAveragePool_99/input_rank/rank_of" type="ShapeOf" version="opset3">
			<data output_type="i64"/>
			<input>
				<port id="0" precision="I64">
					<dim>4</dim>
				</port>
			</input>
			<output>
				<port id="1" precision="I64">
					<dim>1</dim>
				</port>
			</output>
		</layer>
		<layer id="147" name="GlobalAveragePool_99/input_rank/0d_rank_of/value" type="Const" version="opset1">
			<data element_type="i64" shape="1" offset="33960" size="8"/>
			<output>
				<port id="0" precision="I64">
					<dim>1</dim>
				</port>
			</output>
		</layer>
		<layer id="148" name="GlobalAveragePool_99/input_rank" type="Squeeze" version="opset1">
			<input>
				<port id="0" precision="I64">
					<dim>1</dim>
				</port>
				<port id="1" precision="I64">
					<dim>1</dim>
				</port>
			</input>
			<output>
				<port id="2" precision="I64"/>
			</output>
		</layer>
		<layer id="149" name="3592" type="Const" version="opset1">
			<data element_type="i64" shape="" offset="3584" size="8"/>
			<output>
				<port id="0" precision="I64"/>
			</output>
		</layer>
		<layer id="150" name="GlobalAveragePool_99/global_pooling_reduce_axis" type="Range" version="opset4">
			<data output_type="i64"/>
			<input>
				<port id="0" precision="I64"/>
				<port id="1" precision="I64"/>
				<port id="2" precision="I64"/>
			</input>
			<output>
				<port id="3" precision="I64">
					<dim>2</dim>
				</port>
			</output>
		</layer>
		<layer id="151" name="GlobalAveragePool_99/reduce" type="ReduceMean" version="opset1">
			<data keep_dims="true"/>
			<input>
				<port id="0" precision="FP32">
					<dim>1</dim>
					<dim>40</dim>
					<dim>48</dim>
					<dim>36</dim>
				</port>
				<port id="1" precision="I64">
					<dim>2</dim>
				</port>
			</input>
			<output>
				<port id="2" precision="FP32" names="2504">
					<dim>1</dim>
					<dim>40</dim>
					<dim>1</dim>
					<dim>1</dim>
				</port>
			</output>
		</layer>
		<layer id="152" name="backbone.stage0.0.layers.0.spatial_weighting.1.conv1.conv.weight" type="Const" version="opset1">
			<data element_type="f32" shape="10, 40, 1, 1" offset="36540" size="1600"/>
			<output>
				<port id="0" precision="FP32" names="backbone.stage0.0.layers.0.spatial_weighting.1.conv1.conv.weight">
					<dim>10</dim>
					<dim>40</dim>
					<dim>1</dim>
					<dim>1</dim>
				</port>
			</output>
		</layer>
		<layer id="153" name="Conv_100/WithoutBiases" type="Convolution" version="opset1">
			<data strides="1, 1" dilations="1, 1" pads_begin="0, 0" pads_end="0, 0" auto_pad="explicit"/>
			<input>
				<port id="0" precision="FP32">
					<dim>1</dim>
					<dim>40</dim>
					<dim>1</dim>
					<dim>1</dim>
				</port>
				<port id="1" precision="FP32">
					<dim>10</dim>
					<dim>40</dim>
					<dim>1</dim>
					<dim>1</dim>
				</port>
			</input>
			<output>
				<port id="2" precision="FP32">
					<dim>1</dim>
					<dim>10</dim>
					<dim>1</dim>
					<dim>1</dim>
				</port>
			</output>
		</layer>
		<layer id="154" name="Conv_100/Dims53125" type="Const" version="opset1">
			<data element_type="f32" shape="1, 10, 1, 1" offset="38140" size="40"/>
			<output>
				<port id="0" precision="FP32">
					<dim>1</dim>
					<dim>10</dim>
					<dim>1</dim>
					<dim>1</dim>
				</port>
			</output>
		</layer>
		<layer id="155" name="Conv_100" type="Add" version="opset1">
			<data auto_broadcast="numpy"/>
			<input>
				<port id="0" precision="FP32">
					<dim>1</dim>
					<dim>10</dim>
					<dim>1</dim>
					<dim>1</dim>
				</port>
				<port id="1" precision="FP32">
					<dim>1</dim>
					<dim>10</dim>
					<dim>1</dim>
					<dim>1</dim>
				</port>
			</input>
			<output>
				<port id="2" precision="FP32" names="2505">
					<dim>1</dim>
					<dim>10</dim>
					<dim>1</dim>
					<dim>1</dim>
				</port>
			</output>
		</layer>
		<layer id="156" name="Relu_101" type="ReLU" version="opset1">
			<input>
				<port id="0" precision="FP32">
					<dim>1</dim>
					<dim>10</dim>
					<dim>1</dim>
					<dim>1</dim>
				</port>
			</input>
			<output>
				<port id="1" precision="FP32" names="2506">
					<dim>1</dim>
					<dim>10</dim>
					<dim>1</dim>
					<dim>1</dim>
				</port>
			</output>
		</layer>
		<layer id="157" name="backbone.stage0.0.layers.0.spatial_weighting.1.conv2.conv.weight" type="Const" version="opset1">
			<data element_type="f32" shape="40, 10, 1, 1" offset="38180" size="1600"/>
			<output>
				<port id="0" precision="FP32" names="backbone.stage0.0.layers.0.spatial_weighting.1.conv2.conv.weight">
					<dim>40</dim>
					<dim>10</dim>
					<dim>1</dim>
					<dim>1</dim>
				</port>
			</output>
		</layer>
		<layer id="158" name="Conv_102/WithoutBiases" type="Convolution" version="opset1">
			<data strides="1, 1" dilations="1, 1" pads_begin="0, 0" pads_end="0, 0" auto_pad="explicit"/>
			<input>
				<port id="0" precision="FP32">
					<dim>1</dim>
					<dim>10</dim>
					<dim>1</dim>
					<dim>1</dim>
				</port>
				<port id="1" precision="FP32">
					<dim>40</dim>
					<dim>10</dim>
					<dim>1</dim>
					<dim>1</dim>
				</port>
			</input>
			<output>
				<port id="2" precision="FP32">
					<dim>1</dim>
					<dim>40</dim>
					<dim>1</dim>
					<dim>1</dim>
				</port>
			</output>
		</layer>
		<layer id="159" name="Conv_102/Dims51445" type="Const" version="opset1">
			<data element_type="f32" shape="1, 40, 1, 1" offset="39780" size="160"/>
			<output>
				<port id="0" precision="FP32">
					<dim>1</dim>
					<dim>40</dim>
					<dim>1</dim>
					<dim>1</dim>
				</port>
			</output>
		</layer>
		<layer id="160" name="Conv_102" type="Add" version="opset1">
			<data auto_broadcast="numpy"/>
			<input>
				<port id="0" precision="FP32">
					<dim>1</dim>
					<dim>40</dim>
					<dim>1</dim>
					<dim>1</dim>
				</port>
				<port id="1" precision="FP32">
					<dim>1</dim>
					<dim>40</dim>
					<dim>1</dim>
					<dim>1</dim>
				</port>
			</input>
			<output>
				<port id="2" precision="FP32" names="2507">
					<dim>1</dim>
					<dim>40</dim>
					<dim>1</dim>
					<dim>1</dim>
				</port>
			</output>
		</layer>
		<layer id="161" name="Sigmoid_103" type="Sigmoid" version="opset1">
			<input>
				<port id="0" precision="FP32">
					<dim>1</dim>
					<dim>40</dim>
					<dim>1</dim>
					<dim>1</dim>
				</port>
			</input>
			<output>
				<port id="1" precision="FP32" names="2508">
					<dim>1</dim>
					<dim>40</dim>
					<dim>1</dim>
					<dim>1</dim>
				</port>
			</output>
		</layer>
		<layer id="162" name="Mul_104" type="Multiply" version="opset1">
			<data auto_broadcast="numpy"/>
			<input>
				<port id="0" precision="FP32">
					<dim>1</dim>
					<dim>40</dim>
					<dim>48</dim>
					<dim>36</dim>
				</port>
				<port id="1" precision="FP32">
					<dim>1</dim>
					<dim>40</dim>
					<dim>1</dim>
					<dim>1</dim>
				</port>
			</input>
			<output>
				<port id="2" precision="FP32" names="2509">
					<dim>1</dim>
					<dim>40</dim>
					<dim>48</dim>
					<dim>36</dim>
				</port>
			</output>
		</layer>
		<layer id="163" name="Concat_106" type="Concat" version="opset1">
			<data axis="1"/>
			<input>
				<port id="0" precision="FP32">
					<dim>1</dim>
					<dim>40</dim>
					<dim>48</dim>
					<dim>36</dim>
				</port>
				<port id="1" precision="FP32">
					<dim>1</dim>
					<dim>40</dim>
					<dim>48</dim>
					<dim>36</dim>
				</port>
			</input>
			<output>
				<port id="2" precision="FP32" names="2511">
					<dim>1</dim>
					<dim>80</dim>
					<dim>48</dim>
					<dim>36</dim>
				</port>
			</output>
		</layer>
		<layer id="164" name="11479" type="Const" version="opset1">
			<data element_type="i64" shape="5" offset="39940" size="40"/>
			<output>
				<port id="0" precision="I64" names="11479">
					<dim>5</dim>
				</port>
			</output>
		</layer>
		<layer id="165" name="Reshape_110" type="Reshape" version="opset1">
			<data special_zero="true"/>
			<input>
				<port id="0" precision="FP32">
					<dim>1</dim>
					<dim>80</dim>
					<dim>48</dim>
					<dim>36</dim>
				</port>
				<port id="1" precision="I64">
					<dim>5</dim>
				</port>
			</input>
			<output>
				<port id="2" precision="FP32" names="2543">
					<dim>1</dim>
					<dim>2</dim>
					<dim>40</dim>
					<dim>48</dim>
					<dim>36</dim>
				</port>
			</output>
		</layer>
		<layer id="166" name="3518" type="Const" version="opset1">
			<data element_type="i64" shape="5" offset="10944" size="40"/>
			<output>
				<port id="0" precision="I64">
					<dim>5</dim>
				</port>
			</output>
		</layer>
		<layer id="167" name="Transpose_111" type="Transpose" version="opset1">
			<input>
				<port id="0" precision="FP32">
					<dim>1</dim>
					<dim>2</dim>
					<dim>40</dim>
					<dim>48</dim>
					<dim>36</dim>
				</port>
				<port id="1" precision="I64">
					<dim>5</dim>
				</port>
			</input>
			<output>
				<port id="2" precision="FP32" names="2544">
					<dim>1</dim>
					<dim>40</dim>
					<dim>2</dim>
					<dim>48</dim>
					<dim>36</dim>
				</port>
			</output>
		</layer>
		<layer id="168" name="11484" type="Const" version="opset1">
			<data element_type="i64" shape="4" offset="39980" size="32"/>
			<output>
				<port id="0" precision="I64" names="11484">
					<dim>4</dim>
				</port>
			</output>
		</layer>
		<layer id="169" name="Reshape_112" type="Reshape" version="opset1">
			<data special_zero="true"/>
			<input>
				<port id="0" precision="FP32">
					<dim>1</dim>
					<dim>40</dim>
					<dim>2</dim>
					<dim>48</dim>
					<dim>36</dim>
				</port>
				<port id="1" precision="I64">
					<dim>4</dim>
				</port>
			</input>
			<output>
				<port id="2" precision="FP32" names="2551">
					<dim>1</dim>
					<dim>80</dim>
					<dim>48</dim>
					<dim>36</dim>
				</port>
			</output>
		</layer>
		<layer id="170" name="68999223363" type="Const" version="opset1">
			<data element_type="i64" shape="" offset="3584" size="8"/>
			<output>
				<port id="0" precision="I64"/>
			</output>
		</layer>
		<layer id="171" name="69001224527" type="Const" version="opset1">
			<data element_type="i64" shape="2" offset="29432" size="16"/>
			<output>
				<port id="0" precision="I64">
					<dim>2</dim>
				</port>
			</output>
		</layer>
		<layer id="172" name="Slice_137/Split" type="VariadicSplit" version="opset1">
			<input>
				<port id="0" precision="FP32">
					<dim>1</dim>
					<dim>80</dim>
					<dim>48</dim>
					<dim>36</dim>
				</port>
				<port id="1" precision="I64"/>
				<port id="2" precision="I64">
					<dim>2</dim>
				</port>
			</input>
			<output>
				<port id="3" precision="FP32" names="2576">
					<dim>1</dim>
					<dim>40</dim>
					<dim>48</dim>
					<dim>36</dim>
				</port>
				<port id="4" precision="FP32" names="2579">
					<dim>1</dim>
					<dim>40</dim>
					<dim>48</dim>
					<dim>36</dim>
				</port>
			</output>
		</layer>
		<layer id="173" name="Concat_144" type="Concat" version="opset1">
			<data axis="1"/>
			<input>
				<port id="0" precision="FP32">
					<dim>1</dim>
					<dim>20</dim>
					<dim>48</dim>
					<dim>36</dim>
				</port>
				<port id="1" precision="FP32">
					<dim>1</dim>
					<dim>40</dim>
					<dim>48</dim>
					<dim>36</dim>
				</port>
			</input>
			<output>
				<port id="2" precision="FP32" names="2583">
					<dim>1</dim>
					<dim>60</dim>
					<dim>48</dim>
					<dim>36</dim>
				</port>
			</output>
		</layer>
		<layer id="174" name="10206" type="Const" version="opset1">
			<data element_type="f32" shape="7, 60, 1, 1" offset="40012" size="1680"/>
			<output>
				<port id="0" precision="FP32" names="10206">
					<dim>7</dim>
					<dim>60</dim>
					<dim>1</dim>
					<dim>1</dim>
				</port>
			</output>
		</layer>
		<layer id="175" name="Conv_145/WithoutBiases" type="Convolution" version="opset1">
			<data strides="1, 1" dilations="1, 1" pads_begin="0, 0" pads_end="0, 0" auto_pad="explicit"/>
			<input>
				<port id="0" precision="FP32">
					<dim>1</dim>
					<dim>60</dim>
					<dim>48</dim>
					<dim>36</dim>
				</port>
				<port id="1" precision="FP32">
					<dim>7</dim>
					<dim>60</dim>
					<dim>1</dim>
					<dim>1</dim>
				</port>
			</input>
			<output>
				<port id="2" precision="FP32">
					<dim>1</dim>
					<dim>7</dim>
					<dim>48</dim>
					<dim>36</dim>
				</port>
			</output>
		</layer>
		<layer id="176" name="Conv_145/Dims51607" type="Const" version="opset1">
			<data element_type="f32" shape="1, 7, 1, 1" offset="41692" size="28"/>
			<output>
				<port id="0" precision="FP32">
					<dim>1</dim>
					<dim>7</dim>
					<dim>1</dim>
					<dim>1</dim>
				</port>
			</output>
		</layer>
		<layer id="177" name="Conv_145" type="Add" version="opset1">
			<data auto_broadcast="numpy"/>
			<input>
				<port id="0" precision="FP32">
					<dim>1</dim>
					<dim>7</dim>
					<dim>48</dim>
					<dim>36</dim>
				</port>
				<port id="1" precision="FP32">
					<dim>1</dim>
					<dim>7</dim>
					<dim>1</dim>
					<dim>1</dim>
				</port>
			</input>
			<output>
				<port id="2" precision="FP32" names="10205">
					<dim>1</dim>
					<dim>7</dim>
					<dim>48</dim>
					<dim>36</dim>
				</port>
			</output>
		</layer>
		<layer id="178" name="Relu_146" type="ReLU" version="opset1">
			<input>
				<port id="0" precision="FP32">
					<dim>1</dim>
					<dim>7</dim>
					<dim>48</dim>
					<dim>36</dim>
				</port>
			</input>
			<output>
				<port id="1" precision="FP32" names="2586">
					<dim>1</dim>
					<dim>7</dim>
					<dim>48</dim>
					<dim>36</dim>
				</port>
			</output>
		</layer>
		<layer id="179" name="10209" type="Const" version="opset1">
			<data element_type="f32" shape="60, 7, 1, 1" offset="41720" size="1680"/>
			<output>
				<port id="0" precision="FP32" names="10209">
					<dim>60</dim>
					<dim>7</dim>
					<dim>1</dim>
					<dim>1</dim>
				</port>
			</output>
		</layer>
		<layer id="180" name="Conv_147/WithoutBiases" type="Convolution" version="opset1">
			<data strides="1, 1" dilations="1, 1" pads_begin="0, 0" pads_end="0, 0" auto_pad="explicit"/>
			<input>
				<port id="0" precision="FP32">
					<dim>1</dim>
					<dim>7</dim>
					<dim>48</dim>
					<dim>36</dim>
				</port>
				<port id="1" precision="FP32">
					<dim>60</dim>
					<dim>7</dim>
					<dim>1</dim>
					<dim>1</dim>
				</port>
			</input>
			<output>
				<port id="2" precision="FP32">
					<dim>1</dim>
					<dim>60</dim>
					<dim>48</dim>
					<dim>36</dim>
				</port>
			</output>
		</layer>
		<layer id="181" name="Conv_147/Dims54133" type="Const" version="opset1">
			<data element_type="f32" shape="1, 60, 1, 1" offset="43400" size="240"/>
			<output>
				<port id="0" precision="FP32">
					<dim>1</dim>
					<dim>60</dim>
					<dim>1</dim>
					<dim>1</dim>
				</port>
			</output>
		</layer>
		<layer id="182" name="Conv_147" type="Add" version="opset1">
			<data auto_broadcast="numpy"/>
			<input>
				<port id="0" precision="FP32">
					<dim>1</dim>
					<dim>60</dim>
					<dim>48</dim>
					<dim>36</dim>
				</port>
				<port id="1" precision="FP32">
					<dim>1</dim>
					<dim>60</dim>
					<dim>1</dim>
					<dim>1</dim>
				</port>
			</input>
			<output>
				<port id="2" precision="FP32" names="10208">
					<dim>1</dim>
					<dim>60</dim>
					<dim>48</dim>
					<dim>36</dim>
				</port>
			</output>
		</layer>
		<layer id="183" name="Sigmoid_148" type="Sigmoid" version="opset1">
			<input>
				<port id="0" precision="FP32">
					<dim>1</dim>
					<dim>60</dim>
					<dim>48</dim>
					<dim>36</dim>
				</port>
			</input>
			<output>
				<port id="1" precision="FP32" names="2589">
					<dim>1</dim>
					<dim>60</dim>
					<dim>48</dim>
					<dim>36</dim>
				</port>
			</output>
		</layer>
		<layer id="184" name="Split_149/VariadicSplit_input_port_1/value" type="Const" version="opset1">
			<data element_type="i64" shape="" offset="3584" size="8"/>
			<output>
				<port id="0" precision="I64"/>
			</output>
		</layer>
		<layer id="185" name="Split_149/VariadicSplit_input_port_2/value" type="Const" version="opset1">
			<data element_type="i64" shape="2" offset="33076" size="16"/>
			<output>
				<port id="0" precision="I64">
					<dim>2</dim>
				</port>
			</output>
		</layer>
		<layer id="186" name="Split_149/VariadicSplit" type="VariadicSplit" version="opset1">
			<input>
				<port id="0" precision="FP32">
					<dim>1</dim>
					<dim>60</dim>
					<dim>48</dim>
					<dim>36</dim>
				</port>
				<port id="1" precision="I64"/>
				<port id="2" precision="I64">
					<dim>2</dim>
				</port>
			</input>
			<output>
				<port id="3" precision="FP32" names="2590">
					<dim>1</dim>
					<dim>20</dim>
					<dim>48</dim>
					<dim>36</dim>
				</port>
				<port id="4" precision="FP32" names="2591">
					<dim>1</dim>
					<dim>40</dim>
					<dim>48</dim>
					<dim>36</dim>
				</port>
			</output>
		</layer>
		<layer id="187" name="Resize_158/StridedSlice_sizes37077219112" type="Const" version="opset1">
			<data element_type="i64" shape="2" offset="33092" size="16"/>
			<output>
				<port id="0" precision="I64">
					<dim>2</dim>
				</port>
			</output>
		</layer>
		<layer id="188" name="3706937071217333" type="Const" version="opset1">
			<data element_type="f32" shape="4" offset="33108" size="16"/>
			<output>
				<port id="0" precision="FP32">
					<dim>4</dim>
				</port>
			</output>
		</layer>
		<layer id="189" name="Resize_158/ShapeOf" type="ShapeOf" version="opset3">
			<data output_type="i64"/>
			<input>
				<port id="0" precision="FP32">
					<dim>1</dim>
					<dim>20</dim>
					<dim>48</dim>
					<dim>36</dim>
				</port>
			</input>
			<output>
				<port id="1" precision="I64">
					<dim>4</dim>
				</port>
			</output>
		</layer>
		<layer id="190" name="37068" type="Convert" version="opset1">
			<data destination_type="f32"/>
			<input>
				<port id="0" precision="I64">
					<dim>4</dim>
				</port>
			</input>
			<output>
				<port id="1" precision="FP32">
					<dim>4</dim>
				</port>
			</output>
		</layer>
		<layer id="191" name="Resize_158/Div" type="Divide" version="opset1">
			<data auto_broadcast="numpy" m_pythondiv="true"/>
			<input>
				<port id="0" precision="FP32">
					<dim>4</dim>
				</port>
				<port id="1" precision="FP32">
					<dim>4</dim>
				</port>
			</input>
			<output>
				<port id="2" precision="FP32">
					<dim>4</dim>
				</port>
			</output>
		</layer>
		<layer id="192" name="Resize_158/Add_input_port_1/value37067222562" type="Const" version="opset1">
			<data element_type="f32" shape="1" offset="33124" size="4"/>
			<output>
				<port id="0" precision="FP32">
					<dim>1</dim>
				</port>
			</output>
		</layer>
		<layer id="193" name="Resize_158/Add" type="Add" version="opset1">
			<data auto_broadcast="numpy"/>
			<input>
				<port id="0" precision="FP32">
					<dim>4</dim>
				</port>
				<port id="1" precision="FP32">
					<dim>1</dim>
				</port>
			</input>
			<output>
				<port id="2" precision="FP32">
					<dim>4</dim>
				</port>
			</output>
		</layer>
		<layer id="194" name="Resize_158/StridedSlice_scales_input_port_1/value37056222520" type="Const" version="opset1">
			<data element_type="i64" shape="1" offset="33128" size="8"/>
			<output>
				<port id="0" precision="I64">
					<dim>1</dim>
				</port>
			</output>
		</layer>
		<layer id="195" name="Resize_158/StridedSlice_scales_input_port_2/value37058217549" type="Const" version="opset1">
			<data element_type="i64" shape="1" offset="33136" size="8"/>
			<output>
				<port id="0" precision="I64">
					<dim>1</dim>
				</port>
			</output>
		</layer>
		<layer id="196" name="Resize_158/StridedSlice_scales_input_port_3/value37060223309" type="Const" version="opset1">
			<data element_type="i64" shape="1" offset="3584" size="8"/>
			<output>
				<port id="0" precision="I64">
					<dim>1</dim>
				</port>
			</output>
		</layer>
		<layer id="197" name="Resize_158/StridedSlice_scales" type="StridedSlice" version="opset1">
			<data begin_mask="0" end_mask="0" new_axis_mask="0" shrink_axis_mask="0" ellipsis_mask="0"/>
			<input>
				<port id="0" precision="FP32">
					<dim>4</dim>
				</port>
				<port id="1" precision="I64">
					<dim>1</dim>
				</port>
				<port id="2" precision="I64">
					<dim>1</dim>
				</port>
				<port id="3" precision="I64">
					<dim>1</dim>
				</port>
			</input>
			<output>
				<port id="4" precision="FP32">
					<dim>2</dim>
				</port>
			</output>
		</layer>
		<layer id="198" name="Resize_158/axis37063220159" type="Const" version="opset1">
			<data element_type="i64" shape="2" offset="33144" size="16"/>
			<output>
				<port id="0" precision="I64">
					<dim>2</dim>
				</port>
			</output>
		</layer>
		<layer id="199" name="Resize_158" type="Interpolate" version="opset4">
			<data mode="nearest" shape_calculation_mode="sizes" coordinate_transformation_mode="asymmetric" nearest_mode="floor" antialias="false" pads_begin="0, 0, 0, 0" pads_end="0, 0, 0, 0" cube_coeff="-0.75"/>
			<input>
				<port id="0" precision="FP32">
					<dim>1</dim>
					<dim>20</dim>
					<dim>48</dim>
					<dim>36</dim>
				</port>
				<port id="1" precision="I64">
					<dim>2</dim>
				</port>
				<port id="2" precision="FP32">
					<dim>2</dim>
				</port>
				<port id="3" precision="I64">
					<dim>2</dim>
				</port>
			</input>
			<output>
				<port id="4" precision="FP32" names="2606">
					<dim>1</dim>
					<dim>20</dim>
					<dim>96</dim>
					<dim>72</dim>
				</port>
			</output>
		</layer>
		<layer id="200" name="Mul_159" type="Multiply" version="opset1">
			<data auto_broadcast="numpy"/>
			<input>
				<port id="0" precision="FP32">
					<dim>1</dim>
					<dim>20</dim>
					<dim>96</dim>
					<dim>72</dim>
				</port>
				<port id="1" precision="FP32">
					<dim>1</dim>
					<dim>20</dim>
					<dim>96</dim>
					<dim>72</dim>
				</port>
			</input>
			<output>
				<port id="2" precision="FP32" names="2607">
					<dim>1</dim>
					<dim>20</dim>
					<dim>96</dim>
					<dim>72</dim>
				</port>
			</output>
		</layer>
		<layer id="201" name="10212" type="Const" version="opset1">
			<data element_type="f32" shape="20, 1, 1, 3, 3" offset="43640" size="720"/>
			<output>
				<port id="0" precision="FP32" names="10212">
					<dim>20</dim>
					<dim>1</dim>
					<dim>1</dim>
					<dim>3</dim>
					<dim>3</dim>
				</port>
			</output>
		</layer>
		<layer id="202" name="Conv_170/WithoutBiases" type="GroupConvolution" version="opset1">
			<data strides="1, 1" pads_begin="1, 1" pads_end="1, 1" dilations="1, 1" auto_pad="explicit"/>
			<input>
				<port id="0" precision="FP32">
					<dim>1</dim>
					<dim>20</dim>
					<dim>96</dim>
					<dim>72</dim>
				</port>
				<port id="1" precision="FP32">
					<dim>20</dim>
					<dim>1</dim>
					<dim>1</dim>
					<dim>3</dim>
					<dim>3</dim>
				</port>
			</input>
			<output>
				<port id="2" precision="FP32">
					<dim>1</dim>
					<dim>20</dim>
					<dim>96</dim>
					<dim>72</dim>
				</port>
			</output>
		</layer>
		<layer id="203" name="Conv_170/Dims51319" type="Const" version="opset1">
			<data element_type="f32" shape="1, 20, 1, 1" offset="44360" size="80"/>
			<output>
				<port id="0" precision="FP32">
					<dim>1</dim>
					<dim>20</dim>
					<dim>1</dim>
					<dim>1</dim>
				</port>
			</output>
		</layer>
		<layer id="204" name="Conv_170" type="Add" version="opset1">
			<data auto_broadcast="numpy"/>
			<input>
				<port id="0" precision="FP32">
					<dim>1</dim>
					<dim>20</dim>
					<dim>96</dim>
					<dim>72</dim>
				</port>
				<port id="1" precision="FP32">
					<dim>1</dim>
					<dim>20</dim>
					<dim>1</dim>
					<dim>1</dim>
				</port>
			</input>
			<output>
				<port id="2" precision="FP32" names="10211">
					<dim>1</dim>
					<dim>20</dim>
					<dim>96</dim>
					<dim>72</dim>
				</port>
			</output>
		</layer>
		<layer id="205" name="3595" type="Const" version="opset1">
			<data element_type="i64" shape="" offset="33128" size="8"/>
			<output>
				<port id="0" precision="I64"/>
			</output>
		</layer>
		<layer id="206" name="GlobalAveragePool_172/input_rank/shape_of" type="ShapeOf" version="opset3">
			<data output_type="i64"/>
			<input>
				<port id="0" precision="FP32">
					<dim>1</dim>
					<dim>20</dim>
					<dim>96</dim>
					<dim>72</dim>
				</port>
			</input>
			<output>
				<port id="1" precision="I64">
					<dim>4</dim>
				</port>
			</output>
		</layer>
		<layer id="207" name="GlobalAveragePool_172/input_rank/rank_of" type="ShapeOf" version="opset3">
			<data output_type="i64"/>
			<input>
				<port id="0" precision="I64">
					<dim>4</dim>
				</port>
			</input>
			<output>
				<port id="1" precision="I64">
					<dim>1</dim>
				</port>
			</output>
		</layer>
		<layer id="208" name="GlobalAveragePool_172/input_rank/0d_rank_of/value" type="Const" version="opset1">
			<data element_type="i64" shape="1" offset="33960" size="8"/>
			<output>
				<port id="0" precision="I64">
					<dim>1</dim>
				</port>
			</output>
		</layer>
		<layer id="209" name="GlobalAveragePool_172/input_rank" type="Squeeze" version="opset1">
			<input>
				<port id="0" precision="I64">
					<dim>1</dim>
				</port>
				<port id="1" precision="I64">
					<dim>1</dim>
				</port>
			</input>
			<output>
				<port id="2" precision="I64"/>
			</output>
		</layer>
		<layer id="210" name="3598" type="Const" version="opset1">
			<data element_type="i64" shape="" offset="3584" size="8"/>
			<output>
				<port id="0" precision="I64"/>
			</output>
		</layer>
		<layer id="211" name="GlobalAveragePool_172/global_pooling_reduce_axis" type="Range" version="opset4">
			<data output_type="i64"/>
			<input>
				<port id="0" precision="I64"/>
				<port id="1" precision="I64"/>
				<port id="2" precision="I64"/>
			</input>
			<output>
				<port id="3" precision="I64">
					<dim>2</dim>
				</port>
			</output>
		</layer>
		<layer id="212" name="GlobalAveragePool_172/reduce" type="ReduceMean" version="opset1">
			<data keep_dims="true"/>
			<input>
				<port id="0" precision="FP32">
					<dim>1</dim>
					<dim>20</dim>
					<dim>96</dim>
					<dim>72</dim>
				</port>
				<port id="1" precision="I64">
					<dim>2</dim>
				</port>
			</input>
			<output>
				<port id="2" precision="FP32" names="2628">
					<dim>1</dim>
					<dim>20</dim>
					<dim>1</dim>
					<dim>1</dim>
				</port>
			</output>
		</layer>
		<layer id="213" name="backbone.stage0.0.layers.1.spatial_weighting.0.conv1.conv.weight" type="Const" version="opset1">
			<data element_type="f32" shape="5, 20, 1, 1" offset="44440" size="400"/>
			<output>
				<port id="0" precision="FP32" names="backbone.stage0.0.layers.1.spatial_weighting.0.conv1.conv.weight">
					<dim>5</dim>
					<dim>20</dim>
					<dim>1</dim>
					<dim>1</dim>
				</port>
			</output>
		</layer>
		<layer id="214" name="Conv_173/WithoutBiases" type="Convolution" version="opset1">
			<data strides="1, 1" dilations="1, 1" pads_begin="0, 0" pads_end="0, 0" auto_pad="explicit"/>
			<input>
				<port id="0" precision="FP32">
					<dim>1</dim>
					<dim>20</dim>
					<dim>1</dim>
					<dim>1</dim>
				</port>
				<port id="1" precision="FP32">
					<dim>5</dim>
					<dim>20</dim>
					<dim>1</dim>
					<dim>1</dim>
				</port>
			</input>
			<output>
				<port id="2" precision="FP32">
					<dim>1</dim>
					<dim>5</dim>
					<dim>1</dim>
					<dim>1</dim>
				</port>
			</output>
		</layer>
		<layer id="215" name="Conv_173/Dims52873" type="Const" version="opset1">
			<data element_type="f32" shape="1, 5, 1, 1" offset="44840" size="20"/>
			<output>
				<port id="0" precision="FP32">
					<dim>1</dim>
					<dim>5</dim>
					<dim>1</dim>
					<dim>1</dim>
				</port>
			</output>
		</layer>
		<layer id="216" name="Conv_173" type="Add" version="opset1">
			<data auto_broadcast="numpy"/>
			<input>
				<port id="0" precision="FP32">
					<dim>1</dim>
					<dim>5</dim>
					<dim>1</dim>
					<dim>1</dim>
				</port>
				<port id="1" precision="FP32">
					<dim>1</dim>
					<dim>5</dim>
					<dim>1</dim>
					<dim>1</dim>
				</port>
			</input>
			<output>
				<port id="2" precision="FP32" names="2629">
					<dim>1</dim>
					<dim>5</dim>
					<dim>1</dim>
					<dim>1</dim>
				</port>
			</output>
		</layer>
		<layer id="217" name="Relu_174" type="ReLU" version="opset1">
			<input>
				<port id="0" precision="FP32">
					<dim>1</dim>
					<dim>5</dim>
					<dim>1</dim>
					<dim>1</dim>
				</port>
			</input>
			<output>
				<port id="1" precision="FP32" names="2630">
					<dim>1</dim>
					<dim>5</dim>
					<dim>1</dim>
					<dim>1</dim>
				</port>
			</output>
		</layer>
		<layer id="218" name="backbone.stage0.0.layers.1.spatial_weighting.0.conv2.conv.weight" type="Const" version="opset1">
			<data element_type="f32" shape="20, 5, 1, 1" offset="44860" size="400"/>
			<output>
				<port id="0" precision="FP32" names="backbone.stage0.0.layers.1.spatial_weighting.0.conv2.conv.weight">
					<dim>20</dim>
					<dim>5</dim>
					<dim>1</dim>
					<dim>1</dim>
				</port>
			</output>
		</layer>
		<layer id="219" name="Conv_175/WithoutBiases" type="Convolution" version="opset1">
			<data strides="1, 1" dilations="1, 1" pads_begin="0, 0" pads_end="0, 0" auto_pad="explicit"/>
			<input>
				<port id="0" precision="FP32">
					<dim>1</dim>
					<dim>5</dim>
					<dim>1</dim>
					<dim>1</dim>
				</port>
				<port id="1" precision="FP32">
					<dim>20</dim>
					<dim>5</dim>
					<dim>1</dim>
					<dim>1</dim>
				</port>
			</input>
			<output>
				<port id="2" precision="FP32">
					<dim>1</dim>
					<dim>20</dim>
					<dim>1</dim>
					<dim>1</dim>
				</port>
			</output>
		</layer>
		<layer id="220" name="Conv_175/Dims53869" type="Const" version="opset1">
			<data element_type="f32" shape="1, 20, 1, 1" offset="45260" size="80"/>
			<output>
				<port id="0" precision="FP32">
					<dim>1</dim>
					<dim>20</dim>
					<dim>1</dim>
					<dim>1</dim>
				</port>
			</output>
		</layer>
		<layer id="221" name="Conv_175" type="Add" version="opset1">
			<data auto_broadcast="numpy"/>
			<input>
				<port id="0" precision="FP32">
					<dim>1</dim>
					<dim>20</dim>
					<dim>1</dim>
					<dim>1</dim>
				</port>
				<port id="1" precision="FP32">
					<dim>1</dim>
					<dim>20</dim>
					<dim>1</dim>
					<dim>1</dim>
				</port>
			</input>
			<output>
				<port id="2" precision="FP32" names="2631">
					<dim>1</dim>
					<dim>20</dim>
					<dim>1</dim>
					<dim>1</dim>
				</port>
			</output>
		</layer>
		<layer id="222" name="Sigmoid_176" type="Sigmoid" version="opset1">
			<input>
				<port id="0" precision="FP32">
					<dim>1</dim>
					<dim>20</dim>
					<dim>1</dim>
					<dim>1</dim>
				</port>
			</input>
			<output>
				<port id="1" precision="FP32" names="2632">
					<dim>1</dim>
					<dim>20</dim>
					<dim>1</dim>
					<dim>1</dim>
				</port>
			</output>
		</layer>
		<layer id="223" name="Mul_177" type="Multiply" version="opset1">
			<data auto_broadcast="numpy"/>
			<input>
				<port id="0" precision="FP32">
					<dim>1</dim>
					<dim>20</dim>
					<dim>96</dim>
					<dim>72</dim>
				</port>
				<port id="1" precision="FP32">
					<dim>1</dim>
					<dim>20</dim>
					<dim>1</dim>
					<dim>1</dim>
				</port>
			</input>
			<output>
				<port id="2" precision="FP32" names="2633">
					<dim>1</dim>
					<dim>20</dim>
					<dim>96</dim>
					<dim>72</dim>
				</port>
			</output>
		</layer>
		<layer id="224" name="Concat_184" type="Concat" version="opset1">
			<data axis="1"/>
			<input>
				<port id="0" precision="FP32">
					<dim>1</dim>
					<dim>20</dim>
					<dim>96</dim>
					<dim>72</dim>
				</port>
				<port id="1" precision="FP32">
					<dim>1</dim>
					<dim>20</dim>
					<dim>96</dim>
					<dim>72</dim>
				</port>
			</input>
			<output>
				<port id="2" precision="FP32" names="2640">
					<dim>1</dim>
					<dim>40</dim>
					<dim>96</dim>
					<dim>72</dim>
				</port>
			</output>
		</layer>
		<layer id="225" name="11468" type="Const" version="opset1">
			<data element_type="i64" shape="5" offset="34868" size="40"/>
			<output>
				<port id="0" precision="I64" names="11468">
					<dim>5</dim>
				</port>
			</output>
		</layer>
		<layer id="226" name="Reshape_186" type="Reshape" version="opset1">
			<data special_zero="true"/>
			<input>
				<port id="0" precision="FP32">
					<dim>1</dim>
					<dim>40</dim>
					<dim>96</dim>
					<dim>72</dim>
				</port>
				<port id="1" precision="I64">
					<dim>5</dim>
				</port>
			</input>
			<output>
				<port id="2" precision="FP32" names="2653">
					<dim>1</dim>
					<dim>2</dim>
					<dim>20</dim>
					<dim>96</dim>
					<dim>72</dim>
				</port>
			</output>
		</layer>
		<layer id="227" name="3538" type="Const" version="opset1">
			<data element_type="i64" shape="5" offset="10944" size="40"/>
			<output>
				<port id="0" precision="I64">
					<dim>5</dim>
				</port>
			</output>
		</layer>
		<layer id="228" name="Transpose_187" type="Transpose" version="opset1">
			<input>
				<port id="0" precision="FP32">
					<dim>1</dim>
					<dim>2</dim>
					<dim>20</dim>
					<dim>96</dim>
					<dim>72</dim>
				</port>
				<port id="1" precision="I64">
					<dim>5</dim>
				</port>
			</input>
			<output>
				<port id="2" precision="FP32" names="2654">
					<dim>1</dim>
					<dim>20</dim>
					<dim>2</dim>
					<dim>96</dim>
					<dim>72</dim>
				</port>
			</output>
		</layer>
		<layer id="229" name="11454219865" type="Const" version="opset1">
			<data element_type="i64" shape="4" offset="10984" size="32"/>
			<output>
				<port id="0" precision="I64" names="11454">
					<dim>4</dim>
				</port>
			</output>
		</layer>
		<layer id="230" name="Reshape_188" type="Reshape" version="opset1">
			<data special_zero="true"/>
			<input>
				<port id="0" precision="FP32">
					<dim>1</dim>
					<dim>20</dim>
					<dim>2</dim>
					<dim>96</dim>
					<dim>72</dim>
				</port>
				<port id="1" precision="I64">
					<dim>4</dim>
				</port>
			</input>
			<output>
				<port id="2" precision="FP32" names="2661">
					<dim>1</dim>
					<dim>40</dim>
					<dim>96</dim>
					<dim>72</dim>
				</port>
			</output>
		</layer>
		<layer id="231" name="Add_192" type="Add" version="opset1">
			<data auto_broadcast="numpy"/>
			<input>
				<port id="0" precision="FP32">
					<dim>1</dim>
					<dim>40</dim>
					<dim>96</dim>
					<dim>72</dim>
				</port>
				<port id="1" precision="FP32">
					<dim>1</dim>
					<dim>40</dim>
					<dim>96</dim>
					<dim>72</dim>
				</port>
			</input>
			<output>
				<port id="2" precision="FP32" names="2682">
					<dim>1</dim>
					<dim>40</dim>
					<dim>96</dim>
					<dim>72</dim>
				</port>
			</output>
		</layer>
		<layer id="232" name="Resize_168/StridedSlice_sizes37109222730" type="Const" version="opset1">
			<data element_type="i64" shape="2" offset="34908" size="16"/>
			<output>
				<port id="0" precision="I64">
					<dim>2</dim>
				</port>
			</output>
		</layer>
		<layer id="233" name="3710137103225439" type="Const" version="opset1">
			<data element_type="f32" shape="4" offset="34924" size="16"/>
			<output>
				<port id="0" precision="FP32">
					<dim>4</dim>
				</port>
			</output>
		</layer>
		<layer id="234" name="Resize_168/ShapeOf" type="ShapeOf" version="opset3">
			<data output_type="i64"/>
			<input>
				<port id="0" precision="FP32">
					<dim>1</dim>
					<dim>40</dim>
					<dim>48</dim>
					<dim>36</dim>
				</port>
			</input>
			<output>
				<port id="1" precision="I64">
					<dim>4</dim>
				</port>
			</output>
		</layer>
		<layer id="235" name="37100" type="Convert" version="opset1">
			<data destination_type="f32"/>
			<input>
				<port id="0" precision="I64">
					<dim>4</dim>
				</port>
			</input>
			<output>
				<port id="1" precision="FP32">
					<dim>4</dim>
				</port>
			</output>
		</layer>
		<layer id="236" name="Resize_168/Div" type="Divide" version="opset1">
			<data auto_broadcast="numpy" m_pythondiv="true"/>
			<input>
				<port id="0" precision="FP32">
					<dim>4</dim>
				</port>
				<port id="1" precision="FP32">
					<dim>4</dim>
				</port>
			</input>
			<output>
				<port id="2" precision="FP32">
					<dim>4</dim>
				</port>
			</output>
		</layer>
		<layer id="237" name="Resize_168/Add_input_port_1/value37099220753" type="Const" version="opset1">
			<data element_type="f32" shape="1" offset="33124" size="4"/>
			<output>
				<port id="0" precision="FP32">
					<dim>1</dim>
				</port>
			</output>
		</layer>
		<layer id="238" name="Resize_168/Add" type="Add" version="opset1">
			<data auto_broadcast="numpy"/>
			<input>
				<port id="0" precision="FP32">
					<dim>4</dim>
				</port>
				<port id="1" precision="FP32">
					<dim>1</dim>
				</port>
			</input>
			<output>
				<port id="2" precision="FP32">
					<dim>4</dim>
				</port>
			</output>
		</layer>
		<layer id="239" name="Resize_168/StridedSlice_scales_input_port_1/value37088225574" type="Const" version="opset1">
			<data element_type="i64" shape="1" offset="33128" size="8"/>
			<output>
				<port id="0" precision="I64">
					<dim>1</dim>
				</port>
			</output>
		</layer>
		<layer id="240" name="Resize_168/StridedSlice_scales_input_port_2/value37090218368" type="Const" version="opset1">
			<data element_type="i64" shape="1" offset="33136" size="8"/>
			<output>
				<port id="0" precision="I64">
					<dim>1</dim>
				</port>
			</output>
		</layer>
		<layer id="241" name="Resize_168/StridedSlice_scales_input_port_3/value37092223780" type="Const" version="opset1">
			<data element_type="i64" shape="1" offset="3584" size="8"/>
			<output>
				<port id="0" precision="I64">
					<dim>1</dim>
				</port>
			</output>
		</layer>
		<layer id="242" name="Resize_168/StridedSlice_scales" type="StridedSlice" version="opset1">
			<data begin_mask="0" end_mask="0" new_axis_mask="0" shrink_axis_mask="0" ellipsis_mask="0"/>
			<input>
				<port id="0" precision="FP32">
					<dim>4</dim>
				</port>
				<port id="1" precision="I64">
					<dim>1</dim>
				</port>
				<port id="2" precision="I64">
					<dim>1</dim>
				</port>
				<port id="3" precision="I64">
					<dim>1</dim>
				</port>
			</input>
			<output>
				<port id="4" precision="FP32">
					<dim>2</dim>
				</port>
			</output>
		</layer>
		<layer id="243" name="Resize_168/axis37095217249" type="Const" version="opset1">
			<data element_type="i64" shape="2" offset="33144" size="16"/>
			<output>
				<port id="0" precision="I64">
					<dim>2</dim>
				</port>
			</output>
		</layer>
		<layer id="244" name="Resize_168" type="Interpolate" version="opset4">
			<data mode="nearest" shape_calculation_mode="sizes" coordinate_transformation_mode="asymmetric" nearest_mode="floor" antialias="false" pads_begin="0, 0, 0, 0" pads_end="0, 0, 0, 0" cube_coeff="-0.75"/>
			<input>
				<port id="0" precision="FP32">
					<dim>1</dim>
					<dim>40</dim>
					<dim>48</dim>
					<dim>36</dim>
				</port>
				<port id="1" precision="I64">
					<dim>2</dim>
				</port>
				<port id="2" precision="FP32">
					<dim>2</dim>
				</port>
				<port id="3" precision="I64">
					<dim>2</dim>
				</port>
			</input>
			<output>
				<port id="4" precision="FP32" names="2622">
					<dim>1</dim>
					<dim>40</dim>
					<dim>48</dim>
					<dim>36</dim>
				</port>
			</output>
		</layer>
		<layer id="245" name="Mul_169" type="Multiply" version="opset1">
			<data auto_broadcast="numpy"/>
			<input>
				<port id="0" precision="FP32">
					<dim>1</dim>
					<dim>40</dim>
					<dim>48</dim>
					<dim>36</dim>
				</port>
				<port id="1" precision="FP32">
					<dim>1</dim>
					<dim>40</dim>
					<dim>48</dim>
					<dim>36</dim>
				</port>
			</input>
			<output>
				<port id="2" precision="FP32" names="2623">
					<dim>1</dim>
					<dim>40</dim>
					<dim>48</dim>
					<dim>36</dim>
				</port>
			</output>
		</layer>
		<layer id="246" name="10215" type="Const" version="opset1">
			<data element_type="f32" shape="40, 1, 1, 3, 3" offset="45340" size="1440"/>
			<output>
				<port id="0" precision="FP32" names="10215">
					<dim>40</dim>
					<dim>1</dim>
					<dim>1</dim>
					<dim>3</dim>
					<dim>3</dim>
				</port>
			</output>
		</layer>
		<layer id="247" name="Conv_171/WithoutBiases" type="GroupConvolution" version="opset1">
			<data strides="1, 1" pads_begin="1, 1" pads_end="1, 1" dilations="1, 1" auto_pad="explicit"/>
			<input>
				<port id="0" precision="FP32">
					<dim>1</dim>
					<dim>40</dim>
					<dim>48</dim>
					<dim>36</dim>
				</port>
				<port id="1" precision="FP32">
					<dim>40</dim>
					<dim>1</dim>
					<dim>1</dim>
					<dim>3</dim>
					<dim>3</dim>
				</port>
			</input>
			<output>
				<port id="2" precision="FP32">
					<dim>1</dim>
					<dim>40</dim>
					<dim>48</dim>
					<dim>36</dim>
				</port>
			</output>
		</layer>
		<layer id="248" name="Conv_171/Dims53521" type="Const" version="opset1">
			<data element_type="f32" shape="1, 40, 1, 1" offset="46780" size="160"/>
			<output>
				<port id="0" precision="FP32">
					<dim>1</dim>
					<dim>40</dim>
					<dim>1</dim>
					<dim>1</dim>
				</port>
			</output>
		</layer>
		<layer id="249" name="Conv_171" type="Add" version="opset1">
			<data auto_broadcast="numpy"/>
			<input>
				<port id="0" precision="FP32">
					<dim>1</dim>
					<dim>40</dim>
					<dim>48</dim>
					<dim>36</dim>
				</port>
				<port id="1" precision="FP32">
					<dim>1</dim>
					<dim>40</dim>
					<dim>1</dim>
					<dim>1</dim>
				</port>
			</input>
			<output>
				<port id="2" precision="FP32" names="10214">
					<dim>1</dim>
					<dim>40</dim>
					<dim>48</dim>
					<dim>36</dim>
				</port>
			</output>
		</layer>
		<layer id="250" name="3601" type="Const" version="opset1">
			<data element_type="i64" shape="" offset="33128" size="8"/>
			<output>
				<port id="0" precision="I64"/>
			</output>
		</layer>
		<layer id="251" name="GlobalAveragePool_178/input_rank/shape_of" type="ShapeOf" version="opset3">
			<data output_type="i64"/>
			<input>
				<port id="0" precision="FP32">
					<dim>1</dim>
					<dim>40</dim>
					<dim>48</dim>
					<dim>36</dim>
				</port>
			</input>
			<output>
				<port id="1" precision="I64">
					<dim>4</dim>
				</port>
			</output>
		</layer>
		<layer id="252" name="GlobalAveragePool_178/input_rank/rank_of" type="ShapeOf" version="opset3">
			<data output_type="i64"/>
			<input>
				<port id="0" precision="I64">
					<dim>4</dim>
				</port>
			</input>
			<output>
				<port id="1" precision="I64">
					<dim>1</dim>
				</port>
			</output>
		</layer>
		<layer id="253" name="GlobalAveragePool_178/input_rank/0d_rank_of/value" type="Const" version="opset1">
			<data element_type="i64" shape="1" offset="33960" size="8"/>
			<output>
				<port id="0" precision="I64">
					<dim>1</dim>
				</port>
			</output>
		</layer>
		<layer id="254" name="GlobalAveragePool_178/input_rank" type="Squeeze" version="opset1">
			<input>
				<port id="0" precision="I64">
					<dim>1</dim>
				</port>
				<port id="1" precision="I64">
					<dim>1</dim>
				</port>
			</input>
			<output>
				<port id="2" precision="I64"/>
			</output>
		</layer>
		<layer id="255" name="3603" type="Const" version="opset1">
			<data element_type="i64" shape="" offset="3584" size="8"/>
			<output>
				<port id="0" precision="I64"/>
			</output>
		</layer>
		<layer id="256" name="GlobalAveragePool_178/global_pooling_reduce_axis" type="Range" version="opset4">
			<data output_type="i64"/>
			<input>
				<port id="0" precision="I64"/>
				<port id="1" precision="I64"/>
				<port id="2" precision="I64"/>
			</input>
			<output>
				<port id="3" precision="I64">
					<dim>2</dim>
				</port>
			</output>
		</layer>
		<layer id="257" name="GlobalAveragePool_178/reduce" type="ReduceMean" version="opset1">
			<data keep_dims="true"/>
			<input>
				<port id="0" precision="FP32">
					<dim>1</dim>
					<dim>40</dim>
					<dim>48</dim>
					<dim>36</dim>
				</port>
				<port id="1" precision="I64">
					<dim>2</dim>
				</port>
			</input>
			<output>
				<port id="2" precision="FP32" names="2634">
					<dim>1</dim>
					<dim>40</dim>
					<dim>1</dim>
					<dim>1</dim>
				</port>
			</output>
		</layer>
		<layer id="258" name="backbone.stage0.0.layers.1.spatial_weighting.1.conv1.conv.weight" type="Const" version="opset1">
			<data element_type="f32" shape="10, 40, 1, 1" offset="46940" size="1600"/>
			<output>
				<port id="0" precision="FP32" names="backbone.stage0.0.layers.1.spatial_weighting.1.conv1.conv.weight">
					<dim>10</dim>
					<dim>40</dim>
					<dim>1</dim>
					<dim>1</dim>
				</port>
			</output>
		</layer>
		<layer id="259" name="Conv_179/WithoutBiases" type="Convolution" version="opset1">
			<data strides="1, 1" dilations="1, 1" pads_begin="0, 0" pads_end="0, 0" auto_pad="explicit"/>
			<input>
				<port id="0" precision="FP32">
					<dim>1</dim>
					<dim>40</dim>
					<dim>1</dim>
					<dim>1</dim>
				</port>
				<port id="1" precision="FP32">
					<dim>10</dim>
					<dim>40</dim>
					<dim>1</dim>
					<dim>1</dim>
				</port>
			</input>
			<output>
				<port id="2" precision="FP32">
					<dim>1</dim>
					<dim>10</dim>
					<dim>1</dim>
					<dim>1</dim>
				</port>
			</output>
		</layer>
		<layer id="260" name="Conv_179/Dims52039" type="Const" version="opset1">
			<data element_type="f32" shape="1, 10, 1, 1" offset="48540" size="40"/>
			<output>
				<port id="0" precision="FP32">
					<dim>1</dim>
					<dim>10</dim>
					<dim>1</dim>
					<dim>1</dim>
				</port>
			</output>
		</layer>
		<layer id="261" name="Conv_179" type="Add" version="opset1">
			<data auto_broadcast="numpy"/>
			<input>
				<port id="0" precision="FP32">
					<dim>1</dim>
					<dim>10</dim>
					<dim>1</dim>
					<dim>1</dim>
				</port>
				<port id="1" precision="FP32">
					<dim>1</dim>
					<dim>10</dim>
					<dim>1</dim>
					<dim>1</dim>
				</port>
			</input>
			<output>
				<port id="2" precision="FP32" names="2635">
					<dim>1</dim>
					<dim>10</dim>
					<dim>1</dim>
					<dim>1</dim>
				</port>
			</output>
		</layer>
		<layer id="262" name="Relu_180" type="ReLU" version="opset1">
			<input>
				<port id="0" precision="FP32">
					<dim>1</dim>
					<dim>10</dim>
					<dim>1</dim>
					<dim>1</dim>
				</port>
			</input>
			<output>
				<port id="1" precision="FP32" names="2636">
					<dim>1</dim>
					<dim>10</dim>
					<dim>1</dim>
					<dim>1</dim>
				</port>
			</output>
		</layer>
		<layer id="263" name="backbone.stage0.0.layers.1.spatial_weighting.1.conv2.conv.weight" type="Const" version="opset1">
			<data element_type="f32" shape="40, 10, 1, 1" offset="48580" size="1600"/>
			<output>
				<port id="0" precision="FP32" names="backbone.stage0.0.layers.1.spatial_weighting.1.conv2.conv.weight">
					<dim>40</dim>
					<dim>10</dim>
					<dim>1</dim>
					<dim>1</dim>
				</port>
			</output>
		</layer>
		<layer id="264" name="Conv_181/WithoutBiases" type="Convolution" version="opset1">
			<data strides="1, 1" dilations="1, 1" pads_begin="0, 0" pads_end="0, 0" auto_pad="explicit"/>
			<input>
				<port id="0" precision="FP32">
					<dim>1</dim>
					<dim>10</dim>
					<dim>1</dim>
					<dim>1</dim>
				</port>
				<port id="1" precision="FP32">
					<dim>40</dim>
					<dim>10</dim>
					<dim>1</dim>
					<dim>1</dim>
				</port>
			</input>
			<output>
				<port id="2" precision="FP32">
					<dim>1</dim>
					<dim>40</dim>
					<dim>1</dim>
					<dim>1</dim>
				</port>
			</output>
		</layer>
		<layer id="265" name="Conv_181/Dims52195" type="Const" version="opset1">
			<data element_type="f32" shape="1, 40, 1, 1" offset="50180" size="160"/>
			<output>
				<port id="0" precision="FP32">
					<dim>1</dim>
					<dim>40</dim>
					<dim>1</dim>
					<dim>1</dim>
				</port>
			</output>
		</layer>
		<layer id="266" name="Conv_181" type="Add" version="opset1">
			<data auto_broadcast="numpy"/>
			<input>
				<port id="0" precision="FP32">
					<dim>1</dim>
					<dim>40</dim>
					<dim>1</dim>
					<dim>1</dim>
				</port>
				<port id="1" precision="FP32">
					<dim>1</dim>
					<dim>40</dim>
					<dim>1</dim>
					<dim>1</dim>
				</port>
			</input>
			<output>
				<port id="2" precision="FP32" names="2637">
					<dim>1</dim>
					<dim>40</dim>
					<dim>1</dim>
					<dim>1</dim>
				</port>
			</output>
		</layer>
		<layer id="267" name="Sigmoid_182" type="Sigmoid" version="opset1">
			<input>
				<port id="0" precision="FP32">
					<dim>1</dim>
					<dim>40</dim>
					<dim>1</dim>
					<dim>1</dim>
				</port>
			</input>
			<output>
				<port id="1" precision="FP32" names="2638">
					<dim>1</dim>
					<dim>40</dim>
					<dim>1</dim>
					<dim>1</dim>
				</port>
			</output>
		</layer>
		<layer id="268" name="Mul_183" type="Multiply" version="opset1">
			<data auto_broadcast="numpy"/>
			<input>
				<port id="0" precision="FP32">
					<dim>1</dim>
					<dim>40</dim>
					<dim>48</dim>
					<dim>36</dim>
				</port>
				<port id="1" precision="FP32">
					<dim>1</dim>
					<dim>40</dim>
					<dim>1</dim>
					<dim>1</dim>
				</port>
			</input>
			<output>
				<port id="2" precision="FP32" names="2639">
					<dim>1</dim>
					<dim>40</dim>
					<dim>48</dim>
					<dim>36</dim>
				</port>
			</output>
		</layer>
		<layer id="269" name="Concat_185" type="Concat" version="opset1">
			<data axis="1"/>
			<input>
				<port id="0" precision="FP32">
					<dim>1</dim>
					<dim>40</dim>
					<dim>48</dim>
					<dim>36</dim>
				</port>
				<port id="1" precision="FP32">
					<dim>1</dim>
					<dim>40</dim>
					<dim>48</dim>
					<dim>36</dim>
				</port>
			</input>
			<output>
				<port id="2" precision="FP32" names="2641">
					<dim>1</dim>
					<dim>80</dim>
					<dim>48</dim>
					<dim>36</dim>
				</port>
			</output>
		</layer>
		<layer id="270" name="11479221980" type="Const" version="opset1">
			<data element_type="i64" shape="5" offset="39940" size="40"/>
			<output>
				<port id="0" precision="I64" names="11479">
					<dim>5</dim>
				</port>
			</output>
		</layer>
		<layer id="271" name="Reshape_189" type="Reshape" version="opset1">
			<data special_zero="true"/>
			<input>
				<port id="0" precision="FP32">
					<dim>1</dim>
					<dim>80</dim>
					<dim>48</dim>
					<dim>36</dim>
				</port>
				<port id="1" precision="I64">
					<dim>5</dim>
				</port>
			</input>
			<output>
				<port id="2" precision="FP32" names="2673">
					<dim>1</dim>
					<dim>2</dim>
					<dim>40</dim>
					<dim>48</dim>
					<dim>36</dim>
				</port>
			</output>
		</layer>
		<layer id="272" name="3533" type="Const" version="opset1">
			<data element_type="i64" shape="5" offset="10944" size="40"/>
			<output>
				<port id="0" precision="I64">
					<dim>5</dim>
				</port>
			</output>
		</layer>
		<layer id="273" name="Transpose_190" type="Transpose" version="opset1">
			<input>
				<port id="0" precision="FP32">
					<dim>1</dim>
					<dim>2</dim>
					<dim>40</dim>
					<dim>48</dim>
					<dim>36</dim>
				</port>
				<port id="1" precision="I64">
					<dim>5</dim>
				</port>
			</input>
			<output>
				<port id="2" precision="FP32" names="2674">
					<dim>1</dim>
					<dim>40</dim>
					<dim>2</dim>
					<dim>48</dim>
					<dim>36</dim>
				</port>
			</output>
		</layer>
		<layer id="274" name="11484222496" type="Const" version="opset1">
			<data element_type="i64" shape="4" offset="39980" size="32"/>
			<output>
				<port id="0" precision="I64" names="11484">
					<dim>4</dim>
				</port>
			</output>
		</layer>
		<layer id="275" name="Reshape_191" type="Reshape" version="opset1">
			<data special_zero="true"/>
			<input>
				<port id="0" precision="FP32">
					<dim>1</dim>
					<dim>40</dim>
					<dim>2</dim>
					<dim>48</dim>
					<dim>36</dim>
				</port>
				<port id="1" precision="I64">
					<dim>4</dim>
				</port>
			</input>
			<output>
				<port id="2" precision="FP32" names="2681">
					<dim>1</dim>
					<dim>80</dim>
					<dim>48</dim>
					<dim>36</dim>
				</port>
			</output>
		</layer>
		<layer id="276" name="10218" type="Const" version="opset1">
			<data element_type="f32" shape="40, 80, 1, 1" offset="50340" size="12800"/>
			<output>
				<port id="0" precision="FP32" names="10218">
					<dim>40</dim>
					<dim>80</dim>
					<dim>1</dim>
					<dim>1</dim>
				</port>
			</output>
		</layer>
		<layer id="277" name="Conv_193/WithoutBiases" type="Convolution" version="opset1">
			<data strides="1, 1" dilations="1, 1" pads_begin="0, 0" pads_end="0, 0" auto_pad="explicit"/>
			<input>
				<port id="0" precision="FP32">
					<dim>1</dim>
					<dim>80</dim>
					<dim>48</dim>
					<dim>36</dim>
				</port>
				<port id="1" precision="FP32">
					<dim>40</dim>
					<dim>80</dim>
					<dim>1</dim>
					<dim>1</dim>
				</port>
			</input>
			<output>
				<port id="2" precision="FP32">
					<dim>1</dim>
					<dim>40</dim>
					<dim>48</dim>
					<dim>36</dim>
				</port>
			</output>
		</layer>
		<layer id="278" name="Conv_193/Dims53119" type="Const" version="opset1">
			<data element_type="f32" shape="1, 40, 1, 1" offset="63140" size="160"/>
			<output>
				<port id="0" precision="FP32">
					<dim>1</dim>
					<dim>40</dim>
					<dim>1</dim>
					<dim>1</dim>
				</port>
			</output>
		</layer>
		<layer id="279" name="Conv_193" type="Add" version="opset1">
			<data auto_broadcast="numpy"/>
			<input>
				<port id="0" precision="FP32">
					<dim>1</dim>
					<dim>40</dim>
					<dim>48</dim>
					<dim>36</dim>
				</port>
				<port id="1" precision="FP32">
					<dim>1</dim>
					<dim>40</dim>
					<dim>1</dim>
					<dim>1</dim>
				</port>
			</input>
			<output>
				<port id="2" precision="FP32" names="10217">
					<dim>1</dim>
					<dim>40</dim>
					<dim>48</dim>
					<dim>36</dim>
				</port>
			</output>
		</layer>
		<layer id="280" name="Resize_195/ShapeOf" type="ShapeOf" version="opset3">
			<data output_type="i64"/>
			<input>
				<port id="0" precision="FP32">
					<dim>1</dim>
					<dim>40</dim>
					<dim>48</dim>
					<dim>36</dim>
				</port>
			</input>
			<output>
				<port id="1" precision="I64">
					<dim>4</dim>
				</port>
			</output>
		</layer>
		<layer id="281" name="37132" type="Convert" version="opset1">
			<data destination_type="f32"/>
			<input>
				<port id="0" precision="I64">
					<dim>4</dim>
				</port>
			</input>
			<output>
				<port id="1" precision="FP32">
					<dim>4</dim>
				</port>
			</output>
		</layer>
		<layer id="282" name="11515219010" type="Const" version="opset1">
			<data element_type="f32" shape="4" offset="63300" size="16"/>
			<output>
				<port id="0" precision="FP32" names="11515">
					<dim>4</dim>
				</port>
			</output>
		</layer>
		<layer id="283" name="Resize_195/Mul" type="Multiply" version="opset1">
			<data auto_broadcast="numpy"/>
			<input>
				<port id="0" precision="FP32">
					<dim>4</dim>
				</port>
				<port id="1" precision="FP32">
					<dim>4</dim>
				</port>
			</input>
			<output>
				<port id="2" precision="FP32">
					<dim>4</dim>
				</port>
			</output>
		</layer>
		<layer id="284" name="Resize_195/Add_input_port_1/value37131222541" type="Const" version="opset1">
			<data element_type="f32" shape="1" offset="33124" size="4"/>
			<output>
				<port id="0" precision="FP32">
					<dim>1</dim>
				</port>
			</output>
		</layer>
		<layer id="285" name="Resize_195/Add" type="Add" version="opset1">
			<data auto_broadcast="numpy"/>
			<input>
				<port id="0" precision="FP32">
					<dim>4</dim>
				</port>
				<port id="1" precision="FP32">
					<dim>1</dim>
				</port>
			</input>
			<output>
				<port id="2" precision="FP32">
					<dim>4</dim>
				</port>
			</output>
		</layer>
		<layer id="286" name="Resize_195/Floor" type="Floor" version="opset1">
			<input>
				<port id="0" precision="FP32">
					<dim>4</dim>
				</port>
			</input>
			<output>
				<port id="1" precision="FP32">
					<dim>4</dim>
				</port>
			</output>
		</layer>
		<layer id="287" name="37136" type="Convert" version="opset1">
			<data destination_type="i64"/>
			<input>
				<port id="0" precision="FP32">
					<dim>4</dim>
				</port>
			</input>
			<output>
				<port id="1" precision="I64">
					<dim>4</dim>
				</port>
			</output>
		</layer>
		<layer id="288" name="Resize_195/StridedSlice_sizes_input_port_1/value37113221812" type="Const" version="opset1">
			<data element_type="i64" shape="1" offset="33128" size="8"/>
			<output>
				<port id="0" precision="I64">
					<dim>1</dim>
				</port>
			</output>
		</layer>
		<layer id="289" name="Resize_195/StridedSlice_sizes_input_port_2/value37115220687" type="Const" version="opset1">
			<data element_type="i64" shape="1" offset="33136" size="8"/>
			<output>
				<port id="0" precision="I64">
					<dim>1</dim>
				</port>
			</output>
		</layer>
		<layer id="290" name="Resize_195/StridedSlice_sizes_input_port_3/value37117219433" type="Const" version="opset1">
			<data element_type="i64" shape="1" offset="3584" size="8"/>
			<output>
				<port id="0" precision="I64">
					<dim>1</dim>
				</port>
			</output>
		</layer>
		<layer id="291" name="Resize_195/StridedSlice_sizes" type="StridedSlice" version="opset1">
			<data begin_mask="0" end_mask="0" new_axis_mask="0" shrink_axis_mask="0" ellipsis_mask="0"/>
			<input>
				<port id="0" precision="I64">
					<dim>4</dim>
				</port>
				<port id="1" precision="I64">
					<dim>1</dim>
				</port>
				<port id="2" precision="I64">
					<dim>1</dim>
				</port>
				<port id="3" precision="I64">
					<dim>1</dim>
				</port>
			</input>
			<output>
				<port id="4" precision="I64">
					<dim>2</dim>
				</port>
			</output>
		</layer>
		<layer id="292" name="Resize_195/StridedSlice_scales37143218602" type="Const" version="opset1">
			<data element_type="f32" shape="2" offset="63316" size="8"/>
			<output>
				<port id="0" precision="FP32">
					<dim>2</dim>
				</port>
			</output>
		</layer>
		<layer id="293" name="Resize_195/axis37127224653" type="Const" version="opset1">
			<data element_type="i64" shape="2" offset="33144" size="16"/>
			<output>
				<port id="0" precision="I64">
					<dim>2</dim>
				</port>
			</output>
		</layer>
		<layer id="294" name="Resize_195" type="Interpolate" version="opset4">
			<data mode="nearest" shape_calculation_mode="scales" coordinate_transformation_mode="asymmetric" nearest_mode="floor" antialias="false" pads_begin="0, 0, 0, 0" pads_end="0, 0, 0, 0" cube_coeff="-0.75"/>
			<input>
				<port id="0" precision="FP32">
					<dim>1</dim>
					<dim>40</dim>
					<dim>48</dim>
					<dim>36</dim>
				</port>
				<port id="1" precision="I64">
					<dim>2</dim>
				</port>
				<port id="2" precision="FP32">
					<dim>2</dim>
				</port>
				<port id="3" precision="I64">
					<dim>2</dim>
				</port>
			</input>
			<output>
				<port id="4" precision="FP32" names="2689">
					<dim>1</dim>
					<dim>40</dim>
					<dim>96</dim>
					<dim>72</dim>
				</port>
			</output>
		</layer>
		<layer id="295" name="Add_196" type="Add" version="opset1">
			<data auto_broadcast="numpy"/>
			<input>
				<port id="0" precision="FP32">
					<dim>1</dim>
					<dim>40</dim>
					<dim>96</dim>
					<dim>72</dim>
				</port>
				<port id="1" precision="FP32">
					<dim>1</dim>
					<dim>40</dim>
					<dim>96</dim>
					<dim>72</dim>
				</port>
			</input>
			<output>
				<port id="2" precision="FP32" names="2690">
					<dim>1</dim>
					<dim>40</dim>
					<dim>96</dim>
					<dim>72</dim>
				</port>
			</output>
		</layer>
		<layer id="296" name="Relu_197" type="ReLU" version="opset1">
			<input>
				<port id="0" precision="FP32">
					<dim>1</dim>
					<dim>40</dim>
					<dim>96</dim>
					<dim>72</dim>
				</port>
			</input>
			<output>
				<port id="1" precision="FP32" names="2691">
					<dim>1</dim>
					<dim>40</dim>
					<dim>96</dim>
					<dim>72</dim>
				</port>
			</output>
		</layer>
		<layer id="297" name="69004218353" type="Const" version="opset1">
			<data element_type="i64" shape="" offset="3584" size="8"/>
			<output>
				<port id="0" precision="I64"/>
			</output>
		</layer>
		<layer id="298" name="69006218836" type="Const" version="opset1">
			<data element_type="i64" shape="2" offset="17576" size="16"/>
			<output>
				<port id="0" precision="I64">
					<dim>2</dim>
				</port>
			</output>
		</layer>
		<layer id="299" name="Slice_215/Split" type="VariadicSplit" version="opset1">
			<input>
				<port id="0" precision="FP32">
					<dim>1</dim>
					<dim>40</dim>
					<dim>96</dim>
					<dim>72</dim>
				</port>
				<port id="1" precision="I64"/>
				<port id="2" precision="I64">
					<dim>2</dim>
				</port>
			</input>
			<output>
				<port id="3" precision="FP32" names="2713">
					<dim>1</dim>
					<dim>20</dim>
					<dim>96</dim>
					<dim>72</dim>
				</port>
				<port id="4" precision="FP32" names="2716">
					<dim>1</dim>
					<dim>20</dim>
					<dim>96</dim>
					<dim>72</dim>
				</port>
			</output>
		</layer>
		<layer id="300" name="AveragePool_235" type="AvgPool" version="opset1">
			<data kernel="2, 2" strides="2, 2" pads_begin="0, 0" pads_end="0, 0" exclude-pad="true" auto_pad="explicit" rounding_type="floor"/>
			<input>
				<port id="0" precision="FP32">
					<dim>1</dim>
					<dim>20</dim>
					<dim>96</dim>
					<dim>72</dim>
				</port>
			</input>
			<output>
				<port id="1" precision="FP32" names="2733">
					<dim>1</dim>
					<dim>20</dim>
					<dim>48</dim>
					<dim>36</dim>
				</port>
			</output>
		</layer>
		<layer id="301" name="10221223372" type="Const" version="opset1">
			<data element_type="f32" shape="40, 1, 1, 3, 3" offset="63324" size="1440"/>
			<output>
				<port id="0" precision="FP32" names="10221">
					<dim>40</dim>
					<dim>1</dim>
					<dim>1</dim>
					<dim>3</dim>
					<dim>3</dim>
				</port>
			</output>
		</layer>
		<layer id="302" name="Conv_198/WithoutBiases" type="GroupConvolution" version="opset1">
			<data strides="2, 2" pads_begin="1, 1" pads_end="1, 1" dilations="1, 1" auto_pad="explicit"/>
			<input>
				<port id="0" precision="FP32">
					<dim>1</dim>
					<dim>40</dim>
					<dim>96</dim>
					<dim>72</dim>
				</port>
				<port id="1" precision="FP32">
					<dim>40</dim>
					<dim>1</dim>
					<dim>1</dim>
					<dim>3</dim>
					<dim>3</dim>
				</port>
			</input>
			<output>
				<port id="2" precision="FP32">
					<dim>1</dim>
					<dim>40</dim>
					<dim>48</dim>
					<dim>36</dim>
				</port>
			</output>
		</layer>
		<layer id="303" name="Conv_198/Dims53695" type="Const" version="opset1">
			<data element_type="f32" shape="1, 40, 1, 1" offset="64764" size="160"/>
			<output>
				<port id="0" precision="FP32">
					<dim>1</dim>
					<dim>40</dim>
					<dim>1</dim>
					<dim>1</dim>
				</port>
			</output>
		</layer>
		<layer id="304" name="Conv_198" type="Add" version="opset1">
			<data auto_broadcast="numpy"/>
			<input>
				<port id="0" precision="FP32">
					<dim>1</dim>
					<dim>40</dim>
					<dim>48</dim>
					<dim>36</dim>
				</port>
				<port id="1" precision="FP32">
					<dim>1</dim>
					<dim>40</dim>
					<dim>1</dim>
					<dim>1</dim>
				</port>
			</input>
			<output>
				<port id="2" precision="FP32" names="10220">
					<dim>1</dim>
					<dim>40</dim>
					<dim>48</dim>
					<dim>36</dim>
				</port>
			</output>
		</layer>
		<layer id="305" name="10224" type="Const" version="opset1">
			<data element_type="f32" shape="80, 40, 1, 1" offset="64924" size="12800"/>
			<output>
				<port id="0" precision="FP32" names="10224">
					<dim>80</dim>
					<dim>40</dim>
					<dim>1</dim>
					<dim>1</dim>
				</port>
			</output>
		</layer>
		<layer id="306" name="Conv_199/WithoutBiases" type="Convolution" version="opset1">
			<data strides="1, 1" dilations="1, 1" pads_begin="0, 0" pads_end="0, 0" auto_pad="explicit"/>
			<input>
				<port id="0" precision="FP32">
					<dim>1</dim>
					<dim>40</dim>
					<dim>48</dim>
					<dim>36</dim>
				</port>
				<port id="1" precision="FP32">
					<dim>80</dim>
					<dim>40</dim>
					<dim>1</dim>
					<dim>1</dim>
				</port>
			</input>
			<output>
				<port id="2" precision="FP32">
					<dim>1</dim>
					<dim>80</dim>
					<dim>48</dim>
					<dim>36</dim>
				</port>
			</output>
		</layer>
		<layer id="307" name="Conv_199/Dims53089" type="Const" version="opset1">
			<data element_type="f32" shape="1, 80, 1, 1" offset="77724" size="320"/>
			<output>
				<port id="0" precision="FP32">
					<dim>1</dim>
					<dim>80</dim>
					<dim>1</dim>
					<dim>1</dim>
				</port>
			</output>
		</layer>
		<layer id="308" name="Conv_199" type="Add" version="opset1">
			<data auto_broadcast="numpy"/>
			<input>
				<port id="0" precision="FP32">
					<dim>1</dim>
					<dim>80</dim>
					<dim>48</dim>
					<dim>36</dim>
				</port>
				<port id="1" precision="FP32">
					<dim>1</dim>
					<dim>80</dim>
					<dim>1</dim>
					<dim>1</dim>
				</port>
			</input>
			<output>
				<port id="2" precision="FP32" names="10223">
					<dim>1</dim>
					<dim>80</dim>
					<dim>48</dim>
					<dim>36</dim>
				</port>
			</output>
		</layer>
		<layer id="309" name="10221" type="Const" version="opset1">
			<data element_type="f32" shape="40, 1, 1, 3, 3" offset="63324" size="1440"/>
			<output>
				<port id="0" precision="FP32" names="10221">
					<dim>40</dim>
					<dim>1</dim>
					<dim>1</dim>
					<dim>3</dim>
					<dim>3</dim>
				</port>
			</output>
		</layer>
		<layer id="310" name="Conv_200/WithoutBiases" type="GroupConvolution" version="opset1">
			<data strides="2, 2" pads_begin="1, 1" pads_end="1, 1" dilations="1, 1" auto_pad="explicit"/>
			<input>
				<port id="0" precision="FP32">
					<dim>1</dim>
					<dim>40</dim>
					<dim>96</dim>
					<dim>72</dim>
				</port>
				<port id="1" precision="FP32">
					<dim>40</dim>
					<dim>1</dim>
					<dim>1</dim>
					<dim>3</dim>
					<dim>3</dim>
				</port>
			</input>
			<output>
				<port id="2" precision="FP32">
					<dim>1</dim>
					<dim>40</dim>
					<dim>48</dim>
					<dim>36</dim>
				</port>
			</output>
		</layer>
		<layer id="311" name="Conv_200/Dims52273" type="Const" version="opset1">
			<data element_type="f32" shape="1, 40, 1, 1" offset="64764" size="160"/>
			<output>
				<port id="0" precision="FP32">
					<dim>1</dim>
					<dim>40</dim>
					<dim>1</dim>
					<dim>1</dim>
				</port>
			</output>
		</layer>
		<layer id="312" name="Conv_200" type="Add" version="opset1">
			<data auto_broadcast="numpy"/>
			<input>
				<port id="0" precision="FP32">
					<dim>1</dim>
					<dim>40</dim>
					<dim>48</dim>
					<dim>36</dim>
				</port>
				<port id="1" precision="FP32">
					<dim>1</dim>
					<dim>40</dim>
					<dim>1</dim>
					<dim>1</dim>
				</port>
			</input>
			<output>
				<port id="2" precision="FP32" names="10226">
					<dim>1</dim>
					<dim>40</dim>
					<dim>48</dim>
					<dim>36</dim>
				</port>
			</output>
		</layer>
		<layer id="313" name="10224224491" type="Const" version="opset1">
			<data element_type="f32" shape="80, 40, 1, 1" offset="64924" size="12800"/>
			<output>
				<port id="0" precision="FP32" names="10224">
					<dim>80</dim>
					<dim>40</dim>
					<dim>1</dim>
					<dim>1</dim>
				</port>
			</output>
		</layer>
		<layer id="314" name="Conv_201/WithoutBiases" type="Convolution" version="opset1">
			<data strides="1, 1" dilations="1, 1" pads_begin="0, 0" pads_end="0, 0" auto_pad="explicit"/>
			<input>
				<port id="0" precision="FP32">
					<dim>1</dim>
					<dim>40</dim>
					<dim>48</dim>
					<dim>36</dim>
				</port>
				<port id="1" precision="FP32">
					<dim>80</dim>
					<dim>40</dim>
					<dim>1</dim>
					<dim>1</dim>
				</port>
			</input>
			<output>
				<port id="2" precision="FP32">
					<dim>1</dim>
					<dim>80</dim>
					<dim>48</dim>
					<dim>36</dim>
				</port>
			</output>
		</layer>
		<layer id="315" name="Conv_201/Dims51541" type="Const" version="opset1">
			<data element_type="f32" shape="1, 80, 1, 1" offset="77724" size="320"/>
			<output>
				<port id="0" precision="FP32">
					<dim>1</dim>
					<dim>80</dim>
					<dim>1</dim>
					<dim>1</dim>
				</port>
			</output>
		</layer>
		<layer id="316" name="Conv_201" type="Add" version="opset1">
			<data auto_broadcast="numpy"/>
			<input>
				<port id="0" precision="FP32">
					<dim>1</dim>
					<dim>80</dim>
					<dim>48</dim>
					<dim>36</dim>
				</port>
				<port id="1" precision="FP32">
					<dim>1</dim>
					<dim>80</dim>
					<dim>1</dim>
					<dim>1</dim>
				</port>
			</input>
			<output>
				<port id="2" precision="FP32" names="10229">
					<dim>1</dim>
					<dim>80</dim>
					<dim>48</dim>
					<dim>36</dim>
				</port>
			</output>
		</layer>
		<layer id="317" name="Add_202" type="Add" version="opset1">
			<data auto_broadcast="numpy"/>
			<input>
				<port id="0" precision="FP32">
					<dim>1</dim>
					<dim>80</dim>
					<dim>48</dim>
					<dim>36</dim>
				</port>
				<port id="1" precision="FP32">
					<dim>1</dim>
					<dim>80</dim>
					<dim>48</dim>
					<dim>36</dim>
				</port>
			</input>
			<output>
				<port id="2" precision="FP32" names="2700">
					<dim>1</dim>
					<dim>80</dim>
					<dim>48</dim>
					<dim>36</dim>
				</port>
			</output>
		</layer>
		<layer id="318" name="Add_203" type="Add" version="opset1">
			<data auto_broadcast="numpy"/>
			<input>
				<port id="0" precision="FP32">
					<dim>1</dim>
					<dim>80</dim>
					<dim>48</dim>
					<dim>36</dim>
				</port>
				<port id="1" precision="FP32">
					<dim>1</dim>
					<dim>80</dim>
					<dim>48</dim>
					<dim>36</dim>
				</port>
			</input>
			<output>
				<port id="2" precision="FP32" names="2701">
					<dim>1</dim>
					<dim>80</dim>
					<dim>48</dim>
					<dim>36</dim>
				</port>
			</output>
		</layer>
		<layer id="319" name="Relu_204" type="ReLU" version="opset1">
			<input>
				<port id="0" precision="FP32">
					<dim>1</dim>
					<dim>80</dim>
					<dim>48</dim>
					<dim>36</dim>
				</port>
			</input>
			<output>
				<port id="1" precision="FP32" names="2702">
					<dim>1</dim>
					<dim>80</dim>
					<dim>48</dim>
					<dim>36</dim>
				</port>
			</output>
		</layer>
		<layer id="320" name="69009220975" type="Const" version="opset1">
			<data element_type="i64" shape="" offset="3584" size="8"/>
			<output>
				<port id="0" precision="I64"/>
			</output>
		</layer>
		<layer id="321" name="69011224959" type="Const" version="opset1">
			<data element_type="i64" shape="2" offset="29432" size="16"/>
			<output>
				<port id="0" precision="I64">
					<dim>2</dim>
				</port>
			</output>
		</layer>
		<layer id="322" name="Slice_229/Split" type="VariadicSplit" version="opset1">
			<input>
				<port id="0" precision="FP32">
					<dim>1</dim>
					<dim>80</dim>
					<dim>48</dim>
					<dim>36</dim>
				</port>
				<port id="1" precision="I64"/>
				<port id="2" precision="I64">
					<dim>2</dim>
				</port>
			</input>
			<output>
				<port id="3" precision="FP32" names="2727">
					<dim>1</dim>
					<dim>40</dim>
					<dim>48</dim>
					<dim>36</dim>
				</port>
				<port id="4" precision="FP32" names="2730">
					<dim>1</dim>
					<dim>40</dim>
					<dim>48</dim>
					<dim>36</dim>
				</port>
			</output>
		</layer>
		<layer id="323" name="Concat_236" type="Concat" version="opset1">
			<data axis="1"/>
			<input>
				<port id="0" precision="FP32">
					<dim>1</dim>
					<dim>20</dim>
					<dim>48</dim>
					<dim>36</dim>
				</port>
				<port id="1" precision="FP32">
					<dim>1</dim>
					<dim>40</dim>
					<dim>48</dim>
					<dim>36</dim>
				</port>
			</input>
			<output>
				<port id="2" precision="FP32" names="2734">
					<dim>1</dim>
					<dim>60</dim>
					<dim>48</dim>
					<dim>36</dim>
				</port>
			</output>
		</layer>
		<layer id="324" name="10233" type="Const" version="opset1">
			<data element_type="f32" shape="7, 60, 1, 1" offset="78044" size="1680"/>
			<output>
				<port id="0" precision="FP32" names="10233">
					<dim>7</dim>
					<dim>60</dim>
					<dim>1</dim>
					<dim>1</dim>
				</port>
			</output>
		</layer>
		<layer id="325" name="Conv_237/WithoutBiases" type="Convolution" version="opset1">
			<data strides="1, 1" dilations="1, 1" pads_begin="0, 0" pads_end="0, 0" auto_pad="explicit"/>
			<input>
				<port id="0" precision="FP32">
					<dim>1</dim>
					<dim>60</dim>
					<dim>48</dim>
					<dim>36</dim>
				</port>
				<port id="1" precision="FP32">
					<dim>7</dim>
					<dim>60</dim>
					<dim>1</dim>
					<dim>1</dim>
				</port>
			</input>
			<output>
				<port id="2" precision="FP32">
					<dim>1</dim>
					<dim>7</dim>
					<dim>48</dim>
					<dim>36</dim>
				</port>
			</output>
		</layer>
		<layer id="326" name="Conv_237/Dims53923" type="Const" version="opset1">
			<data element_type="f32" shape="1, 7, 1, 1" offset="79724" size="28"/>
			<output>
				<port id="0" precision="FP32">
					<dim>1</dim>
					<dim>7</dim>
					<dim>1</dim>
					<dim>1</dim>
				</port>
			</output>
		</layer>
		<layer id="327" name="Conv_237" type="Add" version="opset1">
			<data auto_broadcast="numpy"/>
			<input>
				<port id="0" precision="FP32">
					<dim>1</dim>
					<dim>7</dim>
					<dim>48</dim>
					<dim>36</dim>
				</port>
				<port id="1" precision="FP32">
					<dim>1</dim>
					<dim>7</dim>
					<dim>1</dim>
					<dim>1</dim>
				</port>
			</input>
			<output>
				<port id="2" precision="FP32" names="10232">
					<dim>1</dim>
					<dim>7</dim>
					<dim>48</dim>
					<dim>36</dim>
				</port>
			</output>
		</layer>
		<layer id="328" name="Relu_238" type="ReLU" version="opset1">
			<input>
				<port id="0" precision="FP32">
					<dim>1</dim>
					<dim>7</dim>
					<dim>48</dim>
					<dim>36</dim>
				</port>
			</input>
			<output>
				<port id="1" precision="FP32" names="2737">
					<dim>1</dim>
					<dim>7</dim>
					<dim>48</dim>
					<dim>36</dim>
				</port>
			</output>
		</layer>
		<layer id="329" name="10236" type="Const" version="opset1">
			<data element_type="f32" shape="60, 7, 1, 1" offset="79752" size="1680"/>
			<output>
				<port id="0" precision="FP32" names="10236">
					<dim>60</dim>
					<dim>7</dim>
					<dim>1</dim>
					<dim>1</dim>
				</port>
			</output>
		</layer>
		<layer id="330" name="Conv_239/WithoutBiases" type="Convolution" version="opset1">
			<data strides="1, 1" dilations="1, 1" pads_begin="0, 0" pads_end="0, 0" auto_pad="explicit"/>
			<input>
				<port id="0" precision="FP32">
					<dim>1</dim>
					<dim>7</dim>
					<dim>48</dim>
					<dim>36</dim>
				</port>
				<port id="1" precision="FP32">
					<dim>60</dim>
					<dim>7</dim>
					<dim>1</dim>
					<dim>1</dim>
				</port>
			</input>
			<output>
				<port id="2" precision="FP32">
					<dim>1</dim>
					<dim>60</dim>
					<dim>48</dim>
					<dim>36</dim>
				</port>
			</output>
		</layer>
		<layer id="331" name="Conv_239/Dims54361" type="Const" version="opset1">
			<data element_type="f32" shape="1, 60, 1, 1" offset="81432" size="240"/>
			<output>
				<port id="0" precision="FP32">
					<dim>1</dim>
					<dim>60</dim>
					<dim>1</dim>
					<dim>1</dim>
				</port>
			</output>
		</layer>
		<layer id="332" name="Conv_239" type="Add" version="opset1">
			<data auto_broadcast="numpy"/>
			<input>
				<port id="0" precision="FP32">
					<dim>1</dim>
					<dim>60</dim>
					<dim>48</dim>
					<dim>36</dim>
				</port>
				<port id="1" precision="FP32">
					<dim>1</dim>
					<dim>60</dim>
					<dim>1</dim>
					<dim>1</dim>
				</port>
			</input>
			<output>
				<port id="2" precision="FP32" names="10235">
					<dim>1</dim>
					<dim>60</dim>
					<dim>48</dim>
					<dim>36</dim>
				</port>
			</output>
		</layer>
		<layer id="333" name="Sigmoid_240" type="Sigmoid" version="opset1">
			<input>
				<port id="0" precision="FP32">
					<dim>1</dim>
					<dim>60</dim>
					<dim>48</dim>
					<dim>36</dim>
				</port>
			</input>
			<output>
				<port id="1" precision="FP32" names="2740">
					<dim>1</dim>
					<dim>60</dim>
					<dim>48</dim>
					<dim>36</dim>
				</port>
			</output>
		</layer>
		<layer id="334" name="Split_241/VariadicSplit_input_port_1/value" type="Const" version="opset1">
			<data element_type="i64" shape="" offset="3584" size="8"/>
			<output>
				<port id="0" precision="I64"/>
			</output>
		</layer>
		<layer id="335" name="Split_241/VariadicSplit_input_port_2/value" type="Const" version="opset1">
			<data element_type="i64" shape="2" offset="33076" size="16"/>
			<output>
				<port id="0" precision="I64">
					<dim>2</dim>
				</port>
			</output>
		</layer>
		<layer id="336" name="Split_241/VariadicSplit" type="VariadicSplit" version="opset1">
			<input>
				<port id="0" precision="FP32">
					<dim>1</dim>
					<dim>60</dim>
					<dim>48</dim>
					<dim>36</dim>
				</port>
				<port id="1" precision="I64"/>
				<port id="2" precision="I64">
					<dim>2</dim>
				</port>
			</input>
			<output>
				<port id="3" precision="FP32" names="2741">
					<dim>1</dim>
					<dim>20</dim>
					<dim>48</dim>
					<dim>36</dim>
				</port>
				<port id="4" precision="FP32" names="2742">
					<dim>1</dim>
					<dim>40</dim>
					<dim>48</dim>
					<dim>36</dim>
				</port>
			</output>
		</layer>
		<layer id="337" name="Resize_260/StridedSlice_sizes37175223714" type="Const" version="opset1">
			<data element_type="i64" shape="2" offset="33092" size="16"/>
			<output>
				<port id="0" precision="I64">
					<dim>2</dim>
				</port>
			</output>
		</layer>
		<layer id="338" name="3716737169225067" type="Const" version="opset1">
			<data element_type="f32" shape="4" offset="33108" size="16"/>
			<output>
				<port id="0" precision="FP32">
					<dim>4</dim>
				</port>
			</output>
		</layer>
		<layer id="339" name="Resize_260/ShapeOf" type="ShapeOf" version="opset3">
			<data output_type="i64"/>
			<input>
				<port id="0" precision="FP32">
					<dim>1</dim>
					<dim>20</dim>
					<dim>48</dim>
					<dim>36</dim>
				</port>
			</input>
			<output>
				<port id="1" precision="I64">
					<dim>4</dim>
				</port>
			</output>
		</layer>
		<layer id="340" name="37166" type="Convert" version="opset1">
			<data destination_type="f32"/>
			<input>
				<port id="0" precision="I64">
					<dim>4</dim>
				</port>
			</input>
			<output>
				<port id="1" precision="FP32">
					<dim>4</dim>
				</port>
			</output>
		</layer>
		<layer id="341" name="Resize_260/Div" type="Divide" version="opset1">
			<data auto_broadcast="numpy" m_pythondiv="true"/>
			<input>
				<port id="0" precision="FP32">
					<dim>4</dim>
				</port>
				<port id="1" precision="FP32">
					<dim>4</dim>
				</port>
			</input>
			<output>
				<port id="2" precision="FP32">
					<dim>4</dim>
				</port>
			</output>
		</layer>
		<layer id="342" name="Resize_260/Add_input_port_1/value37165217786" type="Const" version="opset1">
			<data element_type="f32" shape="1" offset="33124" size="4"/>
			<output>
				<port id="0" precision="FP32">
					<dim>1</dim>
				</port>
			</output>
		</layer>
		<layer id="343" name="Resize_260/Add" type="Add" version="opset1">
			<data auto_broadcast="numpy"/>
			<input>
				<port id="0" precision="FP32">
					<dim>4</dim>
				</port>
				<port id="1" precision="FP32">
					<dim>1</dim>
				</port>
			</input>
			<output>
				<port id="2" precision="FP32">
					<dim>4</dim>
				</port>
			</output>
		</layer>
		<layer id="344" name="Resize_260/StridedSlice_scales_input_port_1/value37154221968" type="Const" version="opset1">
			<data element_type="i64" shape="1" offset="33128" size="8"/>
			<output>
				<port id="0" precision="I64">
					<dim>1</dim>
				</port>
			</output>
		</layer>
		<layer id="345" name="Resize_260/StridedSlice_scales_input_port_2/value37156224404" type="Const" version="opset1">
			<data element_type="i64" shape="1" offset="33136" size="8"/>
			<output>
				<port id="0" precision="I64">
					<dim>1</dim>
				</port>
			</output>
		</layer>
		<layer id="346" name="Resize_260/StridedSlice_scales_input_port_3/value37158224515" type="Const" version="opset1">
			<data element_type="i64" shape="1" offset="3584" size="8"/>
			<output>
				<port id="0" precision="I64">
					<dim>1</dim>
				</port>
			</output>
		</layer>
		<layer id="347" name="Resize_260/StridedSlice_scales" type="StridedSlice" version="opset1">
			<data begin_mask="0" end_mask="0" new_axis_mask="0" shrink_axis_mask="0" ellipsis_mask="0"/>
			<input>
				<port id="0" precision="FP32">
					<dim>4</dim>
				</port>
				<port id="1" precision="I64">
					<dim>1</dim>
				</port>
				<port id="2" precision="I64">
					<dim>1</dim>
				</port>
				<port id="3" precision="I64">
					<dim>1</dim>
				</port>
			</input>
			<output>
				<port id="4" precision="FP32">
					<dim>2</dim>
				</port>
			</output>
		</layer>
		<layer id="348" name="Resize_260/axis37161218731" type="Const" version="opset1">
			<data element_type="i64" shape="2" offset="33144" size="16"/>
			<output>
				<port id="0" precision="I64">
					<dim>2</dim>
				</port>
			</output>
		</layer>
		<layer id="349" name="Resize_260" type="Interpolate" version="opset4">
			<data mode="nearest" shape_calculation_mode="sizes" coordinate_transformation_mode="asymmetric" nearest_mode="floor" antialias="false" pads_begin="0, 0, 0, 0" pads_end="0, 0, 0, 0" cube_coeff="-0.75"/>
			<input>
				<port id="0" precision="FP32">
					<dim>1</dim>
					<dim>20</dim>
					<dim>48</dim>
					<dim>36</dim>
				</port>
				<port id="1" precision="I64">
					<dim>2</dim>
				</port>
				<port id="2" precision="FP32">
					<dim>2</dim>
				</port>
				<port id="3" precision="I64">
					<dim>2</dim>
				</port>
			</input>
			<output>
				<port id="4" precision="FP32" names="2761">
					<dim>1</dim>
					<dim>20</dim>
					<dim>96</dim>
					<dim>72</dim>
				</port>
			</output>
		</layer>
		<layer id="350" name="Mul_261" type="Multiply" version="opset1">
			<data auto_broadcast="numpy"/>
			<input>
				<port id="0" precision="FP32">
					<dim>1</dim>
					<dim>20</dim>
					<dim>96</dim>
					<dim>72</dim>
				</port>
				<port id="1" precision="FP32">
					<dim>1</dim>
					<dim>20</dim>
					<dim>96</dim>
					<dim>72</dim>
				</port>
			</input>
			<output>
				<port id="2" precision="FP32" names="2762">
					<dim>1</dim>
					<dim>20</dim>
					<dim>96</dim>
					<dim>72</dim>
				</port>
			</output>
		</layer>
		<layer id="351" name="10239" type="Const" version="opset1">
			<data element_type="f32" shape="20, 1, 1, 3, 3" offset="81672" size="720"/>
			<output>
				<port id="0" precision="FP32" names="10239">
					<dim>20</dim>
					<dim>1</dim>
					<dim>1</dim>
					<dim>3</dim>
					<dim>3</dim>
				</port>
			</output>
		</layer>
		<layer id="352" name="Conv_282/WithoutBiases" type="GroupConvolution" version="opset1">
			<data strides="1, 1" pads_begin="1, 1" pads_end="1, 1" dilations="1, 1" auto_pad="explicit"/>
			<input>
				<port id="0" precision="FP32">
					<dim>1</dim>
					<dim>20</dim>
					<dim>96</dim>
					<dim>72</dim>
				</port>
				<port id="1" precision="FP32">
					<dim>20</dim>
					<dim>1</dim>
					<dim>1</dim>
					<dim>3</dim>
					<dim>3</dim>
				</port>
			</input>
			<output>
				<port id="2" precision="FP32">
					<dim>1</dim>
					<dim>20</dim>
					<dim>96</dim>
					<dim>72</dim>
				</port>
			</output>
		</layer>
		<layer id="353" name="Conv_282/Dims51355" type="Const" version="opset1">
			<data element_type="f32" shape="1, 20, 1, 1" offset="82392" size="80"/>
			<output>
				<port id="0" precision="FP32">
					<dim>1</dim>
					<dim>20</dim>
					<dim>1</dim>
					<dim>1</dim>
				</port>
			</output>
		</layer>
		<layer id="354" name="Conv_282" type="Add" version="opset1">
			<data auto_broadcast="numpy"/>
			<input>
				<port id="0" precision="FP32">
					<dim>1</dim>
					<dim>20</dim>
					<dim>96</dim>
					<dim>72</dim>
				</port>
				<port id="1" precision="FP32">
					<dim>1</dim>
					<dim>20</dim>
					<dim>1</dim>
					<dim>1</dim>
				</port>
			</input>
			<output>
				<port id="2" precision="FP32" names="10238">
					<dim>1</dim>
					<dim>20</dim>
					<dim>96</dim>
					<dim>72</dim>
				</port>
			</output>
		</layer>
		<layer id="355" name="3606" type="Const" version="opset1">
			<data element_type="i64" shape="" offset="33128" size="8"/>
			<output>
				<port id="0" precision="I64"/>
			</output>
		</layer>
		<layer id="356" name="GlobalAveragePool_284/input_rank/shape_of" type="ShapeOf" version="opset3">
			<data output_type="i64"/>
			<input>
				<port id="0" precision="FP32">
					<dim>1</dim>
					<dim>20</dim>
					<dim>96</dim>
					<dim>72</dim>
				</port>
			</input>
			<output>
				<port id="1" precision="I64">
					<dim>4</dim>
				</port>
			</output>
		</layer>
		<layer id="357" name="GlobalAveragePool_284/input_rank/rank_of" type="ShapeOf" version="opset3">
			<data output_type="i64"/>
			<input>
				<port id="0" precision="I64">
					<dim>4</dim>
				</port>
			</input>
			<output>
				<port id="1" precision="I64">
					<dim>1</dim>
				</port>
			</output>
		</layer>
		<layer id="358" name="GlobalAveragePool_284/input_rank/0d_rank_of/value" type="Const" version="opset1">
			<data element_type="i64" shape="1" offset="33960" size="8"/>
			<output>
				<port id="0" precision="I64">
					<dim>1</dim>
				</port>
			</output>
		</layer>
		<layer id="359" name="GlobalAveragePool_284/input_rank" type="Squeeze" version="opset1">
			<input>
				<port id="0" precision="I64">
					<dim>1</dim>
				</port>
				<port id="1" precision="I64">
					<dim>1</dim>
				</port>
			</input>
			<output>
				<port id="2" precision="I64"/>
			</output>
		</layer>
		<layer id="360" name="3608" type="Const" version="opset1">
			<data element_type="i64" shape="" offset="3584" size="8"/>
			<output>
				<port id="0" precision="I64"/>
			</output>
		</layer>
		<layer id="361" name="GlobalAveragePool_284/global_pooling_reduce_axis" type="Range" version="opset4">
			<data output_type="i64"/>
			<input>
				<port id="0" precision="I64"/>
				<port id="1" precision="I64"/>
				<port id="2" precision="I64"/>
			</input>
			<output>
				<port id="3" precision="I64">
					<dim>2</dim>
				</port>
			</output>
		</layer>
		<layer id="362" name="GlobalAveragePool_284/reduce" type="ReduceMean" version="opset1">
			<data keep_dims="true"/>
			<input>
				<port id="0" precision="FP32">
					<dim>1</dim>
					<dim>20</dim>
					<dim>96</dim>
					<dim>72</dim>
				</port>
				<port id="1" precision="I64">
					<dim>2</dim>
				</port>
			</input>
			<output>
				<port id="2" precision="FP32" names="2787">
					<dim>1</dim>
					<dim>20</dim>
					<dim>1</dim>
					<dim>1</dim>
				</port>
			</output>
		</layer>
		<layer id="363" name="backbone.stage0.1.layers.0.spatial_weighting.0.conv1.conv.weight" type="Const" version="opset1">
			<data element_type="f32" shape="5, 20, 1, 1" offset="82472" size="400"/>
			<output>
				<port id="0" precision="FP32" names="backbone.stage0.1.layers.0.spatial_weighting.0.conv1.conv.weight">
					<dim>5</dim>
					<dim>20</dim>
					<dim>1</dim>
					<dim>1</dim>
				</port>
			</output>
		</layer>
		<layer id="364" name="Conv_285/WithoutBiases" type="Convolution" version="opset1">
			<data strides="1, 1" dilations="1, 1" pads_begin="0, 0" pads_end="0, 0" auto_pad="explicit"/>
			<input>
				<port id="0" precision="FP32">
					<dim>1</dim>
					<dim>20</dim>
					<dim>1</dim>
					<dim>1</dim>
				</port>
				<port id="1" precision="FP32">
					<dim>5</dim>
					<dim>20</dim>
					<dim>1</dim>
					<dim>1</dim>
				</port>
			</input>
			<output>
				<port id="2" precision="FP32">
					<dim>1</dim>
					<dim>5</dim>
					<dim>1</dim>
					<dim>1</dim>
				</port>
			</output>
		</layer>
		<layer id="365" name="Conv_285/Dims52237" type="Const" version="opset1">
			<data element_type="f32" shape="1, 5, 1, 1" offset="82872" size="20"/>
			<output>
				<port id="0" precision="FP32">
					<dim>1</dim>
					<dim>5</dim>
					<dim>1</dim>
					<dim>1</dim>
				</port>
			</output>
		</layer>
		<layer id="366" name="Conv_285" type="Add" version="opset1">
			<data auto_broadcast="numpy"/>
			<input>
				<port id="0" precision="FP32">
					<dim>1</dim>
					<dim>5</dim>
					<dim>1</dim>
					<dim>1</dim>
				</port>
				<port id="1" precision="FP32">
					<dim>1</dim>
					<dim>5</dim>
					<dim>1</dim>
					<dim>1</dim>
				</port>
			</input>
			<output>
				<port id="2" precision="FP32" names="2788">
					<dim>1</dim>
					<dim>5</dim>
					<dim>1</dim>
					<dim>1</dim>
				</port>
			</output>
		</layer>
		<layer id="367" name="Relu_286" type="ReLU" version="opset1">
			<input>
				<port id="0" precision="FP32">
					<dim>1</dim>
					<dim>5</dim>
					<dim>1</dim>
					<dim>1</dim>
				</port>
			</input>
			<output>
				<port id="1" precision="FP32" names="2789">
					<dim>1</dim>
					<dim>5</dim>
					<dim>1</dim>
					<dim>1</dim>
				</port>
			</output>
		</layer>
		<layer id="368" name="backbone.stage0.1.layers.0.spatial_weighting.0.conv2.conv.weight" type="Const" version="opset1">
			<data element_type="f32" shape="20, 5, 1, 1" offset="82892" size="400"/>
			<output>
				<port id="0" precision="FP32" names="backbone.stage0.1.layers.0.spatial_weighting.0.conv2.conv.weight">
					<dim>20</dim>
					<dim>5</dim>
					<dim>1</dim>
					<dim>1</dim>
				</port>
			</output>
		</layer>
		<layer id="369" name="Conv_287/WithoutBiases" type="Convolution" version="opset1">
			<data strides="1, 1" dilations="1, 1" pads_begin="0, 0" pads_end="0, 0" auto_pad="explicit"/>
			<input>
				<port id="0" precision="FP32">
					<dim>1</dim>
					<dim>5</dim>
					<dim>1</dim>
					<dim>1</dim>
				</port>
				<port id="1" precision="FP32">
					<dim>20</dim>
					<dim>5</dim>
					<dim>1</dim>
					<dim>1</dim>
				</port>
			</input>
			<output>
				<port id="2" precision="FP32">
					<dim>1</dim>
					<dim>20</dim>
					<dim>1</dim>
					<dim>1</dim>
				</port>
			</output>
		</layer>
		<layer id="370" name="Conv_287/Dims51007" type="Const" version="opset1">
			<data element_type="f32" shape="1, 20, 1, 1" offset="83292" size="80"/>
			<output>
				<port id="0" precision="FP32">
					<dim>1</dim>
					<dim>20</dim>
					<dim>1</dim>
					<dim>1</dim>
				</port>
			</output>
		</layer>
		<layer id="371" name="Conv_287" type="Add" version="opset1">
			<data auto_broadcast="numpy"/>
			<input>
				<port id="0" precision="FP32">
					<dim>1</dim>
					<dim>20</dim>
					<dim>1</dim>
					<dim>1</dim>
				</port>
				<port id="1" precision="FP32">
					<dim>1</dim>
					<dim>20</dim>
					<dim>1</dim>
					<dim>1</dim>
				</port>
			</input>
			<output>
				<port id="2" precision="FP32" names="2790">
					<dim>1</dim>
					<dim>20</dim>
					<dim>1</dim>
					<dim>1</dim>
				</port>
			</output>
		</layer>
		<layer id="372" name="Sigmoid_288" type="Sigmoid" version="opset1">
			<input>
				<port id="0" precision="FP32">
					<dim>1</dim>
					<dim>20</dim>
					<dim>1</dim>
					<dim>1</dim>
				</port>
			</input>
			<output>
				<port id="1" precision="FP32" names="2791">
					<dim>1</dim>
					<dim>20</dim>
					<dim>1</dim>
					<dim>1</dim>
				</port>
			</output>
		</layer>
		<layer id="373" name="Mul_289" type="Multiply" version="opset1">
			<data auto_broadcast="numpy"/>
			<input>
				<port id="0" precision="FP32">
					<dim>1</dim>
					<dim>20</dim>
					<dim>96</dim>
					<dim>72</dim>
				</port>
				<port id="1" precision="FP32">
					<dim>1</dim>
					<dim>20</dim>
					<dim>1</dim>
					<dim>1</dim>
				</port>
			</input>
			<output>
				<port id="2" precision="FP32" names="2792">
					<dim>1</dim>
					<dim>20</dim>
					<dim>96</dim>
					<dim>72</dim>
				</port>
			</output>
		</layer>
		<layer id="374" name="Concat_296" type="Concat" version="opset1">
			<data axis="1"/>
			<input>
				<port id="0" precision="FP32">
…
		<edge from-layer="5862" from-port="1" to-layer="5958" to-port="1"/>
		<edge from-layer="5863" from-port="0" to-layer="5875" to-port="1"/>
		<edge from-layer="5864" from-port="0" to-layer="5867" to-port="0"/>
		<edge from-layer="5865" from-port="1" to-layer="5866" to-port="0"/>
		<edge from-layer="5866" from-port="1" to-layer="5867" to-port="1"/>
		<edge from-layer="5867" from-port="2" to-layer="5869" to-port="0"/>
		<edge from-layer="5868" from-port="0" to-layer="5869" to-port="1"/>
		<edge from-layer="5869" from-port="2" to-layer="5873" to-port="0"/>
		<edge from-layer="5870" from-port="0" to-layer="5873" to-port="1"/>
		<edge from-layer="5871" from-port="0" to-layer="5873" to-port="2"/>
		<edge from-layer="5872" from-port="0" to-layer="5873" to-port="3"/>
		<edge from-layer="5873" from-port="4" to-layer="5875" to-port="2"/>
		<edge from-layer="5874" from-port="0" to-layer="5875" to-port="3"/>
		<edge from-layer="5875" from-port="4" to-layer="5876" to-port="1"/>
		<edge from-layer="5876" from-port="2" to-layer="5878" to-port="0"/>
		<edge from-layer="5877" from-port="0" to-layer="5878" to-port="1"/>
		<edge from-layer="5878" from-port="2" to-layer="5880" to-port="0"/>
		<edge from-layer="5879" from-port="0" to-layer="5880" to-port="1"/>
		<edge from-layer="5880" from-port="2" to-layer="5888" to-port="0"/>
		<edge from-layer="5880" from-port="2" to-layer="5899" to-port="0"/>
		<edge from-layer="5880" from-port="2" to-layer="5882" to-port="0"/>
		<edge from-layer="5881" from-port="0" to-layer="5887" to-port="0"/>
		<edge from-layer="5882" from-port="1" to-layer="5883" to-port="0"/>
		<edge from-layer="5883" from-port="1" to-layer="5885" to-port="0"/>
		<edge from-layer="5884" from-port="0" to-layer="5885" to-port="1"/>
		<edge from-layer="5885" from-port="2" to-layer="5887" to-port="1"/>
		<edge from-layer="5886" from-port="0" to-layer="5887" to-port="2"/>
		<edge from-layer="5887" from-port="3" to-layer="5888" to-port="1"/>
		<edge from-layer="5888" from-port="2" to-layer="5890" to-port="0"/>
		<edge from-layer="5889" from-port="0" to-layer="5890" to-port="1"/>
		<edge from-layer="5890" from-port="2" to-layer="5892" to-port="0"/>
		<edge from-layer="5891" from-port="0" to-layer="5892" to-port="1"/>
		<edge from-layer="5892" from-port="2" to-layer="5893" to-port="0"/>
		<edge from-layer="5893" from-port="1" to-layer="5895" to-port="0"/>
		<edge from-layer="5894" from-port="0" to-layer="5895" to-port="1"/>
		<edge from-layer="5895" from-port="2" to-layer="5897" to-port="0"/>
		<edge from-layer="5896" from-port="0" to-layer="5897" to-port="1"/>
		<edge from-layer="5897" from-port="2" to-layer="5898" to-port="0"/>
		<edge from-layer="5898" from-port="1" to-layer="5899" to-port="1"/>
		<edge from-layer="5899" from-port="2" to-layer="5900" to-port="1"/>
		<edge from-layer="5900" from-port="2" to-layer="5902" to-port="0"/>
		<edge from-layer="5901" from-port="0" to-layer="5902" to-port="1"/>
		<edge from-layer="5902" from-port="2" to-layer="5904" to-port="0"/>
		<edge from-layer="5903" from-port="0" to-layer="5904" to-port="1"/>
		<edge from-layer="5904" from-port="2" to-layer="5906" to-port="0"/>
		<edge from-layer="5905" from-port="0" to-layer="5906" to-port="1"/>
		<edge from-layer="5906" from-port="2" to-layer="5909" to-port="0"/>
		<edge from-layer="5907" from-port="0" to-layer="5909" to-port="1"/>
		<edge from-layer="5908" from-port="0" to-layer="5909" to-port="2"/>
		<edge from-layer="5909" from-port="3" to-layer="6118" to-port="0"/>
		<edge from-layer="5909" from-port="4" to-layer="6094" to-port="0"/>
		<edge from-layer="5909" from-port="4" to-layer="5910" to-port="0"/>
		<edge from-layer="5910" from-port="1" to-layer="5958" to-port="2"/>
		<edge from-layer="5911" from-port="0" to-layer="5923" to-port="1"/>
		<edge from-layer="5912" from-port="0" to-layer="5915" to-port="0"/>
		<edge from-layer="5913" from-port="1" to-layer="5914" to-port="0"/>
		<edge from-layer="5914" from-port="1" to-layer="5915" to-port="1"/>
		<edge from-layer="5915" from-port="2" to-layer="5917" to-port="0"/>
		<edge from-layer="5916" from-port="0" to-layer="5917" to-port="1"/>
		<edge from-layer="5917" from-port="2" to-layer="5921" to-port="0"/>
		<edge from-layer="5918" from-port="0" to-layer="5921" to-port="1"/>
		<edge from-layer="5919" from-port="0" to-layer="5921" to-port="2"/>
		<edge from-layer="5920" from-port="0" to-layer="5921" to-port="3"/>
		<edge from-layer="5921" from-port="4" to-layer="5923" to-port="2"/>
		<edge from-layer="5922" from-port="0" to-layer="5923" to-port="3"/>
		<edge from-layer="5923" from-port="4" to-layer="5924" to-port="1"/>
		<edge from-layer="5924" from-port="2" to-layer="5926" to-port="0"/>
		<edge from-layer="5925" from-port="0" to-layer="5926" to-port="1"/>
		<edge from-layer="5926" from-port="2" to-layer="5928" to-port="0"/>
		<edge from-layer="5927" from-port="0" to-layer="5928" to-port="1"/>
		<edge from-layer="5928" from-port="2" to-layer="5930" to-port="0"/>
		<edge from-layer="5928" from-port="2" to-layer="5936" to-port="0"/>
		<edge from-layer="5928" from-port="2" to-layer="5947" to-port="0"/>
		<edge from-layer="5929" from-port="0" to-layer="5935" to-port="0"/>
		<edge from-layer="5930" from-port="1" to-layer="5931" to-port="0"/>
		<edge from-layer="5931" from-port="1" to-layer="5933" to-port="0"/>
		<edge from-layer="5932" from-port="0" to-layer="5933" to-port="1"/>
		<edge from-layer="5933" from-port="2" to-layer="5935" to-port="1"/>
		<edge from-layer="5934" from-port="0" to-layer="5935" to-port="2"/>
		<edge from-layer="5935" from-port="3" to-layer="5936" to-port="1"/>
		<edge from-layer="5936" from-port="2" to-layer="5938" to-port="0"/>
		<edge from-layer="5937" from-port="0" to-layer="5938" to-port="1"/>
		<edge from-layer="5938" from-port="2" to-layer="5940" to-port="0"/>
		<edge from-layer="5939" from-port="0" to-layer="5940" to-port="1"/>
		<edge from-layer="5940" from-port="2" to-layer="5941" to-port="0"/>
		<edge from-layer="5941" from-port="1" to-layer="5943" to-port="0"/>
		<edge from-layer="5942" from-port="0" to-layer="5943" to-port="1"/>
		<edge from-layer="5943" from-port="2" to-layer="5945" to-port="0"/>
		<edge from-layer="5944" from-port="0" to-layer="5945" to-port="1"/>
		<edge from-layer="5945" from-port="2" to-layer="5946" to-port="0"/>
		<edge from-layer="5946" from-port="1" to-layer="5947" to-port="1"/>
		<edge from-layer="5947" from-port="2" to-layer="5948" to-port="1"/>
		<edge from-layer="5948" from-port="2" to-layer="5950" to-port="0"/>
		<edge from-layer="5949" from-port="0" to-layer="5950" to-port="1"/>
		<edge from-layer="5950" from-port="2" to-layer="5952" to-port="0"/>
		<edge from-layer="5951" from-port="0" to-layer="5952" to-port="1"/>
		<edge from-layer="5952" from-port="2" to-layer="5954" to-port="0"/>
		<edge from-layer="5953" from-port="0" to-layer="5954" to-port="1"/>
		<edge from-layer="5954" from-port="2" to-layer="5957" to-port="0"/>
		<edge from-layer="5955" from-port="0" to-layer="5957" to-port="1"/>
		<edge from-layer="5956" from-port="0" to-layer="5957" to-port="2"/>
		<edge from-layer="5957" from-port="4" to-layer="6158" to-port="0"/>
		<edge from-layer="5957" from-port="3" to-layer="6182" to-port="0"/>
		<edge from-layer="5957" from-port="4" to-layer="5958" to-port="3"/>
		<edge from-layer="5958" from-port="4" to-layer="5960" to-port="0"/>
		<edge from-layer="5959" from-port="0" to-layer="5960" to-port="1"/>
		<edge from-layer="5960" from-port="2" to-layer="5962" to-port="0"/>
		<edge from-layer="5961" from-port="0" to-layer="5962" to-port="1"/>
		<edge from-layer="5962" from-port="2" to-layer="5963" to-port="0"/>
		<edge from-layer="5963" from-port="1" to-layer="5965" to-port="0"/>
		<edge from-layer="5964" from-port="0" to-layer="5965" to-port="1"/>
		<edge from-layer="5965" from-port="2" to-layer="5967" to-port="0"/>
		<edge from-layer="5966" from-port="0" to-layer="5967" to-port="1"/>
		<edge from-layer="5967" from-port="2" to-layer="5968" to-port="0"/>
		<edge from-layer="5968" from-port="1" to-layer="5971" to-port="0"/>
		<edge from-layer="5969" from-port="0" to-layer="5971" to-port="1"/>
		<edge from-layer="5970" from-port="0" to-layer="5971" to-port="2"/>
		<edge from-layer="5971" from-port="5" to-layer="6093" to-port="0"/>
		<edge from-layer="5971" from-port="4" to-layer="6019" to-port="0"/>
		<edge from-layer="5971" from-port="4" to-layer="6029" to-port="0"/>
		<edge from-layer="5971" from-port="5" to-layer="6083" to-port="0"/>
		<edge from-layer="5971" from-port="3" to-layer="5984" to-port="0"/>
		<edge from-layer="5971" from-port="6" to-layer="6157" to-port="0"/>
		<edge from-layer="5971" from-port="6" to-layer="6147" to-port="0"/>
		<edge from-layer="5971" from-port="3" to-layer="5974" to-port="0"/>
		<edge from-layer="5972" from-port="0" to-layer="5984" to-port="1"/>
		<edge from-layer="5973" from-port="0" to-layer="5976" to-port="0"/>
		<edge from-layer="5974" from-port="1" to-layer="5975" to-port="0"/>
		<edge from-layer="5975" from-port="1" to-layer="5976" to-port="1"/>
		<edge from-layer="5976" from-port="2" to-layer="5978" to-port="0"/>
		<edge from-layer="5977" from-port="0" to-layer="5978" to-port="1"/>
		<edge from-layer="5978" from-port="2" to-layer="5982" to-port="0"/>
		<edge from-layer="5979" from-port="0" to-layer="5982" to-port="1"/>
		<edge from-layer="5980" from-port="0" to-layer="5982" to-port="2"/>
		<edge from-layer="5981" from-port="0" to-layer="5982" to-port="3"/>
		<edge from-layer="5982" from-port="4" to-layer="5984" to-port="2"/>
		<edge from-layer="5983" from-port="0" to-layer="5984" to-port="3"/>
		<edge from-layer="5984" from-port="4" to-layer="5985" to-port="1"/>
		<edge from-layer="5985" from-port="2" to-layer="5987" to-port="0"/>
		<edge from-layer="5986" from-port="0" to-layer="5987" to-port="1"/>
		<edge from-layer="5987" from-port="2" to-layer="5989" to-port="0"/>
		<edge from-layer="5988" from-port="0" to-layer="5989" to-port="1"/>
		<edge from-layer="5989" from-port="2" to-layer="5991" to-port="0"/>
		<edge from-layer="5989" from-port="2" to-layer="6008" to-port="0"/>
		<edge from-layer="5989" from-port="2" to-layer="5997" to-port="0"/>
		<edge from-layer="5990" from-port="0" to-layer="5996" to-port="0"/>
		<edge from-layer="5991" from-port="1" to-layer="5992" to-port="0"/>
		<edge from-layer="5992" from-port="1" to-layer="5994" to-port="0"/>
		<edge from-layer="5993" from-port="0" to-layer="5994" to-port="1"/>
		<edge from-layer="5994" from-port="2" to-layer="5996" to-port="1"/>
		<edge from-layer="5995" from-port="0" to-layer="5996" to-port="2"/>
		<edge from-layer="5996" from-port="3" to-layer="5997" to-port="1"/>
		<edge from-layer="5997" from-port="2" to-layer="5999" to-port="0"/>
		<edge from-layer="5998" from-port="0" to-layer="5999" to-port="1"/>
		<edge from-layer="5999" from-port="2" to-layer="6001" to-port="0"/>
		<edge from-layer="6000" from-port="0" to-layer="6001" to-port="1"/>
		<edge from-layer="6001" from-port="2" to-layer="6002" to-port="0"/>
		<edge from-layer="6002" from-port="1" to-layer="6004" to-port="0"/>
		<edge from-layer="6003" from-port="0" to-layer="6004" to-port="1"/>
		<edge from-layer="6004" from-port="2" to-layer="6006" to-port="0"/>
		<edge from-layer="6005" from-port="0" to-layer="6006" to-port="1"/>
		<edge from-layer="6006" from-port="2" to-layer="6007" to-port="0"/>
		<edge from-layer="6007" from-port="1" to-layer="6008" to-port="1"/>
		<edge from-layer="6008" from-port="2" to-layer="6009" to-port="1"/>
		<edge from-layer="6009" from-port="2" to-layer="6011" to-port="0"/>
		<edge from-layer="6010" from-port="0" to-layer="6011" to-port="1"/>
		<edge from-layer="6011" from-port="2" to-layer="6013" to-port="0"/>
		<edge from-layer="6012" from-port="0" to-layer="6013" to-port="1"/>
		<edge from-layer="6013" from-port="2" to-layer="6015" to-port="0"/>
		<edge from-layer="6014" from-port="0" to-layer="6015" to-port="1"/>
		<edge from-layer="6015" from-port="2" to-layer="6016" to-port="0"/>
		<edge from-layer="6015" from-port="2" to-layer="6016" to-port="1"/>
		<edge from-layer="6016" from-port="2" to-layer="6080" to-port="0"/>
		<edge from-layer="6017" from-port="0" to-layer="6029" to-port="1"/>
		<edge from-layer="6018" from-port="0" to-layer="6021" to-port="0"/>
		<edge from-layer="6019" from-port="1" to-layer="6020" to-port="0"/>
		<edge from-layer="6020" from-port="1" to-layer="6021" to-port="1"/>
		<edge from-layer="6021" from-port="2" to-layer="6023" to-port="0"/>
		<edge from-layer="6022" from-port="0" to-layer="6023" to-port="1"/>
		<edge from-layer="6023" from-port="2" to-layer="6027" to-port="0"/>
		<edge from-layer="6024" from-port="0" to-layer="6027" to-port="1"/>
		<edge from-layer="6025" from-port="0" to-layer="6027" to-port="2"/>
		<edge from-layer="6026" from-port="0" to-layer="6027" to-port="3"/>
		<edge from-layer="6027" from-port="4" to-layer="6029" to-port="2"/>
		<edge from-layer="6028" from-port="0" to-layer="6029" to-port="3"/>
		<edge from-layer="6029" from-port="4" to-layer="6030" to-port="1"/>
		<edge from-layer="6030" from-port="2" to-layer="6032" to-port="0"/>
		<edge from-layer="6031" from-port="0" to-layer="6032" to-port="1"/>
		<edge from-layer="6032" from-port="2" to-layer="6034" to-port="0"/>
		<edge from-layer="6033" from-port="0" to-layer="6034" to-port="1"/>
		<edge from-layer="6034" from-port="2" to-layer="6042" to-port="0"/>
		<edge from-layer="6034" from-port="2" to-layer="6036" to-port="0"/>
		<edge from-layer="6034" from-port="2" to-layer="6053" to-port="0"/>
		<edge from-layer="6035" from-port="0" to-layer="6041" to-port="0"/>
		<edge from-layer="6036" from-port="1" to-layer="6037" to-port="0"/>
		<edge from-layer="6037" from-port="1" to-layer="6039" to-port="0"/>
		<edge from-layer="6038" from-port="0" to-layer="6039" to-port="1"/>
		<edge from-layer="6039" from-port="2" to-layer="6041" to-port="1"/>
		<edge from-layer="6040" from-port="0" to-layer="6041" to-port="2"/>
		<edge from-layer="6041" from-port="3" to-layer="6042" to-port="1"/>
		<edge from-layer="6042" from-port="2" to-layer="6044" to-port="0"/>
		<edge from-layer="6043" from-port="0" to-layer="6044" to-port="1"/>
		<edge from-layer="6044" from-port="2" to-layer="6046" to-port="0"/>
		<edge from-layer="6045" from-port="0" to-layer="6046" to-port="1"/>
		<edge from-layer="6046" from-port="2" to-layer="6047" to-port="0"/>
		<edge from-layer="6047" from-port="1" to-layer="6049" to-port="0"/>
		<edge from-layer="6048" from-port="0" to-layer="6049" to-port="1"/>
		<edge from-layer="6049" from-port="2" to-layer="6051" to-port="0"/>
		<edge from-layer="6050" from-port="0" to-layer="6051" to-port="1"/>
		<edge from-layer="6051" from-port="2" to-layer="6052" to-port="0"/>
		<edge from-layer="6052" from-port="1" to-layer="6053" to-port="1"/>
		<edge from-layer="6053" from-port="2" to-layer="6054" to-port="1"/>
		<edge from-layer="6054" from-port="2" to-layer="6056" to-port="0"/>
		<edge from-layer="6055" from-port="0" to-layer="6056" to-port="1"/>
		<edge from-layer="6056" from-port="2" to-layer="6058" to-port="0"/>
		<edge from-layer="6057" from-port="0" to-layer="6058" to-port="1"/>
		<edge from-layer="6058" from-port="2" to-layer="6060" to-port="0"/>
		<edge from-layer="6059" from-port="0" to-layer="6060" to-port="1"/>
		<edge from-layer="6060" from-port="2" to-layer="6227" to-port="1"/>
		<edge from-layer="6060" from-port="2" to-layer="6305" to-port="0"/>
		<edge from-layer="6060" from-port="2" to-layer="6389" to-port="0"/>
		<edge from-layer="6060" from-port="2" to-layer="6062" to-port="0"/>
		<edge from-layer="6061" from-port="0" to-layer="6062" to-port="1"/>
		<edge from-layer="6062" from-port="2" to-layer="6064" to-port="0"/>
		<edge from-layer="6063" from-port="0" to-layer="6064" to-port="1"/>
		<edge from-layer="6064" from-port="2" to-layer="6079" to-port="0"/>
		<edge from-layer="6064" from-port="2" to-layer="6065" to-port="0"/>
		<edge from-layer="6065" from-port="1" to-layer="6066" to-port="0"/>
		<edge from-layer="6066" from-port="1" to-layer="6068" to-port="0"/>
		<edge from-layer="6067" from-port="0" to-layer="6068" to-port="1"/>
		<edge from-layer="6068" from-port="2" to-layer="6070" to-port="0"/>
		<edge from-layer="6069" from-port="0" to-layer="6070" to-port="1"/>
		<edge from-layer="6070" from-port="2" to-layer="6071" to-port="0"/>
		<edge from-layer="6071" from-port="1" to-layer="6072" to-port="0"/>
		<edge from-layer="6072" from-port="1" to-layer="6076" to-port="0"/>
		<edge from-layer="6073" from-port="0" to-layer="6076" to-port="1"/>
		<edge from-layer="6074" from-port="0" to-layer="6076" to-port="2"/>
		<edge from-layer="6075" from-port="0" to-layer="6076" to-port="3"/>
		<edge from-layer="6076" from-port="4" to-layer="6079" to-port="1"/>
		<edge from-layer="6077" from-port="0" to-layer="6079" to-port="2"/>
		<edge from-layer="6078" from-port="0" to-layer="6079" to-port="3"/>
		<edge from-layer="6079" from-port="4" to-layer="6080" to-port="1"/>
		<edge from-layer="6080" from-port="2" to-layer="6144" to-port="0"/>
		<edge from-layer="6081" from-port="0" to-layer="6093" to-port="1"/>
		<edge from-layer="6082" from-port="0" to-layer="6085" to-port="0"/>
		<edge from-layer="6083" from-port="1" to-layer="6084" to-port="0"/>
		<edge from-layer="6084" from-port="1" to-layer="6085" to-port="1"/>
		<edge from-layer="6085" from-port="2" to-layer="6087" to-port="0"/>
		<edge from-layer="6086" from-port="0" to-layer="6087" to-port="1"/>
		<edge from-layer="6087" from-port="2" to-layer="6091" to-port="0"/>
		<edge from-layer="6088" from-port="0" to-layer="6091" to-port="1"/>
		<edge from-layer="6089" from-port="0" to-layer="6091" to-port="2"/>
		<edge from-layer="6090" from-port="0" to-layer="6091" to-port="3"/>
		<edge from-layer="6091" from-port="4" to-layer="6093" to-port="2"/>
		<edge from-layer="6092" from-port="0" to-layer="6093" to-port="3"/>
		<edge from-layer="6093" from-port="4" to-layer="6094" to-port="1"/>
		<edge from-layer="6094" from-port="2" to-layer="6096" to-port="0"/>
		<edge from-layer="6095" from-port="0" to-layer="6096" to-port="1"/>
		<edge from-layer="6096" from-port="2" to-layer="6098" to-port="0"/>
		<edge from-layer="6097" from-port="0" to-layer="6098" to-port="1"/>
		<edge from-layer="6098" from-port="2" to-layer="6100" to-port="0"/>
		<edge from-layer="6098" from-port="2" to-layer="6106" to-port="0"/>
		<edge from-layer="6098" from-port="2" to-layer="6117" to-port="0"/>
		<edge from-layer="6099" from-port="0" to-layer="6105" to-port="0"/>
		<edge from-layer="6100" from-port="1" to-layer="6101" to-port="0"/>
		<edge from-layer="6101" from-port="1" to-layer="6103" to-port="0"/>
		<edge from-layer="6102" from-port="0" to-layer="6103" to-port="1"/>
		<edge from-layer="6103" from-port="2" to-layer="6105" to-port="1"/>
		<edge from-layer="6104" from-port="0" to-layer="6105" to-port="2"/>
		<edge from-layer="6105" from-port="3" to-layer="6106" to-port="1"/>
		<edge from-layer="6106" from-port="2" to-layer="6108" to-port="0"/>
		<edge from-layer="6107" from-port="0" to-layer="6108" to-port="1"/>
		<edge from-layer="6108" from-port="2" to-layer="6110" to-port="0"/>
		<edge from-layer="6109" from-port="0" to-layer="6110" to-port="1"/>
		<edge from-layer="6110" from-port="2" to-layer="6111" to-port="0"/>
		<edge from-layer="6111" from-port="1" to-layer="6113" to-port="0"/>
		<edge from-layer="6112" from-port="0" to-layer="6113" to-port="1"/>
		<edge from-layer="6113" from-port="2" to-layer="6115" to-port="0"/>
		<edge from-layer="6114" from-port="0" to-layer="6115" to-port="1"/>
		<edge from-layer="6115" from-port="2" to-layer="6116" to-port="0"/>
		<edge from-layer="6116" from-port="1" to-layer="6117" to-port="1"/>
		<edge from-layer="6117" from-port="2" to-layer="6118" to-port="1"/>
		<edge from-layer="6118" from-port="2" to-layer="6120" to-port="0"/>
		<edge from-layer="6119" from-port="0" to-layer="6120" to-port="1"/>
		<edge from-layer="6120" from-port="2" to-layer="6122" to-port="0"/>
		<edge from-layer="6121" from-port="0" to-layer="6122" to-port="1"/>
		<edge from-layer="6122" from-port="2" to-layer="6124" to-port="0"/>
		<edge from-layer="6123" from-port="0" to-layer="6124" to-port="1"/>
		<edge from-layer="6124" from-port="2" to-layer="6407" to-port="0"/>
		<edge from-layer="6124" from-port="2" to-layer="6229" to-port="0"/>
		<edge from-layer="6124" from-port="2" to-layer="6313" to-port="1"/>
		<edge from-layer="6124" from-port="2" to-layer="6126" to-port="0"/>
		<edge from-layer="6125" from-port="0" to-layer="6126" to-port="1"/>
		<edge from-layer="6126" from-port="2" to-layer="6128" to-port="0"/>
		<edge from-layer="6127" from-port="0" to-layer="6128" to-port="1"/>
		<edge from-layer="6128" from-port="2" to-layer="6143" to-port="0"/>
		<edge from-layer="6128" from-port="2" to-layer="6129" to-port="0"/>
		<edge from-layer="6129" from-port="1" to-layer="6130" to-port="0"/>
		<edge from-layer="6130" from-port="1" to-layer="6132" to-port="0"/>
		<edge from-layer="6131" from-port="0" to-layer="6132" to-port="1"/>
		<edge from-layer="6132" from-port="2" to-layer="6134" to-port="0"/>
		<edge from-layer="6133" from-port="0" to-layer="6134" to-port="1"/>
		<edge from-layer="6134" from-port="2" to-layer="6135" to-port="0"/>
		<edge from-layer="6135" from-port="1" to-layer="6136" to-port="0"/>
		<edge from-layer="6136" from-port="1" to-layer="6140" to-port="0"/>
		<edge from-layer="6137" from-port="0" to-layer="6140" to-port="1"/>
		<edge from-layer="6138" from-port="0" to-layer="6140" to-port="2"/>
		<edge from-layer="6139" from-port="0" to-layer="6140" to-port="3"/>
		<edge from-layer="6140" from-port="4" to-layer="6143" to-port="1"/>
		<edge from-layer="6141" from-port="0" to-layer="6143" to-port="2"/>
		<edge from-layer="6142" from-port="0" to-layer="6143" to-port="3"/>
		<edge from-layer="6143" from-port="4" to-layer="6144" to-port="1"/>
		<edge from-layer="6144" from-port="2" to-layer="6208" to-port="0"/>
		<edge from-layer="6145" from-port="0" to-layer="6157" to-port="1"/>
		<edge from-layer="6146" from-port="0" to-layer="6149" to-port="0"/>
		<edge from-layer="6147" from-port="1" to-layer="6148" to-port="0"/>
		<edge from-layer="6148" from-port="1" to-layer="6149" to-port="1"/>
		<edge from-layer="6149" from-port="2" to-layer="6151" to-port="0"/>
		<edge from-layer="6150" from-port="0" to-layer="6151" to-port="1"/>
		<edge from-layer="6151" from-port="2" to-layer="6155" to-port="0"/>
		<edge from-layer="6152" from-port="0" to-layer="6155" to-port="1"/>
		<edge from-layer="6153" from-port="0" to-layer="6155" to-port="2"/>
		<edge from-layer="6154" from-port="0" to-layer="6155" to-port="3"/>
		<edge from-layer="6155" from-port="4" to-layer="6157" to-port="2"/>
		<edge from-layer="6156" from-port="0" to-layer="6157" to-port="3"/>
		<edge from-layer="6157" from-port="4" to-layer="6158" to-port="1"/>
		<edge from-layer="6158" from-port="2" to-layer="6160" to-port="0"/>
		<edge from-layer="6159" from-port="0" to-layer="6160" to-port="1"/>
		<edge from-layer="6160" from-port="2" to-layer="6162" to-port="0"/>
		<edge from-layer="6161" from-port="0" to-layer="6162" to-port="1"/>
		<edge from-layer="6162" from-port="2" to-layer="6181" to-port="0"/>
		<edge from-layer="6162" from-port="2" to-layer="6170" to-port="0"/>
		<edge from-layer="6162" from-port="2" to-layer="6164" to-port="0"/>
		<edge from-layer="6163" from-port="0" to-layer="6169" to-port="0"/>
		<edge from-layer="6164" from-port="1" to-layer="6165" to-port="0"/>
		<edge from-layer="6165" from-port="1" to-layer="6167" to-port="0"/>
		<edge from-layer="6166" from-port="0" to-layer="6167" to-port="1"/>
		<edge from-layer="6167" from-port="2" to-layer="6169" to-port="1"/>
		<edge from-layer="6168" from-port="0" to-layer="6169" to-port="2"/>
		<edge from-layer="6169" from-port="3" to-layer="6170" to-port="1"/>
		<edge from-layer="6170" from-port="2" to-layer="6172" to-port="0"/>
		<edge from-layer="6171" from-port="0" to-layer="6172" to-port="1"/>
		<edge from-layer="6172" from-port="2" to-layer="6174" to-port="0"/>
		<edge from-layer="6173" from-port="0" to-layer="6174" to-port="1"/>
		<edge from-layer="6174" from-port="2" to-layer="6175" to-port="0"/>
		<edge from-layer="6175" from-port="1" to-layer="6177" to-port="0"/>
		<edge from-layer="6176" from-port="0" to-layer="6177" to-port="1"/>
		<edge from-layer="6177" from-port="2" to-layer="6179" to-port="0"/>
		<edge from-layer="6178" from-port="0" to-layer="6179" to-port="1"/>
		<edge from-layer="6179" from-port="2" to-layer="6180" to-port="0"/>
		<edge from-layer="6180" from-port="1" to-layer="6181" to-port="1"/>
		<edge from-layer="6181" from-port="2" to-layer="6182" to-port="1"/>
		<edge from-layer="6182" from-port="2" to-layer="6184" to-port="0"/>
		<edge from-layer="6183" from-port="0" to-layer="6184" to-port="1"/>
		<edge from-layer="6184" from-port="2" to-layer="6186" to-port="0"/>
		<edge from-layer="6185" from-port="0" to-layer="6186" to-port="1"/>
		<edge from-layer="6186" from-port="2" to-layer="6188" to-port="0"/>
		<edge from-layer="6187" from-port="0" to-layer="6188" to-port="1"/>
		<edge from-layer="6188" from-port="2" to-layer="6249" to-port="0"/>
		<edge from-layer="6188" from-port="2" to-layer="6415" to-port="1"/>
		<edge from-layer="6188" from-port="2" to-layer="6190" to-port="0"/>
		<edge from-layer="6188" from-port="2" to-layer="6315" to-port="0"/>
		<edge from-layer="6189" from-port="0" to-layer="6190" to-port="1"/>
		<edge from-layer="6190" from-port="2" to-layer="6192" to-port="0"/>
		<edge from-layer="6191" from-port="0" to-layer="6192" to-port="1"/>
		<edge from-layer="6192" from-port="2" to-layer="6193" to-port="0"/>
		<edge from-layer="6192" from-port="2" to-layer="6207" to-port="0"/>
		<edge from-layer="6193" from-port="1" to-layer="6194" to-port="0"/>
		<edge from-layer="6194" from-port="1" to-layer="6196" to-port="0"/>
		<edge from-layer="6195" from-port="0" to-layer="6196" to-port="1"/>
		<edge from-layer="6196" from-port="2" to-layer="6198" to-port="0"/>
		<edge from-layer="6197" from-port="0" to-layer="6198" to-port="1"/>
		<edge from-layer="6198" from-port="2" to-layer="6199" to-port="0"/>
		<edge from-layer="6199" from-port="1" to-layer="6200" to-port="0"/>
		<edge from-layer="6200" from-port="1" to-layer="6204" to-port="0"/>
		<edge from-layer="6201" from-port="0" to-layer="6204" to-port="1"/>
		<edge from-layer="6202" from-port="0" to-layer="6204" to-port="2"/>
		<edge from-layer="6203" from-port="0" to-layer="6204" to-port="3"/>
		<edge from-layer="6204" from-port="4" to-layer="6207" to-port="1"/>
		<edge from-layer="6205" from-port="0" to-layer="6207" to-port="2"/>
		<edge from-layer="6206" from-port="0" to-layer="6207" to-port="3"/>
		<edge from-layer="6207" from-port="4" to-layer="6208" to-port="1"/>
		<edge from-layer="6208" from-port="2" to-layer="6362" to-port="0"/>
		<edge from-layer="6208" from-port="2" to-layer="6270" to-port="0"/>
		<edge from-layer="6208" from-port="2" to-layer="6287" to-port="0"/>
		<edge from-layer="6208" from-port="2" to-layer="6209" to-port="0"/>
		<edge from-layer="6208" from-port="2" to-layer="6211" to-port="0"/>
		<edge from-layer="6208" from-port="2" to-layer="6336" to-port="0"/>
		<edge from-layer="6208" from-port="2" to-layer="6219" to-port="0"/>
		<edge from-layer="6209" from-port="1" to-layer="6485" to-port="0"/>
		<edge from-layer="6210" from-port="0" to-layer="6211" to-port="1"/>
		<edge from-layer="6211" from-port="2" to-layer="6213" to-port="0"/>
		<edge from-layer="6212" from-port="0" to-layer="6213" to-port="1"/>
		<edge from-layer="6213" from-port="2" to-layer="6215" to-port="0"/>
		<edge from-layer="6214" from-port="0" to-layer="6215" to-port="1"/>
		<edge from-layer="6215" from-port="2" to-layer="6217" to-port="0"/>
		<edge from-layer="6216" from-port="0" to-layer="6217" to-port="1"/>
		<edge from-layer="6217" from-port="2" to-layer="6226" to-port="0"/>
		<edge from-layer="6218" from-port="0" to-layer="6219" to-port="1"/>
		<edge from-layer="6219" from-port="2" to-layer="6221" to-port="0"/>
		<edge from-layer="6220" from-port="0" to-layer="6221" to-port="1"/>
		<edge from-layer="6221" from-port="2" to-layer="6223" to-port="0"/>
		<edge from-layer="6222" from-port="0" to-layer="6223" to-port="1"/>
		<edge from-layer="6223" from-port="2" to-layer="6225" to-port="0"/>
		<edge from-layer="6224" from-port="0" to-layer="6225" to-port="1"/>
		<edge from-layer="6225" from-port="2" to-layer="6226" to-port="1"/>
		<edge from-layer="6226" from-port="2" to-layer="6227" to-port="0"/>
		<edge from-layer="6227" from-port="2" to-layer="6247" to-port="0"/>
		<edge from-layer="6228" from-port="0" to-layer="6229" to-port="1"/>
		<edge from-layer="6229" from-port="2" to-layer="6231" to-port="0"/>
		<edge from-layer="6230" from-port="0" to-layer="6231" to-port="1"/>
		<edge from-layer="6231" from-port="2" to-layer="6232" to-port="0"/>
		<edge from-layer="6231" from-port="2" to-layer="6246" to-port="0"/>
		<edge from-layer="6232" from-port="1" to-layer="6233" to-port="0"/>
		<edge from-layer="6233" from-port="1" to-layer="6235" to-port="0"/>
		<edge from-layer="6234" from-port="0" to-layer="6235" to-port="1"/>
		<edge from-layer="6235" from-port="2" to-layer="6237" to-port="0"/>
		<edge from-layer="6236" from-port="0" to-layer="6237" to-port="1"/>
		<edge from-layer="6237" from-port="2" to-layer="6238" to-port="0"/>
		<edge from-layer="6238" from-port="1" to-layer="6239" to-port="0"/>
		<edge from-layer="6239" from-port="1" to-layer="6243" to-port="0"/>
		<edge from-layer="6240" from-port="0" to-layer="6243" to-port="1"/>
		<edge from-layer="6241" from-port="0" to-layer="6243" to-port="2"/>
		<edge from-layer="6242" from-port="0" to-layer="6243" to-port="3"/>
		<edge from-layer="6243" from-port="4" to-layer="6246" to-port="1"/>
		<edge from-layer="6244" from-port="0" to-layer="6246" to-port="2"/>
		<edge from-layer="6245" from-port="0" to-layer="6246" to-port="3"/>
		<edge from-layer="6246" from-port="4" to-layer="6247" to-port="1"/>
		<edge from-layer="6247" from-port="2" to-layer="6267" to-port="0"/>
		<edge from-layer="6248" from-port="0" to-layer="6249" to-port="1"/>
		<edge from-layer="6249" from-port="2" to-layer="6251" to-port="0"/>
		<edge from-layer="6250" from-port="0" to-layer="6251" to-port="1"/>
		<edge from-layer="6251" from-port="2" to-layer="6252" to-port="0"/>
		<edge from-layer="6251" from-port="2" to-layer="6266" to-port="0"/>
		<edge from-layer="6252" from-port="1" to-layer="6253" to-port="0"/>
		<edge from-layer="6253" from-port="1" to-layer="6255" to-port="0"/>
		<edge from-layer="6254" from-port="0" to-layer="6255" to-port="1"/>
		<edge from-layer="6255" from-port="2" to-layer="6257" to-port="0"/>
		<edge from-layer="6256" from-port="0" to-layer="6257" to-port="1"/>
		<edge from-layer="6257" from-port="2" to-layer="6258" to-port="0"/>
		<edge from-layer="6258" from-port="1" to-layer="6259" to-port="0"/>
		<edge from-layer="6259" from-port="1" to-layer="6263" to-port="0"/>
		<edge from-layer="6260" from-port="0" to-layer="6263" to-port="1"/>
		<edge from-layer="6261" from-port="0" to-layer="6263" to-port="2"/>
		<edge from-layer="6262" from-port="0" to-layer="6263" to-port="3"/>
		<edge from-layer="6263" from-port="4" to-layer="6266" to-port="1"/>
		<edge from-layer="6264" from-port="0" to-layer="6266" to-port="2"/>
		<edge from-layer="6265" from-port="0" to-layer="6266" to-port="3"/>
		<edge from-layer="6266" from-port="4" to-layer="6267" to-port="1"/>
		<edge from-layer="6267" from-port="2" to-layer="6268" to-port="0"/>
		<edge from-layer="6268" from-port="1" to-layer="6462" to-port="0"/>
		<edge from-layer="6269" from-port="0" to-layer="6270" to-port="1"/>
		<edge from-layer="6270" from-port="2" to-layer="6272" to-port="0"/>
		<edge from-layer="6271" from-port="0" to-layer="6272" to-port="1"/>
		<edge from-layer="6272" from-port="2" to-layer="6274" to-port="0"/>
		<edge from-layer="6273" from-port="0" to-layer="6274" to-port="1"/>
		<edge from-layer="6274" from-port="2" to-layer="6276" to-port="0"/>
		<edge from-layer="6275" from-port="0" to-layer="6276" to-port="1"/>
		<edge from-layer="6276" from-port="2" to-layer="6277" to-port="0"/>
		<edge from-layer="6277" from-port="1" to-layer="6279" to-port="0"/>
		<edge from-layer="6278" from-port="0" to-layer="6279" to-port="1"/>
		<edge from-layer="6279" from-port="2" to-layer="6281" to-port="0"/>
		<edge from-layer="6280" from-port="0" to-layer="6281" to-port="1"/>
		<edge from-layer="6281" from-port="2" to-layer="6283" to-port="0"/>
		<edge from-layer="6282" from-port="0" to-layer="6283" to-port="1"/>
		<edge from-layer="6283" from-port="2" to-layer="6285" to-port="0"/>
		<edge from-layer="6284" from-port="0" to-layer="6285" to-port="1"/>
		<edge from-layer="6285" from-port="2" to-layer="6303" to-port="0"/>
		<edge from-layer="6286" from-port="0" to-layer="6287" to-port="1"/>
		<edge from-layer="6287" from-port="2" to-layer="6289" to-port="0"/>
		<edge from-layer="6288" from-port="0" to-layer="6289" to-port="1"/>
		<edge from-layer="6289" from-port="2" to-layer="6291" to-port="0"/>
		<edge from-layer="6290" from-port="0" to-layer="6291" to-port="1"/>
		<edge from-layer="6291" from-port="2" to-layer="6293" to-port="0"/>
		<edge from-layer="6292" from-port="0" to-layer="6293" to-port="1"/>
		<edge from-layer="6293" from-port="2" to-layer="6294" to-port="0"/>
		<edge from-layer="6294" from-port="1" to-layer="6296" to-port="0"/>
		<edge from-layer="6295" from-port="0" to-layer="6296" to-port="1"/>
		<edge from-layer="6296" from-port="2" to-layer="6298" to-port="0"/>
		<edge from-layer="6297" from-port="0" to-layer="6298" to-port="1"/>
		<edge from-layer="6298" from-port="2" to-layer="6300" to-port="0"/>
		<edge from-layer="6299" from-port="0" to-layer="6300" to-port="1"/>
		<edge from-layer="6300" from-port="2" to-layer="6302" to-port="0"/>
		<edge from-layer="6301" from-port="0" to-layer="6302" to-port="1"/>
		<edge from-layer="6302" from-port="2" to-layer="6303" to-port="1"/>
		<edge from-layer="6303" from-port="2" to-layer="6312" to-port="0"/>
		<edge from-layer="6304" from-port="0" to-layer="6305" to-port="1"/>
		<edge from-layer="6305" from-port="2" to-layer="6307" to-port="0"/>
		<edge from-layer="6306" from-port="0" to-layer="6307" to-port="1"/>
		<edge from-layer="6307" from-port="2" to-layer="6309" to-port="0"/>
		<edge from-layer="6308" from-port="0" to-layer="6309" to-port="1"/>
		<edge from-layer="6309" from-port="2" to-layer="6311" to-port="0"/>
		<edge from-layer="6310" from-port="0" to-layer="6311" to-port="1"/>
		<edge from-layer="6311" from-port="2" to-layer="6312" to-port="1"/>
		<edge from-layer="6312" from-port="2" to-layer="6313" to-port="0"/>
		<edge from-layer="6313" from-port="2" to-layer="6333" to-port="0"/>
		<edge from-layer="6314" from-port="0" to-layer="6315" to-port="1"/>
		<edge from-layer="6315" from-port="2" to-layer="6317" to-port="0"/>
		<edge from-layer="6316" from-port="0" to-layer="6317" to-port="1"/>
		<edge from-layer="6317" from-port="2" to-layer="6318" to-port="0"/>
		<edge from-layer="6317" from-port="2" to-layer="6332" to-port="0"/>
		<edge from-layer="6318" from-port="1" to-layer="6319" to-port="0"/>
		<edge from-layer="6319" from-port="1" to-layer="6321" to-port="0"/>
		<edge from-layer="6320" from-port="0" to-layer="6321" to-port="1"/>
		<edge from-layer="6321" from-port="2" to-layer="6323" to-port="0"/>
		<edge from-layer="6322" from-port="0" to-layer="6323" to-port="1"/>
		<edge from-layer="6323" from-port="2" to-layer="6324" to-port="0"/>
		<edge from-layer="6324" from-port="1" to-layer="6325" to-port="0"/>
		<edge from-layer="6325" from-port="1" to-layer="6329" to-port="0"/>
		<edge from-layer="6326" from-port="0" to-layer="6329" to-port="1"/>
		<edge from-layer="6327" from-port="0" to-layer="6329" to-port="2"/>
		<edge from-layer="6328" from-port="0" to-layer="6329" to-port="3"/>
		<edge from-layer="6329" from-port="4" to-layer="6332" to-port="1"/>
		<edge from-layer="6330" from-port="0" to-layer="6332" to-port="2"/>
		<edge from-layer="6331" from-port="0" to-layer="6332" to-port="3"/>
		<edge from-layer="6332" from-port="4" to-layer="6333" to-port="1"/>
		<edge from-layer="6333" from-port="2" to-layer="6334" to-port="0"/>
		<edge from-layer="6334" from-port="1" to-layer="6439" to-port="0"/>
		<edge from-layer="6335" from-port="0" to-layer="6336" to-port="1"/>
		<edge from-layer="6336" from-port="2" to-layer="6338" to-port="0"/>
		<edge from-layer="6337" from-port="0" to-layer="6338" to-port="1"/>
		<edge from-layer="6338" from-port="2" to-layer="6340" to-port="0"/>
		<edge from-layer="6339" from-port="0" to-layer="6340" to-port="1"/>
		<edge from-layer="6340" from-port="2" to-layer="6342" to-port="0"/>
		<edge from-layer="6341" from-port="0" to-layer="6342" to-port="1"/>
		<edge from-layer="6342" from-port="2" to-layer="6343" to-port="0"/>
		<edge from-layer="6343" from-port="1" to-layer="6345" to-port="0"/>
		<edge from-layer="6344" from-port="0" to-layer="6345" to-port="1"/>
		<edge from-layer="6345" from-port="2" to-layer="6347" to-port="0"/>
		<edge from-layer="6346" from-port="0" to-layer="6347" to-port="1"/>
		<edge from-layer="6347" from-port="2" to-layer="6349" to-port="0"/>
		<edge from-layer="6348" from-port="0" to-layer="6349" to-port="1"/>
		<edge from-layer="6349" from-port="2" to-layer="6351" to-port="0"/>
		<edge from-layer="6350" from-port="0" to-layer="6351" to-port="1"/>
		<edge from-layer="6351" from-port="2" to-layer="6352" to-port="0"/>
		<edge from-layer="6352" from-port="1" to-layer="6354" to-port="0"/>
		<edge from-layer="6353" from-port="0" to-layer="6354" to-port="1"/>
		<edge from-layer="6354" from-port="2" to-layer="6356" to-port="0"/>
		<edge from-layer="6355" from-port="0" to-layer="6356" to-port="1"/>
		<edge from-layer="6356" from-port="2" to-layer="6358" to-port="0"/>
		<edge from-layer="6357" from-port="0" to-layer="6358" to-port="1"/>
		<edge from-layer="6358" from-port="2" to-layer="6360" to-port="0"/>
		<edge from-layer="6359" from-port="0" to-layer="6360" to-port="1"/>
		<edge from-layer="6360" from-port="2" to-layer="6387" to-port="0"/>
		<edge from-layer="6361" from-port="0" to-layer="6362" to-port="1"/>
		<edge from-layer="6362" from-port="2" to-layer="6364" to-port="0"/>
		<edge from-layer="6363" from-port="0" to-layer="6364" to-port="1"/>
		<edge from-layer="6364" from-port="2" to-layer="6366" to-port="0"/>
		<edge from-layer="6365" from-port="0" to-layer="6366" to-port="1"/>
		<edge from-layer="6366" from-port="2" to-layer="6368" to-port="0"/>
		<edge from-layer="6367" from-port="0" to-layer="6368" to-port="1"/>
		<edge from-layer="6368" from-port="2" to-layer="6369" to-port="0"/>
		<edge from-layer="6369" from-port="1" to-layer="6371" to-port="0"/>
		<edge from-layer="6370" from-port="0" to-layer="6371" to-port="1"/>
		<edge from-layer="6371" from-port="2" to-layer="6373" to-port="0"/>
		<edge from-layer="6372" from-port="0" to-layer="6373" to-port="1"/>
		<edge from-layer="6373" from-port="2" to-layer="6375" to-port="0"/>
		<edge from-layer="6374" from-port="0" to-layer="6375" to-port="1"/>
		<edge from-layer="6375" from-port="2" to-layer="6377" to-port="0"/>
		<edge from-layer="6376" from-port="0" to-layer="6377" to-port="1"/>
		<edge from-layer="6377" from-port="2" to-layer="6378" to-port="0"/>
		<edge from-layer="6378" from-port="1" to-layer="6380" to-port="0"/>
		<edge from-layer="6379" from-port="0" to-layer="6380" to-port="1"/>
		<edge from-layer="6380" from-port="2" to-layer="6382" to-port="0"/>
		<edge from-layer="6381" from-port="0" to-layer="6382" to-port="1"/>
		<edge from-layer="6382" from-port="2" to-layer="6384" to-port="0"/>
		<edge from-layer="6383" from-port="0" to-layer="6384" to-port="1"/>
		<edge from-layer="6384" from-port="2" to-layer="6386" to-port="0"/>
		<edge from-layer="6385" from-port="0" to-layer="6386" to-port="1"/>
		<edge from-layer="6386" from-port="2" to-layer="6387" to-port="1"/>
		<edge from-layer="6387" from-port="2" to-layer="6405" to-port="0"/>
		<edge from-layer="6388" from-port="0" to-layer="6389" to-port="1"/>
		<edge from-layer="6389" from-port="2" to-layer="6391" to-port="0"/>
		<edge from-layer="6390" from-port="0" to-layer="6391" to-port="1"/>
		<edge from-layer="6391" from-port="2" to-layer="6393" to-port="0"/>
		<edge from-layer="6392" from-port="0" to-layer="6393" to-port="1"/>
		<edge from-layer="6393" from-port="2" to-layer="6395" to-port="0"/>
		<edge from-layer="6394" from-port="0" to-layer="6395" to-port="1"/>
		<edge from-layer="6395" from-port="2" to-layer="6396" to-port="0"/>
		<edge from-layer="6396" from-port="1" to-layer="6398" to-port="0"/>
		<edge from-layer="6397" from-port="0" to-layer="6398" to-port="1"/>
		<edge from-layer="6398" from-port="2" to-layer="6400" to-port="0"/>
		<edge from-layer="6399" from-port="0" to-layer="6400" to-port="1"/>
		<edge from-layer="6400" from-port="2" to-layer="6402" to-port="0"/>
		<edge from-layer="6401" from-port="0" to-layer="6402" to-port="1"/>
		<edge from-layer="6402" from-port="2" to-layer="6404" to-port="0"/>
		<edge from-layer="6403" from-port="0" to-layer="6404" to-port="1"/>
		<edge from-layer="6404" from-port="2" to-layer="6405" to-port="1"/>
		<edge from-layer="6405" from-port="2" to-layer="6414" to-port="0"/>
		<edge from-layer="6406" from-port="0" to-layer="6407" to-port="1"/>
		<edge from-layer="6407" from-port="2" to-layer="6409" to-port="0"/>
		<edge from-layer="6408" from-port="0" to-layer="6409" to-port="1"/>
		<edge from-layer="6409" from-port="2" to-layer="6411" to-port="0"/>
		<edge from-layer="6410" from-port="0" to-layer="6411" to-port="1"/>
		<edge from-layer="6411" from-port="2" to-layer="6413" to-port="0"/>
		<edge from-layer="6412" from-port="0" to-layer="6413" to-port="1"/>
		<edge from-layer="6413" from-port="2" to-layer="6414" to-port="1"/>
		<edge from-layer="6414" from-port="2" to-layer="6415" to-port="0"/>
		<edge from-layer="6415" from-port="2" to-layer="6416" to-port="0"/>
		<edge from-layer="6416" from-port="1" to-layer="6418" to-port="0"/>
		<edge from-layer="6417" from-port="0" to-layer="6418" to-port="1"/>
		<edge from-layer="6418" from-port="2" to-layer="6420" to-port="0"/>
		<edge from-layer="6419" from-port="0" to-layer="6420" to-port="1"/>
		<edge from-layer="6420" from-port="2" to-layer="6422" to-port="0"/>
		<edge from-layer="6421" from-port="0" to-layer="6422" to-port="1"/>
		<edge from-layer="6422" from-port="2" to-layer="6424" to-port="0"/>
		<edge from-layer="6423" from-port="0" to-layer="6424" to-port="1"/>
		<edge from-layer="6424" from-port="2" to-layer="6425" to-port="0"/>
		<edge from-layer="6425" from-port="1" to-layer="6428" to-port="0"/>
		<edge from-layer="6425" from-port="1" to-layer="6438" to-port="0"/>
		<edge from-layer="6426" from-port="0" to-layer="6438" to-port="1"/>
		<edge from-layer="6427" from-port="0" to-layer="6430" to-port="0"/>
		<edge from-layer="6428" from-port="1" to-layer="6429" to-port="0"/>
		<edge from-layer="6429" from-port="1" to-layer="6430" to-port="1"/>
		<edge from-layer="6430" from-port="2" to-layer="6432" to-port="0"/>
		<edge from-layer="6431" from-port="0" to-layer="6432" to-port="1"/>
		<edge from-layer="6432" from-port="2" to-layer="6436" to-port="0"/>
		<edge from-layer="6433" from-port="0" to-layer="6436" to-port="1"/>
		<edge from-layer="6434" from-port="0" to-layer="6436" to-port="2"/>
		<edge from-layer="6435" from-port="0" to-layer="6436" to-port="3"/>
		<edge from-layer="6436" from-port="4" to-layer="6438" to-port="2"/>
		<edge from-layer="6437" from-port="0" to-layer="6438" to-port="3"/>
		<edge from-layer="6438" from-port="4" to-layer="6439" to-port="1"/>
		<edge from-layer="6439" from-port="2" to-layer="6441" to-port="0"/>
		<edge from-layer="6440" from-port="0" to-layer="6441" to-port="1"/>
		<edge from-layer="6441" from-port="2" to-layer="6443" to-port="0"/>
		<edge from-layer="6442" from-port="0" to-layer="6443" to-port="1"/>
		<edge from-layer="6443" from-port="2" to-layer="6445" to-port="0"/>
		<edge from-layer="6444" from-port="0" to-layer="6445" to-port="1"/>
		<edge from-layer="6445" from-port="2" to-layer="6447" to-port="0"/>
		<edge from-layer="6446" from-port="0" to-layer="6447" to-port="1"/>
		<edge from-layer="6447" from-port="2" to-layer="6448" to-port="0"/>
		<edge from-layer="6448" from-port="1" to-layer="6451" to-port="0"/>
		<edge from-layer="6448" from-port="1" to-layer="6461" to-port="0"/>
		<edge from-layer="6449" from-port="0" to-layer="6461" to-port="1"/>
		<edge from-layer="6450" from-port="0" to-layer="6453" to-port="0"/>
		<edge from-layer="6451" from-port="1" to-layer="6452" to-port="0"/>
		<edge from-layer="6452" from-port="1" to-layer="6453" to-port="1"/>
		<edge from-layer="6453" from-port="2" to-layer="6455" to-port="0"/>
		<edge from-layer="6454" from-port="0" to-layer="6455" to-port="1"/>
		<edge from-layer="6455" from-port="2" to-layer="6459" to-port="0"/>
		<edge from-layer="6456" from-port="0" to-layer="6459" to-port="1"/>
		<edge from-layer="6457" from-port="0" to-layer="6459" to-port="2"/>
		<edge from-layer="6458" from-port="0" to-layer="6459" to-port="3"/>
		<edge from-layer="6459" from-port="4" to-layer="6461" to-port="2"/>
		<edge from-layer="6460" from-port="0" to-layer="6461" to-port="3"/>
		<edge from-layer="6461" from-port="4" to-layer="6462" to-port="1"/>
		<edge from-layer="6462" from-port="2" to-layer="6464" to-port="0"/>
		<edge from-layer="6463" from-port="0" to-layer="6464" to-port="1"/>
		<edge from-layer="6464" from-port="2" to-layer="6466" to-port="0"/>
		<edge from-layer="6465" from-port="0" to-layer="6466" to-port="1"/>
		<edge from-layer="6466" from-port="2" to-layer="6468" to-port="0"/>
		<edge from-layer="6467" from-port="0" to-layer="6468" to-port="1"/>
		<edge from-layer="6468" from-port="2" to-layer="6470" to-port="0"/>
		<edge from-layer="6469" from-port="0" to-layer="6470" to-port="1"/>
		<edge from-layer="6470" from-port="2" to-layer="6471" to-port="0"/>
		<edge from-layer="6471" from-port="1" to-layer="6474" to-port="0"/>
		<edge from-layer="6471" from-port="1" to-layer="6484" to-port="0"/>
		<edge from-layer="6472" from-port="0" to-layer="6484" to-port="1"/>
		<edge from-layer="6473" from-port="0" to-layer="6476" to-port="0"/>
		<edge from-layer="6474" from-port="1" to-layer="6475" to-port="0"/>
		<edge from-layer="6475" from-port="1" to-layer="6476" to-port="1"/>
		<edge from-layer="6476" from-port="2" to-layer="6478" to-port="0"/>
		<edge from-layer="6477" from-port="0" to-layer="6478" to-port="1"/>
		<edge from-layer="6478" from-port="2" to-layer="6482" to-port="0"/>
		<edge from-layer="6479" from-port="0" to-layer="6482" to-port="1"/>
		<edge from-layer="6480" from-port="0" to-layer="6482" to-port="2"/>
		<edge from-layer="6481" from-port="0" to-layer="6482" to-port="3"/>
		<edge from-layer="6482" from-port="4" to-layer="6484" to-port="2"/>
		<edge from-layer="6483" from-port="0" to-layer="6484" to-port="3"/>
		<edge from-layer="6484" from-port="4" to-layer="6485" to-port="1"/>
		<edge from-layer="6485" from-port="2" to-layer="6487" to-port="0"/>
		<edge from-layer="6486" from-port="0" to-layer="6487" to-port="1"/>
		<edge from-layer="6487" from-port="2" to-layer="6489" to-port="0"/>
		<edge from-layer="6488" from-port="0" to-layer="6489" to-port="1"/>
		<edge from-layer="6489" from-port="2" to-layer="6491" to-port="0"/>
		<edge from-layer="6490" from-port="0" to-layer="6491" to-port="1"/>
		<edge from-layer="6491" from-port="2" to-layer="6493" to-port="0"/>
		<edge from-layer="6492" from-port="0" to-layer="6493" to-port="1"/>
		<edge from-layer="6493" from-port="2" to-layer="6494" to-port="0"/>
		<edge from-layer="6494" from-port="1" to-layer="6496" to-port="0"/>
		<edge from-layer="6495" from-port="0" to-layer="6496" to-port="1"/>
		<edge from-layer="6496" from-port="2" to-layer="6498" to-port="0"/>
		<edge from-layer="6497" from-port="0" to-layer="6498" to-port="1"/>
		<edge from-layer="6498" from-port="2" to-layer="6499" to-port="0"/>
	</edges>
	<meta_data>
		<MO_version value="2021.4.0-3839-cd81789d294-releases/2021/4"/>
		<cli_parameters>
			<caffe_parser_path value="DIR"/>
			<data_type value="FP32"/>
			<disable_nhwc_to_nchw value="False"/>
			<disable_omitting_optional value="False"/>
			<disable_resnet_optimization value="False"/>
			<disable_weights_compression value="False"/>
			<enable_concat_optimization value="False"/>
			<enable_flattening_nested_params value="False"/>
			<enable_ssd_gluoncv value="False"/>
			<extensions value="DIR"/>
			<framework value="onnx"/>
			<freeze_placeholder_with_value value="{}"/>
			<generate_deprecated_IR_V7 value="False"/>
			<input_model value="DIR/litehrnet_30_coco_384x288.onnx"/>
			<input_model_is_text value="False"/>
			<k value="DIR/CustomLayersMapping.xml"/>
			<keep_shape_ops value="True"/>
			<legacy_ir_generation value="False"/>
			<legacy_mxnet_model value="False"/>
			<log_level value="ERROR"/>
			<mean_scale_values value="{}"/>
			<mean_values value="()"/>
			<model_name value="litehrnet_30_coco_384x288"/>
			<output_dir value="DIR"/>
			<placeholder_data_types value="{}"/>
			<progress value="False"/>
			<remove_memory value="False"/>
			<remove_output_softmax value="False"/>
			<reverse_input_channels value="False"/>
			<save_params_from_nd value="False"/>
			<scale_values value="()"/>
			<silent value="False"/>
			<static_shape value="False"/>
			<stream_output value="False"/>
			<transform value=""/>
			<unset unset_cli_parameters="batch, counts, disable_fusing, disable_gfusing, finegrain_fusing, input, input_checkpoint, input_meta_graph, input_proto, input_shape, input_symbol, mean_file, mean_file_offsets, move_to_preprocess, nd_prefix_name, output, placeholder_shapes, pretrained_model_name, saved_model_dir, saved_model_tags, scale, tensorboard_logdir, tensorflow_custom_layer_libraries, tensorflow_custom_operations_config_update, tensorflow_object_detection_api_pipeline_config, tensorflow_use_custom_operations_config, transformations_config"/>
		</cli_parameters>
	</meta_data>
</net>
